back-end/modelo_lstm.pth (torch, 129733 bytes, 9 tensors)

lstm.weight_ih_l0 f4 [200, 3]
000000 f5 93 fb bc 06 57 6c be d9 d5 cb bb da 92 46 bd
       -0.0307102 -0.23080072 -0.006220561 -0.048479892
000010 6d 78 fd bd 02 48 1f 3e ad ff f9 be 09 41 aa 3e
       -0.12376485 0.15554813 -0.48827878 0.33252743
000020 b3 84 cb 3e 0a ba f7 3d 1a 35 99 be c9 f4 2f b9
       0.3974968 0.12096031 -0.29923326 -0.0001678049
000030 89 f9 2d 3d e7 87 95 3e d9 f7 b5 3c d6 e0 24 3e
       0.042474303 0.29205248 0.02221291 0.16101393
000040 3d 27 db bc 1c bb 16 bd d6 f6 90 3b d9 cc a0 3e
       -0.026752109 -0.036799535 0.0044239564 0.31406286
000050 33 19 32 3d 4c 3e d2 bd 7b 0f b7 3d 80 13 6b be
       0.043481063 -0.102657884 0.089384995 -0.22956657
000060 c7 ee b1 3e 7c 60 b0 3e 2a f5 7e 3e 69 14 54 3e
       0.34752485 0.34448612 0.2489821 0.20710911
000070 0e 2a d6 bd ab 28 d5 be 70 62 61 3e df a2 b8 be
       -0.1045724 -0.4163259 0.22010207 -0.3606176
000080 b5 64 e4 bd c6 b2 a2 3e 04 33 a4 3e 0d 77 89 3e
       -0.11152021 0.31777018 0.32070172 0.2684864
000090 17 61 93 3e bd c0 8d 3e df 67 76 3d de 25 c9 3d
       0.2878501 0.2768611 0.060157653 0.09821676
0000a0 77 50 71 be 0b 79 09 3f 1f eb cd 3d d6 d9 05 be
       -0.23565851 0.5370032 0.100546114 -0.13071379
0000b0 f0 b1 59 3e 98 54 3f 3e 4f b3 9d 3e db e4 4c 3e
       0.21259284 0.18684614 0.30800864 0.20009176
0000c0 70 23 a4 3e ac 51 89 be 5d 01 49 3d 48 36 80 3e
       0.32058287 -0.26820123 0.049073566 0.25041413
0000d0 f1 04 2f 3e 70 7a 14 3e 8d ce 20 3d 0d af 47 3c
       0.17091729 0.14499831 0.039259482 0.012187731
0000e0 40 97 70 bc 98 be 90 be 81 91 a1 be bb c4 ab 3d
       -0.014684498 -0.28270411 -0.31556323 0.08387133
0000f0 4d 74 06 3e b5 de 13 3e 21 22 9b 3d bc b7 a9 3e
       0.13130303 0.14440425 0.07574869 0.3314799
000100 78 d3 b8 3e 1c b3 46 3e fa 81 8b be ee 9a 16 3b
       0.36098838 0.19404262 -0.27247602 0.002298053
000110 4d f3 bc 3e 59 a3 b5 3d d0 3c 53 3e ca 4b 93 3e
       0.36904374 0.08869047 0.20628667 0.2876876
000120 76 1d 0c 3e 0e 87 ad bc 0c 06 e8 3e fe 91 8b 3d
       0.13683113 -0.021182563 0.45317113 0.06814955
000130 b7 f9 71 3e 1b 64 08 3e dc c2 c7 3e b6 68 cc 3e
       0.23630415 0.13319437 0.39015853 0.39923638
000140 b8 54 94 3e 12 a6 e0 be d5 a5 92 be b5 f3 6d 3e
       0.28970885 -0.43876702 -0.28642145 0.23237498
000150 ec a3 9a 3e d4 12 9b 3e 3d c3 83 3e ce 04 b5 3e
       0.30203187 0.30287802 0.25734892 0.35355228
000160 14 a3 8e 3e fc 44 82 3e 76 95 16 bd e7 28 96 3e
       0.27858794 0.25443256 -0.03676363 0.2932808
000170 1c 99 7a 3d 4b 14 ed 3c a1 12 bc be ff 94 32 be
       0.061181173 0.02894034 -0.36732963 -0.1743965
000180 58 a1 28 3e 46 03 8c 3e eb 8a 10 3e f3 dc 00 bd
       0.16467798 0.27346247 0.14115493 -0.031460714
000190 8f 89 6a 3c d7 1c bb 3e 12 54 ee bd d0 a5 d4 3d
       0.014315023 0.3654544 -0.11637129 0.10383189
0001a0 cc 27 03 be 2c 2f b3 3e db 88 e3 bd a0 3a 2a 3d
       -0.1280815 0.34996927 -0.111100875 0.041559815
0001b0 da 85 a3 3d f5 9f 61 3e f9 8d 5a 3e 70 7f d6 3d
       0.079845145 0.22033675 0.21343221 0.104735255
0001c0 60 4b 82 3e 30 31 95 3c 75 98 75 3d ad 69 90 3e
       0.25448132 0.018211931 0.059959847 0.28205624
0001d0 58 8b d9 3c 12 24 dc 3e 90 30 cd 3e e0 d0 9d 3e
       0.026555702 0.4299627 0.40076113 0.3082342
0001e0 34 42 12 3e 09 50 fd bd 2d 54 24 3f ea 5e cd 3e
       0.14283067 -0.12368781 0.6419094 0.40111476
0001f0 d7 27 9b 3e bd 79 87 3e dd 61 20 3d 76 f8 8a 3e
       0.30303833 0.26460066 0.03915583 0.27142686
000200 18 a0 78 3e da 94 cf 3d af ec 50 3e c7 0d 6a 3e
       0.24279821 0.10135813 0.20402788 0.22856818
000210 90 83 a0 3c 54 8c ef 3b 25 a3 c0 3e ea 3b 5d 3e
       0.019593984 0.0073104296 0.3762447 0.21604887
000220 ab 7c 20 3e 78 09 88 3e 0c 84 83 3d 7a 18 3d 3e
       0.15672557 0.26569724 0.0642167 0.18466368
000230 e0 c5 33 3d 69 f6 e3 3e 6c 75 87 be b3 62 5e bd
       0.04388988 0.44523934 -0.26456773 -0.054293346
000240 18 00 ac 3e 09 d6 83 be 7c 19 8a 3d f8 32 27 3e
       0.33593822 -0.25749233 0.06743142 0.16328037
000250 41 fc 5e 3e a9 26 0b 3d a6 b9 0c be a7 b5 e5 bc
       0.21775915 0.033972416 -0.13742694 -0.02804072
000260 a1 a6 84 3d e6 5c c2 bd 10 32 e5 3d 5b 38 a2 bd
       0.064770944 -0.09490375 0.11191189 -0.07920905
000270 f3 c0 3b 3d 8c e4 2b 3d 2f eb 01 be d7 b6 81 bd
       0.045838308 0.041966006 -0.12687372 -0.06333702
000280 46 1e c2 3d 0f c0 e2 3d 32 70 0f 3e 4b 75 6c bd
       0.094784304 0.110717885 0.14007643 -0.057729047
000290 ad b0 e7 3d a4 b3 d8 3c db d8 6c bd 9a 24 af bd
       0.11312995 0.026452847 -0.057823997 -0.08551903
0002a0 f1 09 99 3d 12 63 d3 3d d1 e9 09 3e 0b c0 06 be
       0.07472599 0.103216305 0.134681 -0.13159196
0002b0 65 31 f7 3b 3a ca 02 3e de 93 97 3d 91 87 9c 3c
       0.00754373 0.12772456 0.0740125 0.019107612
0002c0 6c 5a b7 3c 22 10 2d bd 77 d9 94 bd 5c 7d d9 bd
       0.022381984 -0.042251714 -0.072680406 -0.106196135
0002d0 3f 93 c3 bd a2 b4 0a be 94 6a cd 3c 8c 01 81 3d
       -0.09549569 -0.13545468 0.025075234 0.06299123
0002e0 3e b9 da bc 16 71 88 bd 96 8a 76 3c b6 25 e9 bd
       -0.026699658 -0.066621944 0.01504769 -0.11384146
0002f0 7d 44 0d 3e 85 97 d2 bd ae 40 90 3d d3 bd 75 bd
       0.13795657 -0.10282806 0.07043587 -0.059995484
000300 bb 24 02 3e bd 91 dd 3c 21 0b 36 bd e6 2b f1 3d
       0.12709324 0.027047032 -0.044444207 0.11775951
000310 57 38 0b bd e6 d0 16 bd 60 52 10 3e dd 56 53 bd
       -0.033989277 -0.036820315 0.14093924 -0.05159651
000320 b0 dc 9a 3c 43 7a c8 bd b4 98 d4 bc aa a4 be 3d
       0.01890406 -0.097889446 -0.02595172 0.09308751
000330 90 16 b0 3d 3b ac da bc 32 8a 97 3d e4 08 85 bd
       0.085980535 -0.026693454 0.073994055 -0.064958364
000340 9a ff ee bd 5f 09 b6 bd cd 26 67 3d 4d 7e ca 3d
       -0.11669846 -0.08888506 0.056433488 0.09887371
000350 a5 9e 5f 3d ee f2 4b 3c 85 be b1 3d 05 fb 74 3d
       0.054594655 0.012448056 0.08678917 0.059809703
000360 ce 49 a4 3d 45 0c 21 bd e3 54 5c bd f9 af e2 3c
       0.080218896 -0.03931834 -0.05379189 0.0276718
000370 99 20 18 3d e5 75 c2 3d f6 5a 01 3d 05 d8 23 bc
       0.037140463 0.09495143 0.031580888 -0.010000234
000380 0d 09 fb bd 06 13 c1 bd fd ab 05 3e 1d 62 ac bd
       -0.12257586 -0.094274566 0.1305389 -0.08417151
000390 ee ac e6 3d 44 b7 e4 3d 8d 91 b5 3d 15 dc a6 3d
       0.112634525 0.11167768 0.08865652 0.08147446
0003a0 3d d6 a0 3d 95 2c 37 bd 89 ab 7a 3d dd 65 54 3d
       0.07853363 -0.04472025 0.061198745 0.051854957
0003b0 18 8a a7 bc 10 7f 03 3e d8 d5 a5 bb 16 d5 ce 3d
       -0.02045159 0.12841439 -0.0050608926 0.10099237
0003c0 17 8d 05 3d ad c6 04 bd 5f 2e 94 bc 13 b3 39 ba
       0.032605257 -0.032416034 -0.018088518 -0.0007083874
0003d0 1a 25 87 3d 43 05 41 bc f5 a1 b4 3b 7e 5c 35 bc
       0.065988734 -0.01178104 0.005512471 -0.011069415
0003e0 63 31 60 3d 9d 50 ea 3c 79 4d d6 3d 30 cc 62 bd
       0.0547346 0.028602893 0.104639955 -0.05537051
0003f0 69 a9 6a 3d fc 93 7e 3c 49 30 8c bc ef 73 54 3d
       0.05729047 0.015538212 -0.017112868 0.051868375

lstm.weight_hh_l0 f4 [200, 50]
000000 8f ef ee 3d ec 9c 91 bd ae 51 0d 3e 83 eb 43 3d
       0.11666786 -0.071100086 0.1380069 0.047832023
000010 e5 8b b4 ba da 44 f0 bc bc 1e e2 bd 4d 92 f9 bd
       -0.0013774602 -0.029329706 -0.11041018 -0.12186108
000020 76 4b 69 bd 4c 1a ab 3b a0 45 a9 3c 83 26 0d 3e
       -0.05695673 0.0052216407 0.020663083 0.13784222
000030 71 43 98 3d c9 ab 0a bd f3 fb dc bd aa 12 74 3d
       0.074347384 -0.033855233 -0.10790243 0.059588112
000040 50 f5 37 bb d2 e4 cb bd 6b ce b1 3d 78 f1 c1 3c
       -0.0028069802 -0.099557534 0.08681949 0.023674712
000050 2c e8 e2 bd 3f 9a c4 bd 63 ac 5e 3d 9f b2 66 3d
       -0.110794395 -0.095997326 0.05436362 0.05632269
000060 12 84 ad bd 7a ed dd 3d 77 da a8 bd a2 15 6b bd
       -0.08472456 0.10836311 -0.08244794 -0.057393678
000070 88 5c b1 3c 28 4f 08 bd ea 6d 87 bd 67 4d 0b be
       0.021650568 -0.033278614 -0.06612761 -0.13603745
000080 54 de c7 bd c8 bb 81 3c bc 77 ec bd 1f ee f3 3c
       -0.097592026 0.015836611 -0.11546275 0.02977663
000090 2e 93 3d 3d a7 e0 ca bd 57 9f d7 bc 37 aa fe 3d
       0.04628294 -0.0990613 -0.026321096 0.1243481
0000a0 91 7b 5a 3d 50 ab 8f bc 45 b4 55 bd 07 37 74 bd
       0.0533405 -0.017537743 -0.05217387 -0.05962279
0000b0 77 d1 8b bc ee c4 c0 bd 18 81 f6 3d b8 9a 9f bc
       -0.017067654 -0.09412561 0.120363414 -0.019482955
0000c0 18 fe 11 bd 40 85 c7 3d d8 e6 0d 3e a8 19 7e 3d
       -0.035642713 0.09742212 0.13857591 0.062036186
0000d0 4f f0 fc 3d 7b 5f 1f bd 4e 63 e5 3d 4b b5 8b 3d
       0.12350523 -0.038909417 0.112005815 0.06821688
0000e0 d6 cc f2 bd af c2 0b 3c a9 c1 14 3b b3 15 e2 bd
       -0.118554756 0.008530303 0.0022698438 -0.11039295
0000f0 e9 57 97 3d f2 16 65 bd e2 27 be bc d7 d6 07 3d
       0.073898144 -0.055930085 -0.023212377 0.03316387
000100 8e 74 3e 3d 12 92 a2 bd e3 e5 7c 3d 97 1c fe 3d
       0.046497874 -0.07938017 0.061742675 0.12407797
000110 f1 c0 85 bc 9d 1e e0 3d 07 a8 d6 3c 78 7d 8b bd
       -0.016327353 0.10943339 0.026203169 -0.06811041
000120 7c 7a 09 3e 8b 8f ee 3c e6 64 b2 bd 31 19 6e bd
       0.1342563 0.029121181 -0.08710651 -0.058129493
000130 1a e8 de 3d 34 42 37 3c db eb f7 bc 25 dd 09 be
       0.108841136 0.011185218 -0.030263832 -0.13463266
000140 82 8e 84 3d 2b a0 99 bd 36 7d 65 bd 90 79 a9 3d
       0.06472494 -0.07501253 -0.056027614 0.08275139
000150 b4 52 fd 3d 89 c1 b9 bd 9a b3 ba 3d 92 b1 bc bd
       0.1236929 -0.09070117 0.091162875 -0.09213556
000160 3e 26 3c bd 03 45 90 3d a5 5d e8 bc 80 2a 06 3e
       -0.045934908 0.07044413 -0.028364966 0.1310215
000170 88 1c 06 be d8 6b 78 3d d7 b6 ac bd a5 2d c3 3d
       -0.13096821 0.060649723 -0.084333114 0.095301904
000180 60 83 a8 bd fb 44 42 3d a9 a0 d2 3d 4e f9 07 be
       -0.08228183 0.047429066 0.1028455 -0.13278696
000190 70 96 0a be 69 4c c3 3c 72 ea 3e 3d b9 34 7a bd
       -0.1353395 0.023840146 0.046610303 -0.061085436
0001a0 7b 26 b2 3d 55 20 8f 3d d5 2f 06 3d e0 aa aa 3d
       0.08698746 0.06988589 0.03276046 0.08333373
0001b0 23 e6 c3 3b 98 8c aa 3c 2b bd d8 3d c7 fc a7 bd
       0.005978362 0.020818993 0.10582956 -0.0820251
0001c0 85 e9 05 be 86 8a 4d 3d 01 40 0a 3e 78 91 37 bb
       -0.13077362 0.050180934 0.13500978 -0.002801029
0001d0 80 a9 a4 3c 91 6e b4 bd 7a 29 c7 bc f8 50 d2 3d
       0.020100355 -0.08810151 -0.02431177 0.1026935
0001e0 12 87 f2 3d aa 42 a1 bc 1d 61 c1 bd 9d dc 89 bd
       0.11842169 -0.019685108 -0.09442351 -0.06731532
0001f0 ab ce 02 3d 7f c1 dd 3d fa c3 b5 bc ca b0 cb 3d
       0.031935375 0.10827922 -0.022188175 0.09945829
000200 58 7f d3 bc c3 89 81 3d e5 af ee 3c c7 d0 0e be
       -0.025817558 0.06325104 0.029136607 -0.1394683
000210 f5 a0 8b 3d a2 4a 39 3c c6 de f1 bd 4e 05 89 3c
       0.068178095 0.011309298 -0.11810069 0.016726162
000220 f5 a1 0b be 3a 77 66 3d b4 ae d4 3d f2 18 df bc
       -0.13636 0.056266047 0.103848845 -0.027233575
000230 67 70 a4 bd 8f b8 75 3d 52 c6 55 bc 19 d8 52 bd
       -0.080292515 0.059990462 -0.0130477715 -0.051475618
000240 26 4d 93 3d e7 3d c0 bd 62 1b cd 3c b9 ef 32 bd
       0.07192449 -0.09386807 0.025037471 -0.04368565
000250 f8 da e7 bc e5 8d 90 bd 8a cc 66 3d 54 1d 95 3d
       -0.028302655 -0.07058314 0.056347407 0.072809845
000260 61 44 b7 bd f0 54 c8 bc fa 77 e6 bd 7b 6e b4 3d
       -0.08948589 -0.024454564 -0.112533525 0.08810135
000270 da 81 03 bc 1c fe 0f 3e 47 88 af bd e2 d8 dd bd
       -0.0080265645 0.14061779 -0.08570915 -0.10832383
000280 36 16 d9 bd 6b c5 6b 3d 4e ee 9f 3d 88 95 bf 3c
       -0.105999395 0.05756132 0.07809125 0.023386732
000290 0b f2 98 3d 7d 4b 86 3d c6 19 0d 3d 38 6d d1 3d
       0.07468041 0.06557367 0.034448408 0.1022591
0002a0 e0 2d b8 bd 0b b7 f9 bd 2b 70 94 3d 06 6e a7 bc
       -0.08993125 -0.12193116 0.07247957 -0.020438205
0002b0 ca f3 a9 3c a1 42 93 3d e7 4b 00 be f5 fb d1 bd
       0.02074613 0.07190443 -0.12528954 -0.10253135
0002c0 a3 e1 30 bc 6c 50 0b 3e 9b 3a 26 3c 36 2d 09 be
       -0.0107959835 0.13604897 0.010145809 -0.13396153
0002d0 67 13 4a bd cc 0a 88 3d ab ca 08 3e 9c 16 8f 3d
       -0.04933491 0.06642684 0.13358562 0.06986734
0002e0 5a e4 ab bd e4 24 00 3e 9b 14 f5 3d 32 d5 f7 bc
       -0.08393164 0.12514073 0.11966821 -0.030253027
0002f0 16 59 96 bd ff 4b 1a 3d d3 0b 9a 3d 03 63 03 3e
       -0.073412105 0.03767013 0.075217865 0.12830739
000300 47 e2 0c 3e 99 db 1d 3d 3e 37 c4 3d c2 e6 b4 3c
       0.13758193 0.038539503 0.09580849 0.02208269
000310 8c 1c 1c bc ac 9b aa bd f6 2d cf 3d 16 fc 33 3d
       -0.0095282905 -0.08330473 0.10116188 0.04394158
000320 1f 4e 54 bd 54 c9 25 bd 56 59 9e 3d 8a 6f 41 3b
       -0.051832315 -0.040475205 0.07731883 0.0029515945
000330 7b ff a8 3c 65 df 6c bd a5 c0 03 be 51 eb 8c bc
       0.020629635 -0.057830233 -0.12866457 -0.017202051
000340 8c 94 0c be e7 5a 01 be 95 b7 f0 3c 8b fb c5 3c
       -0.13728541 -0.12632333 0.029384414 0.024167797
000350 f8 f2 d9 3d 30 00 a1 bd 36 f7 09 3e b4 bd cb bd
       0.10642046 -0.07861364 0.1347321 -0.099482924
000360 11 50 01 3e 6d 7e 11 3d f1 89 2c 3d 05 bb a3 3d
       0.12628199 0.03552096 0.04212374 0.079946555
000370 b7 0c 5f bc 62 f0 4b bd 3a 7b d4 3d 1f c0 08 3e
       -0.013613871 -0.049789794 0.10375066 0.13354538
000380 c1 5b 5d 3d ac f6 a3 bd 18 95 ac 3c 7b e0 cd 3d
       0.05404258 -0.08006033 0.021067187 0.10052582
000390 c7 86 95 bd 6c 66 9c 3d df f7 a8 3d c7 fa 6a 3c
       -0.07301097 0.07636723 0.08250403 0.014342017
0003a0 a3 d1 fe bd 46 6b ba bc e1 dc 32 bd f9 04 28 bd
       -0.12442329 -0.02275623 -0.043667678 -0.041020367
0003b0 58 88 07 3e bc f4 52 bd a4 56 e9 bd 2f 1d 70 bd
       0.13235605 -0.05150293 -0.113934785 -0.05862158
0003c0 7e 5e d4 bd 5c dd 0d 3c 91 92 00 be f3 e4 d2 bc
       -0.103695855 0.008658733 -0.1255591 -0.025743937
0003d0 6b a9 87 3d 09 31 c6 3d 86 4a 8b bd 5a 38 48 3d
       0.06624111 0.096773215 -0.068013236 0.048881866
0003e0 00 8c e2 bd 15 a6 2e 3d df fc 60 3d ef 3c d1 bc
       -0.11061859 0.042638857 0.054928657 -0.02554175
0003f0 a5 80 b1 3d 7f 30 c7 bd bb 59 dc bc ba b5 77 bd
       0.08667115 -0.09726047 -0.026898256 -0.060476042

lstm.bias_ih_l0 f4 [200]
000000 41 93 93 3e 10 c1 09 3c 55 77 20 be bf d5 c3 3e
       0.28823283 0.008407846 -0.15670522 0.38249013
000010 b2 cb 64 3e e1 e3 ba bd bd be 50 3d 47 a8 ec bd
       0.22343329 -0.09125496 0.050963152 -0.11555534
000020 b6 10 6c 3e 95 91 28 3d d9 08 5a 3e fb fb 81 3e
       0.2305325 0.041154463 0.21292438 0.25387558
000030 1e a4 f7 3d 4f 7e b8 3e 14 3d fe 3d b0 bc 61 3e
       0.1209185 0.36033866 0.124139935 0.22044635
000040 64 fa b6 3e 9a b9 b9 3e 9c b5 71 be 56 53 93 3e
       0.35737908 0.36274415 -0.23604435 0.28774518
000050 bd 53 25 3e 04 ce 82 3e cb 37 cc bc 79 23 12 3d
       0.16145225 0.25547802 -0.024928948 0.03567836
000060 0a a1 b8 3e 04 10 a0 3e 78 42 50 3e b1 db ea bd
       0.36060363 0.3126222 0.20337856 -0.11467684
000070 4b f3 0d 3e ea f0 be 3e 2b b4 e0 bc 20 e6 8d 3e
       0.1386234 0.37293178 -0.02742966 0.27714634
000080 b7 99 81 3e 8f 90 24 bc e7 18 f9 bd f0 28 8c 3d
       0.25312588 -0.010044231 -0.12162953 0.06843746
000090 1b b8 20 3e 0b a5 b0 3d 45 d4 95 3e 0f 77 51 3e
       0.1569523 0.086252294 0.2926351 0.20455573
0000a0 b9 ed 7f 3e 89 89 bf 3e f7 e0 94 3e 3b 14 68 3e
       0.24993028 0.37409618 0.29077885 0.22663967
0000b0 9a db 99 3e d2 a9 d4 3d 6b 29 21 3e 9c d3 a8 3e
       0.30050355 0.10383953 0.15738456 0.32973945
0000c0 cf f5 b6 3e 36 d4 42 3e e1 fd e1 bd 9a 19 89 3d
       0.35734412 0.19026265 -0.11034752 0.06694336
0000d0 2c c2 d7 bd b8 78 0c be 04 3e be 3c 29 a0 5a 3d
       -0.10535082 -0.13717926 0.02322293 0.053375397
0000e0 a9 49 dc 3d 0f 31 68 3d 50 d0 58 3d 82 c7 e6 bd
       0.10756237 0.05668741 0.052933037 -0.11268522
0000f0 5b 1b c5 3c fe 63 fb 3d 3b 40 04 3e f7 6e b6 bd
       0.024060896 0.12274931 0.12915127 -0.089078836
000100 cf 9a 54 bd 4e 8c a5 3b af fc e6 bd 88 07 05 3e
       -0.05190545 0.005052126 -0.11278664 0.12991154
000110 cc 2c 40 bd 95 ce e1 3c 50 0c 6d bd 97 26 0f 3c
       -0.04691772 0.027564326 -0.05787307 0.008737228
000120 89 b4 04 be 51 fb c1 bd fe 27 01 be 0a 4d ae bd
       -0.12959494 -0.09471763 -0.12612912 -0.08510788
000130 17 f6 ad 3d 04 51 a6 3d 8e 9c e0 bd 30 ab c6 3c
       0.084942035 0.08120921 -0.109673604 0.02425155
000140 40 56 f8 bd d8 bb 8d bc 78 b0 06 be 9f 5c 8f 3d
       -0.12125826 -0.017301485 -0.13153255 0.07000088
000150 9c d4 c4 3c eb e1 f3 3d 78 69 9f 3d 0c 7d 02 be
       0.024027161 0.11908325 0.077837884 -0.12743014
000160 46 b3 1d bd 2e b4 e3 3d 5e 58 e6 3d 34 e2 c2 3d
       -0.038501047 0.11118351 0.112473235 0.09515801
000170 f4 d7 ff 3d 83 4a a1 3a 15 8e 31 3d 65 f8 9c 3d
       0.12492362 0.0012305531 0.04334839 0.07664565
000180 06 fa d7 3c 8b 5f bf 3c a9 2c f1 3d c1 d7 8f bc
       0.026364338 0.023360988 0.117760964 -0.017558934
000190 ec 01 81 be fd 97 b4 be 54 69 ca be 2d 1d 31 be
       -0.2519678 -0.35272208 -0.39533484 -0.17296286
0001a0 ca 92 01 3e a2 cd 1b be 06 1b 3a bd 9d 79 1c be
       0.12653652 -0.15215161 -0.045435928 -0.15280767
0001b0 30 fd bb be a8 49 3c 3e dc 85 bc 3e b5 eb 00 3e
       -0.36716604 0.18387473 0.36820877 0.12589915
0001c0 b6 89 0c 3e 7e c9 9e 3e ed e1 92 3e 37 f3 fc 3d
       0.13724408 0.310131 0.28687993 0.12351077
0001d0 06 7e 98 3e 1d 01 7b be 44 3b 8c be 38 0d 9a 3e
       0.29783648 -0.24512143 -0.27388966 0.3008821
0001e0 96 6e 13 3e 8d 55 b5 be 70 45 95 be ed 1e a7 3d
       0.14397654 -0.35416833 -0.2915454 0.081601955
0001f0 43 c7 36 be d6 89 9e 3d ac d7 3f 3e c1 6e 51 3e
       -0.1784945 0.07741134 0.18734616 0.20452406
000200 0e 16 d2 bd 04 5f a5 3e b9 c6 42 be 8f cb a9 be
       -0.10258113 0.32299054 -0.19021119 -0.33163115
000210 40 2d 7a 3e 39 89 a9 bd f7 81 93 3e cc 5b cd 3e
       0.24431324 -0.08278126 0.28810093 0.40109098
000220 e6 0a 73 be 55 f8 7e 3e 4a 40 83 be 51 ec 2a 3e
       -0.23734626 0.24899419 -0.25634986 0.1669171
000230 ff 76 2a be 56 d8 9b be 5f 66 2f bd fd cc 4e 3e
       -0.16646956 -0.3043849 -0.042822238 0.20195384
000240 0c 0d 69 be 2b f3 1c 3e f6 5a df 3d 06 b8 c2 3e
       -0.22758883 0.15327136 0.10906021 0.38031024
000250 63 0c b4 3e de a6 2d 3e f5 ed 0c 3e 97 01 b8 3e
       0.351657 0.16958186 0.13762648 0.35938713
000260 a4 c4 06 be 35 0a 1d 3e c5 0a 34 3e a9 cf 5d 3e
       -0.1316095 0.15335925 0.17582233 0.21661247
000270 a4 b7 86 3e 61 b1 95 be f0 b8 b2 3e 72 3d cc 3d
       0.26311982 -0.29236892 0.3490672 0.09972657
000280 19 22 c1 3e eb 6c 6d 3e 17 f4 b2 3d d4 d8 99 3c
       0.37721327 0.2318608 0.08737963 0.01878015
000290 f1 ac 48 3d ce 2c 34 3e 65 9f 21 3e 2b 21 4b 3d
       0.048993055 0.17595217 0.1578346 0.04959218
0002a0 95 43 99 be 86 87 4d 3e ee c8 ed bc f2 1f 6c 3d
       -0.29934373 0.2007123 -0.029026475 0.057647653
0002b0 5f c0 42 be df 5f ad 3e 36 64 ca 3d 09 6f 89 3d
       -0.19018696 0.33862206 0.09882395 0.067106314
0002c0 e8 3c e6 3e 89 0d 27 3e 0e 1e 61 3e 7d aa a1 3e
       0.44968343 0.16313757 0.21984121 0.31575385
0002d0 78 90 e4 3e 43 58 e3 3e 09 a7 4b be fe 34 fc 3d
       0.4464147 0.44403276 -0.19887938 0.12314795
0002e0 bd 3e 8a bd 7f 40 58 3e 1f 7c a8 3e ff 2d bf 3e
       -0.06750248 0.21118353 0.32907197 0.3733978
0002f0 6b aa 07 3e 60 d6 a8 3d da 1e 2d 3e f8 7d 07 be
       0.13248603 0.08244014 0.169063 -0.13231647
000300 e9 8a 85 3c f0 77 be 3d c0 33 61 3e a1 fb 1f 3e
       0.01630159 0.0930022 0.21992397 0.15623333
000310 ca 08 ff bd ea 73 b8 3e 6c 25 64 3d 39 64 c9 3e
       -0.12452848 0.36025935 0.05569975 0.39334276

lstm.bias_hh_l0 f4 [200]
000000 88 aa 95 3d a4 ba 33 be 79 a5 c2 be e7 25 cb 3e
       0.07307917 -0.17551666 -0.3801687 0.39677355
000010 61 21 b2 3d a2 66 17 3e 44 e1 e5 3a 40 d0 76 be
       0.08697773 0.14785245 0.0017538448 -0.24102879
000020 05 e9 be 3e 6c 2c e4 3d 26 0d 74 3e 50 c8 81 3e
       0.37287155 0.11141285 0.2383314 0.2534814
000030 43 7f 26 3e 7d 4c 0f 3e 69 20 e3 3d 53 04 69 3e
       0.16259484 0.13994022 0.11090166 0.22755556
000040 75 22 90 3e c7 0e 02 3e 90 df dc bd 8d 3b fa 3d
       0.2815129 0.1270095 -0.10784829 0.1221839
000050 1b 26 0a 3c d8 2f 88 3e 3b da 1a be d9 d8 8a 3e
       0.008431937 0.26599002 -0.15122311 0.27118567
000060 00 f1 43 3e a3 e8 7d 3e 87 52 9c 3e 6d ad 1a ba
       0.19134903 0.24795775 0.30531713 -0.0005900476
000070 a8 56 a2 3e ea 29 6c 3e 4e 12 c6 3d 56 b9 17 3e
       0.31706738 0.23062864 0.0967146 0.14816794
000080 ba b8 a1 3e 21 e6 78 3e 0e 6b a0 bd 6e 9c 5e 3e
       0.31586248 0.24306537 -0.07832919 0.2173936
000090 92 7b 7a 3e 3b 51 8c 3e b9 5a 0b 3e bc 7d 95 3e
       0.24461201 0.27405724 0.13608827 0.2919749
0000a0 70 ac a1 3e 27 18 47 3e b9 0e 68 3e 7d e7 8c 3e
       0.31576872 0.19442807 0.22661866 0.27520362
0000b0 88 60 8b 3e 63 52 19 3e 3b 62 3d 3e 8e 6d 4c 3e
       0.27222085 0.14972834 0.18494503 0.19963667
0000c0 a0 3e f2 3e 31 ff e0 3e bb 0c 77 bd 38 f2 d8 bc
       0.47313404 0.43944696 -0.060314875 -0.026482686
0000d0 9a e4 ab bc 29 a0 ac bd 66 06 02 3e 0f e0 02 be
       -0.02098303 -0.084289856 0.12697753 -0.12780784
0000e0 72 3f 39 bd 35 1a 80 bd 29 0f 95 bb 6c 84 c4 3c
       -0.04522652 -0.062549986 -0.0045489264 0.023988925
0000f0 15 15 78 bd ec d9 e4 bc 89 73 0f be e1 66 60 bd
       -0.06056698 -0.027935944 -0.14008917 -0.054785613
000100 0e 37 ef bc 18 a4 43 bd b7 aa d8 bd 62 ee cd bc
       -0.029201057 -0.047763914 -0.10579436 -0.025138084
000110 e9 91 4f bd d3 f7 d9 3d 50 42 40 3c 8a 96 53 3d
       -0.05067626 0.10642972 0.01173456 0.051657237
000120 0e a6 f8 bd 99 6f e3 3c 4a 35 64 bd 93 92 0e 3e
       -0.121410474 0.027763175 -0.055714883 0.13923101
000130 c8 da 6c 3d 4b d9 8f bd b3 a7 0c 3e 9b 53 e6 3d
       0.057825834 -0.07023867 0.13735847 0.11246415
000140 36 82 e6 3d be c8 08 3d d1 47 15 3d fe 52 7d bd
       0.112553045 0.033394568 0.036445443 -0.061846726
000150 5b 89 6c 3d fb e4 0d bd ab 77 b7 3d ae d4 96 3d
       0.05774818 -0.0346422 0.08958372 0.07364784
000160 af bd 58 bc 28 fe 2a bd 56 26 d4 3d 45 b6 b4 bd
       -0.013228818 -0.04174629 0.103588745 -0.08823828
000170 a3 5d b0 3d bc 14 c4 3d 0f 92 87 bd 84 9d 04 be
       0.0861161 0.09574267 -0.06619655 -0.12950712
000180 44 fc 06 be fd 71 40 3d 84 fb f3 bd e6 13 93 3d
       -0.13182169 0.046983708 -0.11913207 0.0718153
000190 92 6e ae be 3c 17 4e be 91 92 61 be d1 02 80 be
       -0.34068733 -0.2012605 -0.22028567 -0.2500215
0001a0 4c 25 9a 3e 77 28 bc be 59 82 16 be 84 03 18 be
       0.3010658 -0.36749622 -0.14698161 -0.14845091
0001b0 2a 8b a6 be 50 ca 9c 3e 9c 61 c0 3e 64 1b c1 3e
       -0.3252805 0.30623102 0.3757447 0.3771621
0001c0 14 90 f9 3d 3a a8 a9 3e 26 26 38 3e 16 64 9b 3e
       0.12185684 0.3313616 0.17983302 0.30349797
0001d0 3d 7b 9e 3e 65 0d f1 bd 89 2e 9e be 97 96 14 3e
       0.30953398 -0.11770133 -0.30894879 0.1451057
0001e0 65 dd 56 3e 5a 53 ce be 9d 97 2c be 7a 6d 9b 3e
       0.20982893 -0.40297967 -0.16854711 0.3035696
0001f0 78 93 a1 be dc a2 95 3d 23 ee 5c 3e 87 9f b7 3e
       -0.31557822 0.073064536 0.21575217 0.35863897
000200 c8 4c 6c be 61 ad 8d 3e b4 40 8e be be 5d 83 be
       -0.23076165 0.2767134 -0.2778374 -0.25657457
000210 c6 1d 67 3e f5 f6 2e bd b4 00 90 3e d7 6c 6f 3e
       0.22569951 -0.042715985 0.28125536 0.23381363
000220 1d 5d 62 be 2f 6f ef 3d ca 62 44 bd 51 b0 68 3e
       -0.22105832 0.116911285 -0.047945775 0.2272351
000230 4b 95 cb be a1 29 35 be 61 71 dc bd 6c 33 6f 3e
       -0.3976234 -0.17691661 -0.10763813 0.2335946
000240 aa 65 09 be 5a 67 b2 3e d5 c8 58 3e 78 7b 8d 3e
       -0.13417688 0.34844476 0.21170361 0.27633262
000250 17 2e a2 3e 97 1c 8b 3e a8 84 e3 3d 38 be b5 3e
       0.3167579 0.2717025 0.111092865 0.35496688
000260 7e a7 6f be 22 ce 28 3c 9a cd 1a 3e 1b d2 7d 3e
       -0.23403737 0.010303052 0.15117493 0.2478718
000270 4c fb bf 3c ae 21 99 be c6 dc 4a 3e 64 54 ed 3d
       0.023435257 -0.29908508 0.19810781 0.11588362
000280 65 6d 87 3e 73 fc 4d 3e 7f 45 28 3e 89 6e 0f 3d
       0.2645065 0.20115833 0.1643276 0.035017524
000290 5f f1 9c bc ac b2 f4 3d a2 c7 bd 3d b5 18 47 3e
       -0.019158063 0.119481415 0.092665926 0.19443019
0002a0 08 8a c1 be 79 ae 31 3e 3a 03 bb bc 13 47 a9 bd
       -0.37800622 0.17351712 -0.022828687 -0.082655095
0002b0 75 7d 03 be 8d 42 24 3e 56 59 07 3e ce 04 1a 3e
       -0.12840827 0.16041012 0.13217673 0.15040895
0002c0 91 ba 0d 3f 18 4b 8a 3e 70 46 90 3e 8d dc 70 3e
       0.553628 0.27010417 0.2817874 0.23521633
0002d0 02 49 68 3e 19 3a 64 3e 75 26 12 be 59 18 65 3a
       0.226841 0.22287787 -0.14272483 0.0008739285
0002e0 8a 74 1b be a2 77 90 3c fc 0b cf 3e e8 e3 95 3e
       -0.15181175 0.01763517 0.4043883 0.2927544
0002f0 e7 8f f2 3d 92 45 85 3e aa 9a cb 3e 3e c8 0e 3d
       0.118438534 0.2602964 0.39766437 0.034858935
000300 d4 6a 98 3d ad a4 c7 3d 27 f9 8d 3e af 01 93 3e
       0.07442251 0.09748206 0.2772915 0.28712222
000310 b3 6e 96 be 76 49 bf 3e c1 50 32 bc c8 1d 51 3e
       -0.29381332 0.37360734 -0.010883511 0.20421517

lstm.weight_ih_l1 f4 [200, 50]
000000 62 e8 86 be d2 6e 6d bf 51 d9 2f bb 68 c8 6f be
       -0.2634917 -0.92747223 -0.0026832412 -0.23416293
000010 27 c6 cb 3e 31 b0 33 bf a5 a5 0a bf a5 d7 f6 be
       0.39799616 -0.7019072 -0.54159003 -0.482114
000020 9f 75 a5 be 80 c9 00 3f 4d c3 c2 3e 21 06 a1 3e
       -0.323163 0.50307465 0.38039628 0.31449988
000030 3e fb ea 3e 8a 1f 7e 3f b9 16 24 3f fa 32 ad 3e
       0.45894808 0.99266875 0.6409717 0.33827955
000040 f9 93 2c 3f 87 ca b2 be ab 3e c0 be 5e 20 ea 3e
       0.6741329 -0.3492014 -0.37547812 0.4572782
000050 bd 57 d6 3e 0e 05 a2 be be f4 d7 be f4 57 1d 3f
       0.41863814 -0.3164448 -0.4217891 0.6146233
000060 0a 6b 2c bf 64 e2 af 3e dc 38 aa 3f 3d 77 6a 3e
       -0.6735083 0.3435241 1.3298602 0.22897048
000070 4b 25 f2 be bb 1f 03 3f 7c 59 42 bf c3 6a f0 be
       -0.47294077 0.5122029 -0.7591779 -0.46956453
000080 4f ac c7 3e af 1b c5 be 40 03 11 3f 40 ef 09 3f
       0.3899865 -0.38497683 0.56645584 0.5388069
000090 f1 98 fd be 9c 6f 0f 3f 1b 27 e0 be 4c 60 ca 3d
       -0.49530748 0.5602968 -0.43779835 0.098816484
0000a0 40 75 90 bf 6b cc 46 be 6f 5b dd be d2 2c c3 3e
       -1.1285782 -0.19413917 -0.4323382 0.38120133
0000b0 b3 8a e0 be 8a d9 10 3f bd 49 ab 3e 7e 69 04 3f
       -0.4385582 0.5658194 0.33454695 0.5172347
0000c0 ab eb 40 3f 1d 27 f8 3e d8 2b 9b be 4e a9 06 bf
       0.753596 0.4846734 -0.30306888 -0.5260209
0000d0 6a dd 02 be c7 19 6b be a8 93 ae 3e ae ee 30 bf
       -0.12779775 -0.22959052 0.34097028 -0.69114196
0000e0 23 75 f4 be dc 02 9c be a6 d0 0f bf 29 da 3d 3f
       -0.47745618 -0.30470932 -0.5617775 0.7416101
0000f0 86 2f b3 3e 94 03 a3 3e b0 20 00 3f 14 93 67 3f
       0.34997195 0.31838667 0.5004988 0.904588
000100 96 3b 3d 3f 8a fb c0 3e 26 d9 1b 3f 72 8d d6 be
       0.73919046 0.3769191 0.6087822 -0.4190479
000110 c5 96 12 bf de a5 08 3f f0 d8 98 3e 23 6c 0c bf
       -0.57261306 0.53378093 0.2985301 -0.54852504
000120 37 ca 03 bf 04 fb 1c 3f 51 dd 55 bf eb e8 df 3e
       -0.5148043 0.6132052 -0.8354083 0.4373239
000130 94 3a ab 3f f3 54 7d 3e de cb e0 be 67 2f 23 3f
       1.3377252 0.24739437 -0.43905538 0.63744205
000140 77 e9 3d bf 67 21 a1 be bc 51 16 3f a8 96 ed be
       -0.74184364 -0.31470796 0.58718467 -0.46404004
000150 47 3b e7 3e 9b c9 99 3e 67 a5 c5 be 53 5b 12 3f
       0.45162413 0.30036625 -0.38602754 0.571706
000160 da ff 07 bf 1b f6 56 3d 5e 1b ad bf 28 42 9f be
       -0.53124774 0.0524808 -1.3523977 -0.3110516
000170 07 9a 18 bf 81 15 06 3f 2f ea 2d bf e2 82 24 3f
       -0.5961003 0.5237656 -0.6793546 0.6426221
000180 95 dd 82 3e f4 8a d8 3e 62 98 06 3f f2 ec f6 3e
       0.2555968 0.42293513 0.5257627 0.4822765
000190 ed dd 9b be 9f 0f 68 bf 6e 8a cf be 42 56 9c be
       -0.30442753 -0.90648836 -0.405353 -0.3053456
0001a0 49 84 3e 3e 7b 81 ed be 7c 97 03 bf 9f 42 83 be
       0.1860515 -0.46387848 -0.5140302 -0.25636765
0001b0 99 27 d9 be ff f1 69 3f 58 b6 9d 3e 7d 11 b8 3e
       -0.42413023 0.9138488 0.3080318 0.35950842
0001c0 1c 9b f2 3e 83 f4 6c 3f b3 89 31 3f 73 ae 00 3f
       0.47383964 0.92560595 0.6935074 0.5026619
0001d0 95 fc 36 3f 59 f0 01 bf 98 2e 24 bf eb 2e 90 3e
       0.7147916 -0.50757366 -0.64133596 0.28160796
0001e0 8b 5e cc 3e 7b 02 cf be 29 c0 1f bf 51 9c c9 3e
       0.3991588 -0.4043158 -0.6240259 0.39377072
0001f0 e9 c8 37 bf aa 73 0b 3f 04 7b 8c 3f e9 0f d4 3e
       -0.7179094 0.54473364 1.0975041 0.41418388
000200 f9 29 b5 be 76 b6 1c 3f 0f 5d 6d bf db 00 cc be
       -0.35383585 0.61215913 -0.9272012 -0.39844403
000210 1d 9e f8 3e f7 50 e3 be 51 29 11 3f 84 ac 1c 3f
       0.4855813 -0.4439771 0.5670367 0.6120074
000220 23 bb fc be 29 f1 fd 3e ee d7 dd be 4f 41 86 3d
       -0.49361524 0.49598053 -0.43328804 0.065554254
000230 9c 89 85 bf 4d d5 40 be 68 eb 0f bf 83 77 16 3f
       -1.043262 -0.18831368 -0.56218576 0.5877611
000240 28 1a 15 bf 69 f5 19 3f 99 69 da 3e ef 92 15 3f
       -0.58243036 0.6014009 0.4265869 0.5842733
000250 1c 44 41 3f e9 f9 97 3e 4b e4 75 be 54 b8 23 bf
       0.7549455 0.29682854 -0.24012868 -0.6395314
000260 ef e7 94 be 7a 5c d5 be 18 85 d1 3e a1 9e 35 bf
       -0.290832 -0.41672117 0.40921855 -0.70945174
000270 96 5b eb be 4e df f2 be 13 f6 03 bf 61 7f 23 3f
       -0.45968312 -0.47435993 -0.51547354 0.6386624
000280 5f cd cd 3e b1 be a0 3e 0b ac fa 3e 82 7f 16 3f
       0.40195748 0.31395486 0.48959383 0.5878831
000290 e4 1f 32 3f 51 ee e5 3e 56 74 0e 3f fb 2f e0 be
       0.6957991 0.44908383 0.55646265 -0.43786606
0002a0 9d 8d cd be a5 eb da 3e 4d 0e 19 3e 39 1e 84 be
       -0.40147105 0.42757908 0.14946862 -0.25804308
0002b0 df 1b e0 be 7f 18 07 3f c9 45 3a bf 54 f7 11 3f
       -0.43771264 0.52771753 -0.72762734 0.5701802
0002c0 f0 20 a9 3f 54 d1 ca 3e 47 49 ae be 46 81 ca 3e
       1.3213177 0.3961283 -0.3404028 0.39551753
0002d0 36 96 44 bf a2 d7 94 be e3 1b fc 3e 0d 46 f5 be
       -0.76791704 -0.29070765 0.49240026 -0.47905007
0002e0 11 56 c3 3e 6c 71 37 3f 39 cf f6 be 38 bc 1a 3f
       0.381516 0.71657443 -0.48204973 0.6044345
0002f0 ff c4 c3 be c1 bb 37 3e 30 e3 7d bf 3a bc af be
       -0.38236234 0.17942716 -0.99174786 -0.34323293
000300 18 45 0f bf 23 4a ab 3e 2f c9 19 bf 39 f4 e5 3e
       -0.55964804 0.33455 -0.60072607 0.4491289
000310 7c 43 0c 3f 75 d7 dd 3e 96 e5 ed 3e 9c 82 a9 3e
       0.54790473 0.43328443 0.46464223 0.3310746
000320 ff cd 69 be 74 5a 65 bf b5 1d 03 be 20 0c 9c be
       -0.22832488 -0.89591146 -0.12804301 -0.30478
000330 7a ba 92 3e 3c bd 29 bf 87 e6 11 bf f5 d0 c0 be
       0.28657895 -0.66304374 -0.5699238 -0.37659422
000340 d2 a6 00 bf 17 18 86 3f 54 d5 f0 3e ee 6f dd 3e
       -0.5025455 1.0476102 0.47037756 0.43249458
000350 58 25 00 3f a7 7d 6a 3f 65 22 44 3f 00 2d da 3e
       0.5005698 0.9159798 0.7661498 0.42612457
000360 0c dc 53 3f a5 49 1e bf 91 15 02 bf 32 2c dc 3e
       0.8275764 -0.6183112 -0.5081416 0.43002468
000370 6e 7d 41 3e b7 72 9f be 31 64 1d bf e8 62 e2 3e
       0.18895504 -0.31142208 -0.61481005 0.44216084
000380 67 f3 18 bf 53 3a 0f 3f f4 15 9f 3f e7 2d 28 3e
       -0.597464 0.5594837 1.2428575 0.1642376
000390 87 49 00 bf e5 3b 22 3f d5 a0 87 bf 49 96 ed be
       -0.50112194 0.6337264 -1.0595957 -0.4640372
0003a0 63 d7 f5 3e f9 0a da be 45 13 01 3f 37 b2 e1 3e
       0.4801589 -0.42586496 0.5042003 0.4408128
0003b0 98 8a d0 be e4 c7 b2 3e 27 11 f5 be e6 32 09 3e
       -0.4073074 0.3491813 -0.4786465 0.13398322
0003c0 3a ab bd bf f9 cf b1 be b0 1a 0c bf 1c 34 fd 3e
       -1.4817879 -0.34728983 -0.5472822 0.4945382
0003d0 a1 e7 0a bf 63 17 b6 3e ea 21 14 3e 62 14 1f 3f
       -0.5425969 0.35564718 0.14466062 0.62140477
0003e0 17 51 46 3f 1e bc 06 3f e9 36 b5 be 82 03 4e bf
       0.77467483 0.52630794 -0.35393456 -0.804741
0003f0 ca 46 f5 bc 26 95 9b be 5e 8a 16 3e 84 4a fc be
       -0.029940981 -0.3038723 0.1470122 -0.492756

lstm.weight_hh_l1 f4 [200, 50]
000000 cd a4 b6 3d 3c 7d 3a 3d d0 63 86 3d 0a 1f 0e 3e
       0.08918152 0.04552959 0.065620065 0.13879028
000010 08 fd ff 3d c5 36 d3 3d 26 4a 62 bc 60 b9 05 3c
       0.12499434 0.10313181 -0.013811624 0.008161873
000020 21 29 78 3d b5 bc 1c bc 64 76 09 3e 87 54 10 3e
       0.0605861 -0.009566476 0.13424069 0.14094745
000030 89 17 fe bc 99 d6 2f bd fa 16 a7 3c 5b 3a ea 3d
       -0.031017082 -0.042929266 0.020396698 0.11436912
000040 fd 7f b5 bc c4 91 3b 3d 1a 20 0f be 39 7e 88 3d
       -0.022155756 0.04579331 -0.1397709 0.066647
000050 c0 20 f5 bd 98 76 08 3e f2 b8 ed 3d 66 14 25 3d
       -0.11969137 0.1332649 0.11607541 0.040302657
000060 95 b2 e9 bd 4b 34 01 be 4f ea 38 bd bf fa 26 bd
       -0.11411015 -0.12617604 -0.04514533 -0.040766474
000070 c8 46 b9 3c a5 e6 52 bd ad b1 a5 3d 4d d8 c9 3d
       0.022616759 -0.05148949 0.080905296 0.09855709
000080 71 c2 b3 3d 68 6f f7 3c 36 2b 0e bd 71 e2 07 be
       0.08777321 0.03020449 -0.034709178 -0.13269974
000090 19 c7 b6 3d 22 c2 c8 bd 44 87 df 3d 0b 3b cf 3d
       0.089246936 -0.09802653 0.10914472 0.101186834
0000a0 ac a6 47 3c a7 39 3a 3d 4e 9b 3c 3c 2e fc 7c 3d
       0.012185734 0.045465138 0.011511637 0.061763935
0000b0 cb 66 70 3d c5 f9 ea 3d 0e 78 88 3d 56 93 f6 bd
       0.05869178 0.11473421 0.066635236 -0.12039821
0000c0 80 3a bc bb ad 9d a1 3d 85 8b f9 bd 47 43 a7 3c
       -0.0057442784 0.078914024 -0.12184814 0.020417823
0000d0 54 4a b6 3c 61 fd 5d bd 5f bf ce 3b a5 a5 e6 3c
       0.02225224 -0.05419672 0.0063094343 0.028155157
0000e0 d5 21 de 3d 95 c8 81 bc 29 fd 03 3e 33 cd 91 bd
       0.10846297 -0.015842715 0.12889542 -0.07119217
0000f0 65 26 8d 3c df 56 00 3e 5e 96 f9 bd 35 82 0c be
       0.017230222 0.12533139 -0.121868834 -0.13721545
000100 bc 81 67 3a 04 f9 62 bd ed 86 41 bd 8e ac f7 bd
       0.00088312826 -0.05541326 -0.047247816 -0.12093459
000110 5c fd 9d bd e7 9f d0 bd 10 6f 55 3c 17 fb 13 bd
       -0.0771434 -0.10186749 0.013026968 -0.03612813
000120 9c ee b2 bd 2d 7f 54 bd 46 81 b1 bd 2b c3 00 3e
       -0.087369174 -0.051879097 -0.08667235 0.1257445
000130 06 ec e4 bb ed d0 e2 3b af 46 02 3e 51 52 20 3d
       -0.006986144 0.0069218786 0.12722276 0.039141003
000140 6d 27 dd 3d 82 24 9c bd 8b dd 3a bd 06 9e aa 3c
       0.107985355 -0.07624151 -0.045621436 0.020827305
000150 7b 4a 75 3c 9d a8 bf 3d 51 ea 2e 3c 0f ea cf 3d
       0.014971371 0.09358332 0.010675983 0.10152065
000160 71 0a 0e 3e 76 99 07 be f9 78 94 bb d4 fe 01 3e
       0.1387117 -0.13242134 -0.0045310226 0.12694865
000170 2c 7b c9 3d 6b fb 73 bd 27 87 fe 3c 20 2d 13 3c
       0.09837946 -0.059565943 0.031070305 0.008982927
000180 be 0c bd bd 67 d0 e2 bd 94 a8 b1 bc d4 4f 69 3c
       -0.09230946 -0.11074906 -0.02168683 0.014240224
000190 02 28 4b bd b6 19 8e bd 0e dd 7d bc 0e 3f 83 bd
       -0.0495987 -0.06938498 -0.015494598 -0.06408511
0001a0 15 25 bd bd 6d 15 a4 3d b3 10 de 3d a8 9f 8b bd
       -0.092355885 0.08011899 0.10843029 -0.068175614
0001b0 62 e2 ab 3d a3 5a 00 bd 3b 8c 2b bd 6e dd 84 bd
       0.083927885 -0.031336438 -0.04188178 -0.06487547
0001c0 6a 53 96 3d 25 34 01 3e e0 01 1f bd 89 f7 08 be
       0.07340129 0.12617548 -0.038820148 -0.13375677
0001d0 d5 3a 8b bd cb e5 9f bd ca 90 fa bd 03 cb 89 ba
       -0.06798331 -0.078075014 -0.122346476 -0.0010512773
0001e0 5e 68 e5 3d cd 4a d9 3d 5b de 3e bd ae f4 96 bd
       0.11201547 0.1060997 -0.046598773 -0.07370888
0001f0 ac 75 78 3c a3 14 04 be 45 be 7c bd 0f 7f 57 bb
       0.015164774 -0.12898497 -0.061704893 -0.003288213
000200 6d cb ce bc 8d 8f 83 bd e7 59 d6 3d 04 d1 dd bd
       -0.025243485 -0.064238645 0.10466366 -0.10830882
000210 0a 32 b6 3c d7 ac 49 3c 47 36 ef 3d c5 89 8c 3c
       0.022240657 0.012309275 0.116802745 0.017155537
000220 56 29 08 be e0 f6 03 3d e1 05 ee 3d 3d 16 81 bd
       -0.13297018 0.03221786 0.11622215 -0.0630307
000230 83 99 7b 3b 65 97 1d bd 5b 28 4f bd 81 52 b6 bd
       0.003839106 -0.03847446 -0.050575595 -0.08902455
000240 1a 19 5a 3d 14 2e 4a bd 8d 45 e6 3c de 34 a1 3d
       0.053246595 -0.04936035 0.028109336 0.07871412
000250 35 f9 5b 3c f0 57 6f 3b 94 82 0f be 06 15 10 3c
       0.013426115 0.003652092 -0.14014655 0.008794075
000260 82 b7 b2 3c d5 88 03 3e 17 c5 d5 bd a3 dd 9e 3c
       0.021816019 0.12845166 -0.104379825 0.019392794
000270 99 09 b9 3d 32 9f d0 3d 4a 7b 68 bd 40 c2 03 be
       0.09035034 0.10186614 -0.056758203 -0.12867069
000280 53 c4 02 3e 47 8a 33 bd 27 ce 9e 3c 02 b3 35 bd
       0.12770204 -0.043833043 0.01938541 -0.04436017
000290 17 6e ab bc 9b e0 b4 3c 0c 42 00 bd 46 d6 d6 3d
       -0.020926518 0.022079756 -0.031312987 0.10490088
0002a0 8b 6b 0a be 02 cf 77 3c 3e de 82 bd fd 25 c4 3c
       -0.13517587 0.015125038 -0.063900456 0.023943895
0002b0 36 b4 03 3e d9 01 e5 bd 85 91 0f 3d 19 f5 fe bd
       0.12861714 -0.11181993 0.035050888 -0.124490924
0002c0 f7 81 18 3d 7c 6a ff 3d 0a ff 9d bd 13 f0 8a bd
       0.03723332 0.12471482 -0.077146605 -0.06784072
0002d0 0a 0a da 3d 6a d0 04 3e a1 89 07 3e 98 cb a0 3d
       0.10646446 0.12970129 0.13236095 0.078513324
0002e0 cd f7 f5 3d ab a3 fc 3c 21 b0 0a be 7c f4 04 be
       0.12010155 0.030839762 -0.1354375 -0.12983888
0002f0 91 24 d6 bd 1b 49 22 bd e7 51 e3 bc 17 7d f7 3c
       -0.10456193 -0.0396205 -0.027749015 0.030211015
000300 be 68 0c be 6f 96 0a be 55 7c 90 bd 61 14 0d 3e
       -0.13711831 -0.13533948 -0.070549645 0.13777305
000310 c1 d1 62 bd 64 7c 34 3d dd 85 66 bc d1 25 47 3d
       -0.05537582 0.04406394 -0.014070001 0.04862005
000320 d0 20 d6 bd a0 ed 1f 3c 84 8a ab bc 8f 24 e2 bd
       -0.10455477 0.009761244 -0.020940073 -0.11042129
000330 f9 51 cd bc 2b d5 aa bd 38 8b a4 bd 22 da 24 3d
       -0.025063502 -0.0834144 -0.08034366 0.04024709
000340 dd 1b 00 3d 3f ab b3 3c 09 c6 22 bd d8 52 b2 bd
       0.031276572 0.021932242 -0.039739642 -0.087072074
000350 82 59 26 bd 3a 9c 0d be e1 b5 a0 bd 7c e7 a9 3d
       -0.040612705 -0.13829127 -0.07847191 0.08296105
000360 74 36 b1 bc c7 60 62 3d fb 2c 50 3d 34 9d 86 bc
       -0.02163241 0.055268075 0.050824147 -0.016432382
000370 41 7a b2 3d 32 df fe bd 4b 74 19 3d e5 27 7d bd
       0.08714724 -0.12444915 0.03746442 -0.061805625
000380 d1 be cb bc e3 b6 96 3d 2f 10 a2 3d a4 95 2e bd
       -0.024871262 0.073591016 0.07913243 -0.042623177
000390 61 de 95 bc 46 a7 99 bd 6e a7 7e 3d c1 1f 89 bd
       -0.018294515 -0.07502608 0.062171392 -0.0669551
0003a0 08 c9 d7 3d 9b 3f 79 3d 11 51 69 3d cf b7 01 3e
       0.105363905 0.060851675 0.056962077 0.12667774
0003b0 93 d2 8f 3d fa 98 ca bc 44 01 95 bd ea a8 94 bd
       0.07022586 -0.024731148 -0.07275632 -0.0725878
0003c0 48 07 01 3e dd 89 29 bd ef 60 05 3e ce a1 95 3d
       0.12600434 -0.041391242 0.13025258 0.073062524
0003d0 68 5e ee 3d c9 4d 28 bd 18 a8 65 bd 66 ef 26 3d
       0.116391 -0.041089807 -0.05606851 0.040755652
0003e0 b2 2b 74 3d a0 d0 60 bd 45 6e c6 bb f5 47 81 bd
       0.059611984 -0.05488646 -0.0060556256 -0.06312553
0003f0 dd ff 9a 3b 14 5b f7 bd 84 d4 0d 3e 80 14 8a bd
       0.0047302083 -0.12077919 0.138506 -0.06742191

lstm.bias_ih_l1 f4 [200]
000000 d6 eb f0 3e dd fc 00 3f 03 3f bc 3e dd 66 07 3f
       0.4705493 0.5038584 0.36766824 0.5289133
000010 6d 01 ec 3e cd 92 cd 3e a8 61 27 3f e0 37 04 3f
       0.46094838 0.40151063 0.65383387 0.5164776
000020 17 62 0c 3f 9b 4a ee 3e 67 8a f5 3e 7e 82 bd 3e
       0.54837173 0.46541294 0.47957155 0.3701362
000030 0f 5a 02 3f 2f 89 c2 3e a2 e3 2c 3e 81 d7 eb 3e
       0.5091867 0.37995288 0.1688371 0.46062854
000040 87 cf 17 3f 32 89 f4 3e 78 f9 f1 3e 49 6c 0f 3f
       0.59301037 0.47760922 0.47260642 0.56024605
000050 a1 c1 1e 3f 73 87 33 3f e7 eb 24 3f 9d 58 d7 3e
       0.62014204 0.70128554 0.6442246 0.42059794
000060 df b8 01 3f ba 5e 0d 3f f6 d8 35 3f e7 0c 13 3f
       0.50672716 0.55222666 0.7103418 0.5744156
000070 a1 00 01 3f bd 2b b3 3e da e7 d3 3e c7 17 19 3f
       0.50391585 0.34994307 0.41387826 0.59801906
000080 8c 26 d4 3e 03 2b 6f 3e 1f 09 07 3f aa cc c5 3e
       0.4143566 0.23356251 0.5274829 0.3863271
000090 62 c5 31 3f 47 dd ab 3e b9 bc b8 3e d5 7d 18 3f
       0.6944181 0.3356726 0.36081484 0.59567004
0000a0 a8 8b 14 3f ef 64 ef 3e d2 42 02 3f fb d4 ee 3e
       0.580256 0.46756694 0.5088321 0.46646866
0000b0 1c 57 e4 3e d0 7b 07 3f 4d 2b 0f 3f 7c e2 09 3f
       0.4459771 0.529233 0.55925447 0.5386121
0000c0 69 4f 12 3f 9e 4c bc 3e 48 20 05 be 9c 74 82 3d
       0.5715242 0.36777204 -0.13000596 0.06369898
0000d0 9d c6 9b 3d 5a fd aa bd 5e 84 db 3d 69 73 89 3d
       0.07606242 -0.08349104 0.107186064 0.06711466
0000e0 77 ac 09 bb ee 3a 4c bd 7a 8e a7 3c 5b 83 55 3c
       -0.0021007338 -0.049860887 0.02045368 0.013031806
0000f0 7c a9 57 bd 06 ba 40 3c a9 07 af 3b de 99 b9 bc
       -0.052651867 0.011763101 0.0053414893 -0.022656377
000100 c7 e6 dd 3d 5a a0 05 3e e7 29 64 bd 44 4d 03 3e
       0.10835033 0.1304945 -0.055704024 0.12822443
000110 32 98 8f bd 77 7f 06 be 66 a3 87 bd ff a3 ab bd
       -0.07011451 -0.13134561 -0.06622963 -0.08380889
000120 36 72 d4 bd 36 8d 42 bb 74 a6 16 bc d1 9e d8 3c
       -0.103733465 -0.002968622 -0.009194959 0.026442917
000130 7c a1 79 3a ba 60 ea bd d9 dd b6 3d 2a f5 a3 bd
       0.0009522659 -0.114442304 0.08929033 -0.08005746
000140 a3 07 e1 bc bb df 63 bd 48 02 2c 3d 35 fb 05 bd
       -0.027469462 -0.055633288 0.041994363 -0.032710273
000150 a4 f8 ea bd 1b 7e 22 3d b4 09 a7 3d 11 80 d9 bd
       -0.11473206 0.039671045 0.081561476 -0.1062013
000160 44 77 0a bd cc 79 a7 bd ab 26 59 3d aa b2 bb 3d
       -0.033805147 -0.08177528 0.053015392 0.09164937
000170 8a c8 28 3d 11 7e bc bc ef 98 bf bd e0 91 ee 3c
       0.041206874 -0.023009332 -0.09355342 0.029122293
000180 af e0 80 3c 4e 9e 4d bd fa 21 0e 3e 61 5a 6b 3d
       0.015732137 -0.0501998 0.13880149 0.05745924
000190 3c 6b 27 3e 9e 9b b1 bd 42 0f 36 be 70 d7 14 be
       0.163495 -0.0867226 -0.17779258 -0.14535308
0001a0 a3 01 d1 3a c1 9e 93 bd f7 ae 1a 3e 84 dd 04 be
       0.0015945922 -0.07208014 0.15105806 -0.12975127
0001b0 7a 1d 41 bd c8 4b fa bd 48 ed 58 bd 0e 77 19 bd
       -0.04714725 -0.122214854 -0.052960664 -0.037467055
0001c0 05 97 09 be 99 f5 d9 bd 8b 2f 1b 3e 1f 3c 28 3d
       -0.13436516 -0.10642547 0.15154855 0.04107296
0001d0 70 45 f2 bc 86 68 20 3d 76 9d 9a bd a7 f0 36 bc
       -0.029574126 0.03916218 -0.075495645 -0.011165774
0001e0 1b de 28 3d 59 bc c0 3c 35 55 48 3d 95 f0 01 3d
       0.04122744 0.023527311 0.048909385 0.031723578
0001f0 ba a5 43 bd 64 ad 4f 3b b5 f7 0a be bd 5e 95 bd
       -0.04776547 0.0031689042 -0.13571055 -0.072934605
000200 00 02 b4 3c d2 40 43 3c a2 e0 5f bd 00 96 2a 3e
       0.02197361 0.01191731 -0.054657586 0.16658783
000210 f5 55 5f 3d ac 8f 1d 3c 2b 08 31 3c 98 5e 17 3e
       0.054525334 0.009616774 0.01080517 0.14782178
000220 c6 39 af 3d a8 45 b0 bd 7f a9 27 bd 01 19 10 be
       0.08555941 -0.08607036 -0.04093313 -0.14072038
000230 ce af c1 bd 8e 1d 7a bd 8c 9b c2 bb b5 d6 58 bd
       -0.0945736 -0.06106334 -0.005938953 -0.052939136
000240 2c 19 99 3d 3b 03 ee 3c db ea 57 3d 32 c4 1a bb
       0.07475504 0.029054275 0.05271421 -0.0023615477
000250 ed 09 85 3c 2c c3 d7 bd d3 a1 e8 3e e6 7c 13 3f
       0.016240085 -0.10535273 0.45435962 0.57612455
000260 ea 14 06 3f 8d 1f 0f 3f 4c 84 f6 3e 16 6f aa 3e
       0.5237566 0.5590752 0.4814781 0.33287877
000270 34 ef 30 3f b1 e3 21 3f 2b ba cb 3e a7 43 08 3f
       0.69114995 0.63238055 0.39790472 0.5322823
000280 a8 05 c8 3e 3c e9 d1 3e 2e 80 11 3f 51 9a bd 3e
       0.39066815 0.40998256 0.5683621 0.37031797
000290 df 5b 9e 3e 57 7f e7 3e 6f 89 44 3f cf b5 1b 3f
       0.30929467 0.4521434 0.7677221 0.6082429
0002a0 a7 dd 19 3f e8 0b 10 3f aa 78 27 3f 16 c2 2a 3f
       0.6010384 0.5626817 0.65418494 0.667024
0002b0 46 ae 14 3f ad 10 a6 3e 5e 35 a6 3e d8 6b f1 3e
       0.5807842 0.32434598 0.3246259 0.4715259
0002c0 6f 5d 27 3f 5e 98 00 3f 8c e8 1b 3f 43 11 f6 3e
       0.65376943 0.50232494 0.60901713 0.48060045
0002d0 41 05 ea 3e eb ba 15 3f 5f 30 c6 3e e0 1e 98 3e
       0.45707133 0.5848834 0.3870878 0.29711056
0002e0 d4 37 f3 3e 05 55 22 3f 3f cb 36 3f 9f 10 79 3e
       0.4750353 0.6341098 0.7140388 0.24322747
0002f0 6a dc cc 3e 3f fe c9 3e 8c 03 e9 3e 10 e2 cc 3e
       0.40011913 0.39451787 0.4551052 0.40016222
000300 49 6e 36 3f 75 28 1b 3f 6f 26 da 3e 8c cb 13 3f
       0.7126203 0.6060861 0.42607448 0.5773246
000310 47 3a 34 3f c1 0e b9 3e e4 e8 02 3f a9 3c 21 3f
       0.70401424 0.3614407 0.5113661 0.62983185

lstm.bias_hh_l1 f4 [200]
000000 55 db 00 3f 26 97 22 3f d7 04 b6 3e 22 f1 b9 3e
       0.50334674 0.63511884 0.35550568 0.36316782
000010 90 fc 07 3f d0 77 f9 3e f9 09 2d 3f 1a d5 18 3f
       0.53119755 0.48724222 0.6759334 0.5970017
000020 de c0 d4 3e 3d 2b f3 3e bd 74 8e 3e 80 6b ac 3e
       0.41553396 0.47493926 0.2782344 0.33675766
000030 bb cb 15 3f 31 b4 16 3f 2d 87 d3 3e 0a 26 03 3f
       0.58513993 0.588687 0.41314068 0.5122992
000040 3f 2d 0f 3f 8d 91 11 3f 07 c1 c8 3e 0a b2 b8 3e
       0.55928415 0.5686272 0.39209768 0.36073333
000050 db db 1c 3f 29 c2 10 3f 33 3c 15 3f 13 b1 a3 3e
       0.6127297 0.56546265 0.5829498 0.31971034
000060 01 5b c4 3e 1e 9b b3 3e 14 c2 2f 3f ac bd 1c 3f
       0.3835068 0.35079283 0.68655515 0.61226916
000070 9d 31 fe 3e f9 b2 19 3f 20 a9 82 3e 7a c1 ce 3e
       0.49647227 0.60038716 0.25519657 0.40381986
000080 b2 a3 d0 3e a3 11 b0 3e e7 b7 b3 3e de 5b 0e 3f
       0.4074989 0.34388456 0.35101244 0.5560893
000090 b5 5e f2 3e 6b 88 e3 3e a7 df 00 3f 93 a4 e3 3e
       0.4733788 0.44440016 0.50341266 0.44461498
0000a0 2a bf 0b 3f 27 b3 1c 3f e3 92 07 3f dc eb 09 3f
       0.5458857 0.61210865 0.52958506 0.5387552
0000b0 12 4f 08 3f e5 15 21 3f 4b bd 09 3f f0 f1 1f 3f
       0.5324565 0.62924033 0.53804463 0.6247854
0000c0 8f d3 0c 3f f0 6f d5 3e 24 5c 49 bd 76 a2 c1 bd
       0.5501031 0.41686964 -0.049160138 -0.09454815
0000d0 7a 13 bd bc 96 15 c0 3d 0a 73 10 3e b5 b0 9f bd
       -0.023080576 0.09379117 0.14106384 -0.07797376
0000e0 8f 7b b9 3d ba 30 3a 3d cb 8f 94 bd 2f 70 e3 3d
       0.0905677 0.045456626 -0.07253989 0.11105382
0000f0 a5 b2 e1 3d fe f1 0e 3e 55 fa d9 bd 3c 22 38 bd
       0.11020402 0.139595 -0.1064345 -0.044954523
000100 68 a2 40 bc 11 ad c0 3d d4 6d 7b bd 32 d5 a9 3d
       -0.011757471 0.0940801 -0.061384037 0.08292617
000110 3b d6 74 3c cb 61 8e bd 31 d2 b2 3d fb 77 00 be
       0.014943655 -0.06952246 0.08731497 -0.12545769
000120 ba 15 39 bd 9d 3a d3 3c 14 7a b4 3b 5f ea 95 3d
       -0.045186736 0.025784785 0.005507717 0.07320093
000130 58 aa 8b 3d e6 b8 0a 3e b0 9a 8e bc 81 8f d3 bd
       0.068196 0.13547096 -0.017407745 -0.103301056
000140 5f 01 0d be 9c 39 e4 bd 38 fd 9c bd d2 50 cf 3d
       -0.13770054 -0.111438006 -0.07665485 0.10122837
000150 35 e2 9d 3d 0e dc 94 3d 14 6e cf bd 53 89 f6 3d
       0.07709161 0.072685346 -0.101284176 0.12037911
000160 90 24 c9 bd cd c9 10 be d9 74 b9 39 bf a6 e2 3d
       -0.09821427 -0.14139481 0.00035373008 0.110669605
000170 b4 81 ac 3d 92 06 f3 3d 47 bb d9 3d c0 3d 2a bc
       0.084231764 0.118664876 0.106314234 -0.010390699
000180 f8 60 24 bd 31 16 d2 3c 65 2c 99 bd 7b 55 c3 bd
       -0.04013154 0.025645347 -0.07479171 -0.095377885
000190 26 b2 69 3d 9c 48 87 3c 64 9b 0a 3d ca fa 0e bc
       0.05705466 0.016514115 0.0338396 -0.008726785
0001a0 50 a9 f3 bd 94 f2 bc 3d 02 01 1d 3e 81 35 8f 3d
       -0.11897528 0.092259556 0.15332416 0.06992627
0001b0 33 dd e0 3d e1 46 b3 bd 11 1b ee bd 9b 02 ab bd
       0.109796904 -0.087537535 -0.11626256 -0.08350106
0001c0 14 1c b2 bd e8 89 10 be 29 46 b5 bc 40 2e fa bd
       -0.08696762 -0.14115107 -0.022128182 -0.12215853
0001d0 00 c7 18 3e 9e ef 66 3d 48 4d 08 be 66 31 64 3d
       0.14919662 0.05638086 -0.1331073 0.055711173
0001e0 84 5a 88 bd 7a b8 de 3d 97 01 41 bd 15 33 bb 3c
       -0.066578895 0.1087503 -0.047120657 0.022851506
0001f0 3d 1b 8f bd 89 d3 9b 3c 9f a9 8a 3d 60 f4 26 bb
       -0.06987617 0.019021766 0.06770634 -0.0025475249
000200 a7 9b aa bd e9 02 21 3e f1 41 45 bd 3f 40 da 3d
       -0.083304696 0.15723766 -0.04815859 0.10656785
000210 21 a3 14 be c1 b7 07 bd 55 62 b9 3d ae 97 b1 bc
       -0.14515354 -0.033134226 0.090519585 -0.021678772
000220 50 b2 a7 3d 74 f6 ee bd 1b 66 1c bd 99 54 08 be
       0.08188307 -0.11668101 -0.038183313 -0.13313521
000230 85 ca db 3b f1 7b 5e 3c 78 8d 29 ba 8d 16 16 3e
       0.006707492 0.013579355 -0.0006467919 0.1465704
000240 a3 fd 0b ba 2e e0 27 3e 44 a5 8f 3c 94 c0 c5 3d
       -0.0005340224 0.16394112 0.01753486 0.09655872
000250 78 84 e3 bc 69 d8 c5 3d 6d 3d c8 3e 99 ff 23 3f
       -0.027773127 0.096604176 0.39109364 0.64061886
000260 73 70 1a 3f b6 a4 04 3f a7 1d 0a 3f b2 c7 84 3e
       0.60327834 0.5181383 0.53951496 0.25933605
000270 dc bf 06 3f 3a 8d bd 3e 5f d3 bd 3e 81 9f 17 3f
       0.52636504 0.3702181 0.37075326 0.5922776
000280 91 46 b5 3e 8a 52 9c 3e dd 60 c5 3e 6e 1e 03 3f
       0.354054 0.30531722 0.38550463 0.51218307
000290 32 6b 58 3e 1d 3c d4 3e ce 95 11 3f 73 3d f4 3e
       0.21134642 0.41452113 0.5686921 0.47703132
0002a0 78 db 14 3f 7b 77 d8 3e 88 10 1a 3f 15 4a e7 3e
       0.5814738 0.42278656 0.60181475 0.45173708
0002b0 e5 ca 07 3f 5e 51 bd 3e 4b b6 ed 3e cc 29 98 3e
       0.5304397 0.3697614 0.4642814 0.29719388
0002c0 74 07 22 3f 87 57 1a 3f b0 c0 17 3f 26 2c c5 3e
       0.6329262 0.60289806 0.5927839 0.38510245
0002d0 f1 c3 cd 3e 6c c8 de 3e 37 2c bd 3e 8f 3a 81 3e
       0.40188554 0.43512285 0.36947796 0.2523999
0002e0 16 b3 9e 3e 2d eb f9 3e 0a 55 32 3f 17 23 dc 3e
       0.30996007 0.48812237 0.6966101 0.4299552
0002f0 5c 3a dc 3e 5a 68 0f 3f 7e d2 fa 3e 23 7e 07 3f
       0.43013275 0.560186 0.48988718 0.52926844
000300 4a 3a 00 3f e8 73 fa 3e 03 c1 10 3f 7e 8c ff 3e
       0.5008894 0.48916554 0.5654451 0.49911875
000310 b9 a8 20 3f 39 d1 20 3f 32 f9 b2 3e 7f fc d2 3e
       0.6275745 0.6281925 0.34955746 0.41208264
