back-end/modelo_lstm.pth (torch, 129733 bytes, 9 tensors)

lstm.weight_ih_l0 f4 [200, 3]
00000000: d697 fbbc 8458 6cbe b9e0 cbbb 19ec abbd
00000010: 349c 2dbe b78b f13d 8f49 f6be 2dc3 483e
00000020: f769 5b3e ebb9 f73d 1c35 99be 3b47 30b9
00000030: 89f9 2d3d e787 953e d9f7 b53c a779 193e
00000040: 330b 01bd 9130 60bd d6f6 903b d9cc a03e
00000050: 3319 323d f000 a4bd 1200 d63d 572a 2bbe
00000060: c7ee b13e 7c60 b03e 2af5 7e3e be38 1c3e
00000070: 5762 37be 5792 ecbe 9002 533e 8b46 c8be
00000080: 76d2 f6bd c6b2 a23e 0433 a43e 0d77 893e
00000090: 1761 933e bdc0 8d3e df67 763d b843 bb3d
000000a0: 7469 65be 04a3 193f eeab d63d dfda f2bd
000000b0: 7883 213e 9854 3f3e 4fb3 9d3e dbe4 4c3e
000000c0: 070b 933e b265 a3be 3064 a03c 8373 813e
000000d0: 064c 363e 969e 153e da00 0e3d 0661 073c
000000e0: f69d a2bc 164c 91be 4c98 a3be 3aa1 a93d
000000f0: 4d74 063e b5de 133e 2122 9b3d bcb7 a93e
00000100: 78d3 b83e 1cb3 463e b228 9abe 9a30 0f3b
00000110: e70b c63e 9357 b83d c347 573e 119b 933e
00000120: 6e13 793e 8fce b73d 39fa 183f 35c5 8d3d
00000130: 1447 753e 05e5 083e dcc2 c73e b668 cc3e
00000140: b854 943e d6da e1be 9022 97be d462 6b3e
00000150: eca3 9a3e d412 9b3e 3dc3 833e ce04 b53e
00000160: 14a3 8e3e fc44 823e 9ae6 07bd 7d5b 9b3e
00000170: 20b7 803d aa5d e83c 33fc bcbe 8de7 32be
00000180: 58a1 283e 4603 8c3e eb8a 103e 80a6 b93d
00000190: f141 053e f794 083f 1950 ccbd f097 c23d
000001a0: 6c0d afbd 80fe a23e 06b5 1ebe 87cb ae3c
000001b0: ae34 a73d 5616 673e 7c66 5b3e 8ca0 d93d
000001c0: db96 843e 54f5 9a3c 7598 753d ad69 903e
000001d0: 588b d93c 1224 dc3e 9030 cd3e e0d0 9d3e
000001e0: 1beb 0d3e df81 23be 1be2 1f3f ea5e cd3e
000001f0: d727 9b3e bd79 873e dd61 203d 76f8 8a3e
00000200: 18a0 783e 366b d33d 198f 563e f8ef 6a3e
00000210: 300e 0c3e c26f 013e 4377 083f beae 603e
00000220: ea69 2a3e e6d5 883e 30f0 823d dd36 3c3e
00000230: cae7 323d 96dc 003f a56c 62be b886 2f3d
00000240: 1866 9b3e 2f2e 9cbe d23c 173d f832 273e
00000250: 41fc 5e3e a926 0b3d a6b9 0cbe a7b5 e5bc
00000260: a1a6 843d e65c c2bd 1032 e53d 5b38 a2bd
00000270: f3c0 3b3d 8ce4 2b3d 2feb 01be d7b6 81bd
00000280: 461e c23d 0fc0 e23d 3270 0f3e 4b75 6cbd
00000290: adb0 e73d a4b3 d83c dbd8 6cbd 9a24 afbd
000002a0: f109 993d 1263 d33d d1e9 093e 0bc0 06be
000002b0: 6531 f73b 3aca 023e de93 973d 9187 9c3c
000002c0: 6c5a b73c 2210 2dbd 77d9 94bd 5c7d d9bd
000002d0: 3f93 c3bd a2b4 0abe 946a cd3c 8c01 813d
000002e0: 3eb9 dabc 1671 88bd 968a 763c b625 e9bd
000002f0: 7d44 0d3e 8597 d2bd ae40 903d d3bd 75bd
00000300: bb24 023e bd91 dd3c 210b 36bd e62b f13d
00000310: 5738 0bbd e6d0 16bd 6052 103e dd56 53bd
00000320: b0dc 9a3c 437a c8bd b498 d4bc aaa4 be3d
00000330: 9016 b03d 3bac dabc 328a 973d e408 85bd
00000340: 9aff eebd 5f09 b6bd cd26 673d 4d7e ca3d
00000350: a59e 5f3d eef2 4b3c 85be b13d 05fb 743d
00000360: ce49 a43d 450c 21bd e354 5cbd f9af e23c
00000370: 9920 183d e575 c23d f65a 013d 05d8 23bc
00000380: 0d09 fbbd 0613 c1bd fdab 053e 1d62 acbd
00000390: eeac e63d 44b7 e43d 8d91 b53d 15dc a63d
000003a0: 3dd6 a03d 952c 37bd 89ab 7a3d dd65 543d
000003b0: 188a a7bc 107f 033e d8d5 a5bb 16d5 ce3d
000003c0: 178d 053d adc6 04bd 5f2e 94bc 13b3 39ba
000003d0: 1a25 873d 4305 41bc f5a1 b43b 7e5c 35bc
000003e0: 6331 603d 9d50 ea3c 794d d63d 30cc 62bd
000003f0: 69a9 6a3d fc93 7e3c 4930 8cbc ef73 543d
-0.03071205 -0.23080641 -0.0062218574 -0.083946414 -0.16954118 0.117942266 -0.48102996 0.19605704
0.21427141 0.12096008 -0.29923332 -0.00016811203 0.042474303 0.29205248 0.02221291 0.14987813
-0.03150482 -0.054733817 0.0044239564 0.31406286 0.043481063 -0.08007991 0.10449232 -0.1671537
0.34752485 0.34448612 0.2489821 0.1525602 -0.17908607 -0.46205398 0.20606446 -0.3911632
-0.12051861 0.31777018 0.32070172 0.2684864 0.2878501 0.2768611 0.060157653 0.09143776
-0.22403508 0.6001437 0.10482012 -0.118581526 0.15772808 0.18684614 0.30800864 0.20009176
0.2871935 -0.31913525 0.019579023 0.2528344 0.17802438 0.14611277 0.03466878 0.008262878
-0.019850712 -0.2837836 -0.3195213 0.08282705 0.13130303 0.14440425 0.07574869 0.3314799
0.36098838 0.19404262 -0.30109173 0.0021849037 0.38680956 0.090010785 0.21023469 0.28829244
0.24323818 0.08974945 0.5975681 0.0692238 0.23952895 0.13368614 0.39015853 0.39923638
0.28970885 -0.4411227 -0.29518557 0.22986919 0.30203187 0.30287802 0.25734892 0.35355228
0.27858794 0.25443256 -0.033178903 0.30343238 0.06284928 0.028364975 -0.36911163 -0.17471142
0.16467798 0.27346247 0.14115493 0.090649605 0.13013436 0.533523 -0.09976215 0.09501636
-0.08547482 0.31834793 -0.15498742 0.021337284 0.08164345 0.22567114 0.21425813 0.10626325
0.25896344 0.01891581 0.059959847 0.28205624 0.026555702 0.4299627 0.40076113 0.3082342
0.13859217 -0.1596751 0.62454385 0.40111476 0.30303833 0.26460066 0.03915583 0.27142686
0.24279821 0.10323183 0.20953025 0.22943103 0.13677287 0.12640288 0.5330698 0.21941659
0.16641966 0.26725692 0.063934684 0.18380304 0.043678083 0.5033659 -0.22111757 0.042853087
0.3035133 -0.30503985 0.036923237 0.16328037 0.21775915 0.033972416 -0.13742694 -0.02804072
0.064770944 -0.09490375 0.11191189 -0.07920905 0.045838308 0.041966006 -0.12687372 -0.06333702
0.094784304 0.110717885 0.14007643 -0.057729047 0.11312995 0.026452847 -0.057823997 -0.08551903
0.07472599 0.103216305 0.134681 -0.13159196 0.00754373 0.12772456 0.0740125 0.019107612
0.022381984 -0.042251714 -0.072680406 -0.106196135 -0.09549569 -0.13545468 0.025075234 0.06299123
-0.026699658 -0.066621944 0.01504769 -0.11384146 0.13795657 -0.10282806 0.07043587 -0.059995484
0.12709324 0.027047032 -0.044444207 0.11775951 -0.033989277 -0.036820315 0.14093924 -0.05159651
0.01890406 -0.097889446 -0.02595172 0.09308751 0.085980535 -0.026693454 0.073994055 -0.064958364
-0.11669846 -0.08888506 0.056433488 0.09887371 0.054594655 0.012448056 0.08678917 0.059809703
0.080218896 -0.03931834 -0.05379189 0.0276718 0.037140463 0.09495143 0.031580888 -0.010000234
-0.12257586 -0.094274566 0.1305389 -0.08417151 0.112634525 0.11167768 0.08865652 0.08147446
0.07853363 -0.04472025 0.061198745 0.051854957 -0.02045159 0.12841439 -0.0050608926 0.10099237
0.032605257 -0.032416034 -0.018088518 -0.0007083874 0.065988734 -0.01178104 0.005512471 -0.011069415
0.0547346 0.028602893 0.104639955 -0.05537051 0.05729047 0.015538212 -0.017112868 0.051868375

lstm.weight_hh_l0 f4 [200, 50]
00000000: 8fef ee3d ec9c 91bd ae51 0d3e 83eb 433d
00000010: e58b b4ba da44 f0bc bc1e e2bd 4d92 f9bd
00000020: 764b 69bd 4c1a ab3b a045 a93c 8326 0d3e
00000030: 7143 983d c9ab 0abd f3fb dcbd aa12 743d
00000040: 50f5 37bb d2e4 cbbd 6bce b13d 78f1 c13c
00000050: 2ce8 e2bd 3f9a c4bd 63ac 5e3d 9fb2 663d
00000060: 1284 adbd 7aed dd3d 77da a8bd a215 6bbd
00000070: 885c b13c 284f 08bd ea6d 87bd 674d 0bbe
00000080: 54de c7bd c8bb 813c bc77 ecbd 1fee f33c
00000090: 2e93 3d3d a7e0 cabd 579f d7bc 37aa fe3d
000000a0: 917b 5a3d 50ab 8fbc 45b4 55bd 0737 74bd
000000b0: 77d1 8bbc eec4 c0bd 1881 f63d b89a 9fbc
000000c0: 18fe 11bd 4085 c73d d8e6 0d3e a819 7e3d
000000d0: 4ff0 fc3d 7b5f 1fbd 4e63 e53d 4bb5 8b3d
000000e0: d6cc f2bd afc2 0b3c a9c1 143b b315 e2bd
000000f0: e957 973d f216 65bd e227 bebc d7d6 073d
00000100: 8e74 3e3d 1292 a2bd e3e5 7c3d 971c fe3d
00000110: f1c0 85bc 9d1e e03d 07a8 d63c 787d 8bbd
00000120: 7c7a 093e 8b8f ee3c e664 b2bd 3119 6ebd
00000130: 1ae8 de3d 3442 373c dbeb f7bc 25dd 09be
00000140: 828e 843d 2ba0 99bd 367d 65bd 9079 a93d
00000150: b452 fd3d 89c1 b9bd 9ab3 ba3d 92b1 bcbd
00000160: 3e26 3cbd 0345 903d a55d e8bc 802a 063e
00000170: 881c 06be d86b 783d d7b6 acbd a52d c33d
00000180: 6083 a8bd fb44 423d a9a0 d23d 4ef9 07be
00000190: 7096 0abe 694c c33c 72ea 3e3d b934 7abd
000001a0: 7b26 b23d 5520 8f3d d52f 063d e0aa aa3d
000001b0: 23e6 c33b 988c aa3c 2bbd d83d c7fc a7bd
000001c0: 85e9 05be 868a 4d3d 0140 0a3e 7891 37bb
000001d0: 80a9 a43c 916e b4bd 7a29 c7bc f850 d23d
000001e0: 1287 f23d aa42 a1bc 1d61 c1bd 9ddc 89bd
000001f0: abce 023d 7fc1 dd3d fac3 b5bc cab0 cb3d
00000200: 587f d3bc c389 813d e5af ee3c c7d0 0ebe
00000210: f5a0 8b3d a24a 393c c6de f1bd 4e05 893c
00000220: f5a1 0bbe 3a77 663d b4ae d43d f218 dfbc
00000230: 6770 a4bd 8fb8 753d 52c6 55bc 19d8 52bd
00000240: 264d 933d e73d c0bd 621b cd3c b9ef 32bd
00000250: f8da e7bc e58d 90bd 8acc 663d 541d 953d
00000260: 6144 b7bd f054 c8bc fa77 e6bd 7b6e b43d
00000270: da81 03bc 1cfe 0f3e 4788 afbd e2d8 ddbd
00000280: 3616 d9bd 6bc5 6b3d 4eee 9f3d 8895 bf3c
00000290: 0bf2 983d 7d4b 863d c619 0d3d 386d d13d
000002a0: e02d b8bd 0bb7 f9bd 2b70 943d 066e a7bc
000002b0: caf3 a93c a142 933d e74b 00be f5fb d1bd
000002c0: a3e1 30bc 6c50 0b3e 9b3a 263c 362d 09be
000002d0: 6713 4abd cc0a 883d abca 083e 9c16 8f3d
000002e0: 5ae4 abbd e424 003e 9b14 f53d 32d5 f7bc
000002f0: 1659 96bd ff4b 1a3d d30b 9a3d 0363 033e
00000300: 47e2 0c3e 99db 1d3d 3e37 c43d c2e6 b43c
00000310: 8c1c 1cbc ac9b aabd f62d cf3d 16fc 333d
00000320: 1f4e 54bd 54c9 25bd 5659 9e3d 8a6f 413b
00000330: 7bff a83c 65df 6cbd a5c0 03be 51eb 8cbc
00000340: 8c94 0cbe e75a 01be 95b7 f03c 8bfb c53c
00000350: f8f2 d93d 3000 a1bd 36f7 093e b4bd cbbd
00000360: 1150 013e 6d7e 113d f189 2c3d 05bb a33d
00000370: b70c 5fbc 62f0 4bbd 3a7b d43d 1fc0 083e
00000380: c15b 5d3d acf6 a3bd 1895 ac3c 7be0 cd3d
00000390: c786 95bd 6c66 9c3d dff7 a83d c7fa 6a3c
000003a0: a3d1 febd 466b babc e1dc 32bd f904 28bd
000003b0: 5888 073e bcf4 52bd a456 e9bd 2f1d 70bd
000003c0: 7e5e d4bd 5cdd 0d3c 9192 00be f3e4 d2bc
000003d0: 6ba9 873d 0931 c63d 864a 8bbd 5a38 483d
000003e0: 008c e2bd 15a6 2e3d dffc 603d ef3c d1bc
000003f0: a580 b13d 7f30 c7bd bb59 dcbc bab5 77bd
0.11666786 -0.071100086 0.1380069 0.047832023 -0.0013774602 -0.029329706 -0.11041018 -0.12186108
-0.05695673 0.0052216407 0.020663083 0.13784222 0.074347384 -0.033855233 -0.10790243 0.059588112
-0.0028069802 -0.099557534 0.08681949 0.023674712 -0.110794395 -0.095997326 0.05436362 0.05632269
-0.08472456 0.10836311 -0.08244794 -0.057393678 0.021650568 -0.033278614 -0.06612761 -0.13603745
-0.097592026 0.015836611 -0.11546275 0.02977663 0.04628294 -0.0990613 -0.026321096 0.1243481
0.0533405 -0.017537743 -0.05217387 -0.05962279 -0.017067654 -0.09412561 0.120363414 -0.019482955
-0.035642713 0.09742212 0.13857591 0.062036186 0.12350523 -0.038909417 0.112005815 0.06821688
-0.118554756 0.008530303 0.0022698438 -0.11039295 0.073898144 -0.055930085 -0.023212377 0.03316387
0.046497874 -0.07938017 0.061742675 0.12407797 -0.016327353 0.10943339 0.026203169 -0.06811041
0.1342563 0.029121181 -0.08710651 -0.058129493 0.108841136 0.011185218 -0.030263832 -0.13463266
0.06472494 -0.07501253 -0.056027614 0.08275139 0.1236929 -0.09070117 0.091162875 -0.09213556
-0.045934908 0.07044413 -0.028364966 0.1310215 -0.13096821 0.060649723 -0.084333114 0.095301904
-0.08228183 0.047429066 0.1028455 -0.13278696 -0.1353395 0.023840146 0.046610303 -0.061085436
0.08698746 0.06988589 0.03276046 0.08333373 0.005978362 0.020818993 0.10582956 -0.0820251
-0.13077362 0.050180934 0.13500978 -0.002801029 0.020100355 -0.08810151 -0.02431177 0.1026935
0.11842169 -0.019685108 -0.09442351 -0.06731532 0.031935375 0.10827922 -0.022188175 0.09945829
-0.025817558 0.06325104 0.029136607 -0.1394683 0.068178095 0.011309298 -0.11810069 0.016726162
-0.13636 0.056266047 0.103848845 -0.027233575 -0.080292515 0.059990462 -0.0130477715 -0.051475618
0.07192449 -0.09386807 0.025037471 -0.04368565 -0.028302655 -0.07058314 0.056347407 0.072809845
-0.08948589 -0.024454564 -0.112533525 0.08810135 -0.0080265645 0.14061779 -0.08570915 -0.10832383
-0.105999395 0.05756132 0.07809125 0.023386732 0.07468041 0.06557367 0.034448408 0.1022591
-0.08993125 -0.12193116 0.07247957 -0.020438205 0.02074613 0.07190443 -0.12528954 -0.10253135
-0.0107959835 0.13604897 0.010145809 -0.13396153 -0.04933491 0.06642684 0.13358562 0.06986734
-0.08393164 0.12514073 0.11966821 -0.030253027 -0.073412105 0.03767013 0.075217865 0.12830739
0.13758193 0.038539503 0.09580849 0.02208269 -0.0095282905 -0.08330473 0.10116188 0.04394158
-0.051832315 -0.040475205 0.07731883 0.0029515945 0.020629635 -0.057830233 -0.12866457 -0.017202051
-0.13728541 -0.12632333 0.029384414 0.024167797 0.10642046 -0.07861364 0.1347321 -0.099482924
0.12628199 0.03552096 0.04212374 0.079946555 -0.013613871 -0.049789794 0.10375066 0.13354538
0.05404258 -0.08006033 0.021067187 0.10052582 -0.07301097 0.07636723 0.08250403 0.014342017
-0.12442329 -0.02275623 -0.043667678 -0.041020367 0.13235605 -0.05150293 -0.113934785 -0.05862158
-0.103695855 0.008658733 -0.1255591 -0.025743937 0.06624111 0.096773215 -0.068013236 0.048881866
-0.11061859 0.042638857 0.054928657 -0.02554175 0.08667115 -0.09726047 -0.026898256 -0.060476042

lstm.bias_ih_l0 f4 [200]
00000000: 4193 933e cc65 51bc 43a4 efbe bfd5 c33e
00000010: b2cb 643e f5cd 66be bdbe 503d f22c 66be
00000020: b610 6c3e 695f 603c be16 593e fbfb 813e
00000030: 1ea4 f73d 2662 8f3e 426d 8b3e b0bc 613e
00000040: 010a ae3e 7ecb b93e 9c35 c5be 294b 933e
00000050: bd53 253e 04ce 823e 6cce e8bd 2d71 123d
00000060: 46b1 e43e d317 a03e 7842 503e fc28 ebbd
00000070: 4bf3 0d3e eaf0 be3e ae02 dfbc ece2 8d3e
00000080: b799 813e ef0f fe3d 3417 83be ee43 a3bd
00000090: a9d2 203e 6ad2 b03d 45d4 953e 0f77 513e
000000a0: 5f4e 003e 8989 bf3e f7e0 943e fe2f 683e
000000b0: f66a d33e d90e d53d ae25 213e abb0 b83e
000000c0: a311 ae3e 36d4 423e e1fd e1bd 9a19 893d
000000d0: 2cc2 d7bd b878 0cbe 043e be3c 29a0 5a3d
000000e0: a949 dc3d 0f31 683d 50d0 583d 82c7 e6bd
000000f0: 5b1b c53c fe63 fb3d 3b40 043e f76e b6bd
00000100: cf9a 54bd 4e8c a53b affc e6bd 8807 053e
00000110: cc2c 40bd 95ce e13c 500c 6dbd 9726 0f3c
00000120: 89b4 04be 51fb c1bd fe27 01be 0a4d aebd
00000130: 17f6 ad3d 0451 a63d 8e9c e0bd 30ab c63c
00000140: 4056 f8bd d8bb 8dbc 78b0 06be 9f5c 8f3d
00000150: 9cd4 c43c ebe1 f33d 7869 9f3d 0c7d 02be
00000160: 46b3 1dbd 2eb4 e33d 5e58 e63d 34e2 c23d
00000170: f4d7 ff3d 834a a13a 158e 313d 65f8 9c3d
00000180: 06fa d73c 8b5f bf3c a92c f13d c1d7 8fbc
00000190: ec01 81be fd97 b4be 55c5 d0be 2d1d 31be
000001a0: 4ad2 693e a2cd 1bbe 061b 3abd 9d79 1cbe
000001b0: 30fd bbbe a849 3c3e dc85 bc3e b5eb 003e
000001c0: b689 0c3e 7ec9 9e3e ede1 923e 37f3 fc3d
000001d0: 067e 983e 1d01 7bbe 443b 8cbe 380d 9a3e
000001e0: 966e 133e 8d55 b5be 7045 95be ed1e a73d
000001f0: 43c7 36be d689 9e3d acd7 3f3e c16e 513e
00000200: 0e16 d2bd 045f a53e b9c6 42be 8fcb a9be
00000210: 402d 7a3e 0e60 cfbd f781 933e ae87 ea3e
00000220: e60a 73be 55f8 7e3e 4a40 83be 521f 033e
00000230: ff76 2abe 56d8 9bbe 5f66 2fbd fdcc 4e3e
00000240: 0c0d 69be 2bf3 1c3e f65a df3d 06b8 c23e
00000250: 630c b43e dea6 2d3e f5ed 0c3e 5527 ad3e
00000260: a4c4 06be 350a 1d3e 6881 343e 3cc6 fe3d
00000270: 65f3 863e 8003 ebbe dcb5 b23e 1c90 933d
00000280: 1922 c13e 2e5a 6d3e aed7 613e 1cd8 c8bd
00000290: ebc4 493d 5fbc 643e 07ac 0f3e bd7e 4c3d
000002a0: 0c30 babe 8687 4d3e 3b13 eebc f2cd 413d
000002b0: 7eb3 83be 9b64 ad3e 3664 ca3d 096f 893d
000002c0: 3bb6 0a3f 890d 273e ea40 613e 40ce 973e
000002d0: 07f0 103f 4358 e33e b0b8 b4be bc80 fd3d
000002e0: 5d64 60be 7f40 583e acaa a83e ff2d bf3e
000002f0: 1905 083e 39f9 05bd f662 ea3d 0494 07be
00000300: e98a 853c f077 be3d 9a64 613e 7c26 203e
00000310: 5ac3 4cbe 8ead be3e d3fe 1c3d ab5d c93e
0.28823283 -0.012780618 -0.4680501 0.38249013 0.22343329 -0.22539504 0.050963152 -0.22478083
0.2305325 0.013694623 0.21200082 0.25387558 0.1209185 0.2800457 0.27231795 0.22044635
0.33992007 0.36288065 -0.38517463 0.2876828 0.16145225 0.25547802 -0.11367497 0.035752464
0.446665 0.31268176 0.20337856 -0.114824265 0.1386234 0.37293178 -0.027222957 0.2771219
0.25312588 0.12405383 -0.2560364 -0.07971941 0.1570536 0.08633883 0.2926351 0.20455573
0.12529896 0.37409618 0.29077885 0.22674558 0.41292542 0.104032226 0.1573703 0.36072287
0.3399783 0.19026265 -0.11034752 0.06694336 -0.10535082 -0.13717926 0.02322293 0.053375397
0.10756237 0.05668741 0.052933037 -0.11268522 0.024060896 0.12274931 0.12915127 -0.089078836
-0.05190545 0.005052126 -0.11278664 0.12991154 -0.04691772 0.027564326 -0.05787307 0.008737228
-0.12959494 -0.09471763 -0.12612912 -0.08510788 0.084942035 0.08120921 -0.109673604 0.02425155
-0.12125826 -0.017301485 -0.13153255 0.07000088 0.024027161 0.11908325 0.077837884 -0.12743014
-0.038501047 0.11118351 0.112473235 0.09515801 0.12492362 0.0012305531 0.04334839 0.07664565
0.026364338 0.023360988 0.117760964 -0.017558934 -0.2519678 -0.35272208 -0.40775552 -0.17296286
0.22834125 -0.15215161 -0.045435928 -0.15280767 -0.36716604 0.18387473 0.36820877 0.12589915
0.13724408 0.310131 0.28687993 0.12351077 0.29783648 -0.24512143 -0.27388966 0.3008821
0.14397654 -0.35416833 -0.2915454 0.081601955 -0.1784945 0.07741134 0.18734616 0.20452406
-0.10258113 0.32299054 -0.19021119 -0.33163115 0.24431324 -0.10125743 0.28810093 0.4580664
-0.23734626 0.24899419 -0.25634986 0.12804917 -0.16646956 -0.3043849 -0.042822238 0.20195384
-0.22758883 0.15327136 0.10906021 0.38031024 0.351657 0.16958186 0.13762648 0.3381907
-0.1316095 0.15335925 0.1762749 0.12440154 0.2635757 -0.45901108 0.34904373 0.07205221
0.37721327 0.23178932 0.22054932 -0.098068446 0.04926006 0.22337483 0.14030467 0.049925555
-0.36364782 0.2007123 -0.029061904 0.047315545 -0.2572288 0.33865818 0.09882395 0.067106314
0.5418431 0.16313757 0.21997419 0.29649544 0.5661625 0.44403276 -0.35297155 0.1237807
-0.21913286 0.21118353 0.32942712 0.3733978 0.13283195 -0.03270838 0.114446566 -0.13240057
0.01630159 0.0930022 0.22011033 0.1563968 -0.19996396 0.37241787 0.038328957 0.39329275

lstm.bias_hh_l0 f4 [200]
00000000: 88aa 953d 026d 49be 0807 31bf e725 cb3e
00000010: 6121 b23d 55aa 603c 44e1 e53a 8954 b3be
00000020: 05e9 be3e 88ef ab3d 0b1b 733e 50c8 813e
00000030: 437f 263e 5351 743d 18a6 843e 5304 693e
00000040: 1232 873e b932 023e b192 83be 401a fa3d
00000050: 1b26 0a3c d82f 883e 74ba 75be 84e2 8a3e
00000060: c108 8e3e 5ef8 7d3e 8752 9c3e 006b 41ba
00000070: a856 a23e ea29 6c3e a97e c63d 5fb2 173e
00000080: bab8 a13e 9b1b c13e 6bd7 59be f6cb 8d3d
00000090: 2096 7a3e 905c 8c3e b95a 0b3e bc7d 953e
000000a0: 96b9 433e 2718 473e b90e 683e 60f5 8c3e
000000b0: e4ef c43e d884 193e 7e5e 3d3e e727 6c3e
000000c0: 745a e93e 31ff e03e bb0c 77bd 38f2 d8bc
000000d0: 9ae4 abbc 29a0 acbd 6606 023e 0fe0 02be
000000e0: 723f 39bd 351a 80bd 290f 95bb 6c84 c43c
000000f0: 1515 78bd ecd9 e4bc 8973 0fbe e166 60bd
00000100: 0e37 efbc 18a4 43bd b7aa d8bd 62ee cdbc
00000110: e991 4fbd d3f7 d93d 5042 403c 8a96 533d
00000120: 0ea6 f8bd 996f e33c 4a35 64bd 9392 0e3e
00000130: c8da 6c3d 4bd9 8fbd b3a7 0c3e 9b53 e63d
00000140: 3682 e63d bec8 083d d147 153d fe52 7dbd
00000150: 5b89 6c3d fbe4 0dbd ab77 b73d aed4 963d
00000160: afbd 58bc 28fe 2abd 5626 d43d 45b6 b4bd
00000170: a35d b03d bc14 c43d 0f92 87bd 849d 04be
00000180: 44fc 06be fd71 403d 84fb f3bd e613 933d
00000190: 926e aebe 3c17 4ebe 804a 6ebe d102 80be
000001a0: 0345 ce3e 7728 bcbe 5982 16be 8403 18be
000001b0: 2a8b a6be 50ca 9c3e 9c61 c03e 641b c13e
000001c0: 1490 f93d 3aa8 a93e 2626 383e 1664 9b3e
000001d0: 3d7b 9e3e 650d f1bd 892e 9ebe 9796 143e
000001e0: 65dd 563e 5a53 cebe 9d97 2cbe 7a6d 9b3e
000001f0: 7893 a1be dca2 953d 23ee 5c3e 879f b73e
00000200: c84c 6cbe 61ad 8d3e b440 8ebe be5d 83be
00000210: c61d 673e b3a4 7abd b400 903e 53e2 943e
00000220: 1d5d 62be 2f6f ef3d ca62 44bd 52e3 403e
00000230: 4b95 cbbe a129 35be 6171 dcbd 6c33 6f3e
00000240: aa65 09be 5a67 b23e d5c8 583e 787b 8d3e
00000250: 172e a23e 971c 8b3e a884 e33d f6e3 aa3e
00000260: 7ea7 6fbe 21ce 283c 3d44 1b3e 8d65 1f3e
00000270: 6db7 c33c cd73 eebe fcd5 4a3e 0ea7 b43d
00000280: 656d 873e b6e9 4d3e 9851 983e 0a97 a7bd
00000290: 65c1 9abc e6e8 2a3e 34e1 993d 1c70 473e
000002a0: 7f76 e2be 79ae 313e 874d bbbc ca6f bebd
000002b0: ff23 48be f74b 243e 5659 073e ce04 1a3e
000002c0: 5852 253f 184b 8a3e d357 903e 0f24 5d3e
000002d0: 1c74 b13e 193a 643e 69f8 97be 907c c53a
000002e0: d25c 9bbe a277 903c 893a cf3e e8e3 953e
000002f0: 4f45 f33d 9fa1 143e f7a3 af3e ba6f 0e3d
00000300: d46a 983d ada4 c73d 9011 8e3e 0f17 933e
00000310: 210e bdbe 1a83 c53e d075 e7bc 3f10 513e
0.07307917 -0.1967049 -0.69151354 0.39677355 0.08697773 0.013712485 0.0017538448 -0.35025433
0.37287155 0.08395296 0.23740785 0.2534814 0.16259484 0.05964787 0.2590797 0.22755556
0.26405388 0.12714662 -0.25697854 0.12212038 0.008431937 0.26599002 -0.23996907 0.27125943
0.27741054 0.24801776 0.30531713 -0.000737831 0.31706738 0.23062864 0.09692127 0.14814137
0.31586248 0.37716374 -0.21273582 0.06923668 0.2447133 0.2741437 0.13608827 0.2919749
0.19113764 0.19442807 0.22661866 0.27530956 0.38464272 0.14992082 0.18493077 0.23062097
0.45576823 0.43944696 -0.060314875 -0.026482686 -0.02098303 -0.084289856 0.12697753 -0.12780784
-0.04522652 -0.062549986 -0.0045489264 0.023988925 -0.06056698 -0.027935944 -0.14008917 -0.054785613
-0.029201057 -0.047763914 -0.10579436 -0.025138084 -0.05067626 0.10642972 0.01173456 0.051657237
-0.121410474 0.027763175 -0.055714883 0.13923101 0.057825834 -0.07023867 0.13735847 0.11246415
0.112553045 0.033394568 0.036445443 -0.061846726 0.05774818 -0.0346422 0.08958372 0.07364784
-0.013228818 -0.04174629 0.103588745 -0.08823828 0.0861161 0.09574267 -0.06619655 -0.12950712
-0.13182169 0.046983708 -0.11913207 0.0718153 -0.34068733 -0.2012605 -0.23270607 -0.2500215
0.40287027 -0.36749622 -0.14698161 -0.14845091 -0.3252805 0.30623102 0.3757447 0.3771621
0.12185684 0.3313616 0.17983302 0.30349797 0.30953398 -0.11770133 -0.30894879 0.1451057
0.20982893 -0.40297967 -0.16854711 0.3035696 -0.31557822 0.073064536 0.21575217 0.35863897
-0.23076165 0.2767134 -0.2778374 -0.25657457 0.22569951 -0.061192226 0.28125536 0.29078922
-0.22105832 0.116911285 -0.047945775 0.18836716 -0.3976234 -0.17691661 -0.10763813 0.2335946
-0.13417688 0.34844476 0.21170361 0.27633262 0.3167579 0.2717025 0.111092865 0.33377045
-0.23403737 0.010303051 0.1516275 0.15566082 0.023891175 -0.46572724 0.19808191 0.08820926
0.2645065 0.20108685 0.2974975 -0.08183105 -0.018891046 0.16690406 0.07513657 0.1947636
-0.4423103 0.17351712 -0.022864116 -0.09298666 -0.19544981 0.16044603 0.13217673 0.15040895
0.6457877 0.27010417 0.28192005 0.21595787 0.34658897 0.22287787 -0.2968171 0.001506703
-0.30344254 0.01763517 0.40474346 0.2927544 0.11878454 0.14514779 0.34304783 0.03477452
0.07442251 0.09748206 0.27747774 0.2872853 -0.36924842 0.38576585 -0.02825442 0.20416354

lstm.weight_ih_l1 f4 [200, 50]
00000000: 62e8 86be d26e 6dbf df84 213e 68c8 6fbe
00000010: f999 f13e 6749 53bf 283b 31bf fd96 1ebf
00000020: 9f75 a5be 7ec9 003f 4dc3 c23e 2106 a13e
00000030: 4c16 1c3f 04d8 883f 8ae7 3a3f df5d fa3e
00000040: f993 2c3f 77f5 ffbe 16be 09bf 5e20 ea3e
00000050: bd57 d63e 0e05 a2be 2736 0abf 77ed 433f
00000060: 9d00 53bf 550d fd3e a2c9 aa3f 3d77 6a3e
00000070: 24a8 1fbf bb1f 033f 843b 48bf c36a f0be
00000080: a004 063f 3d25 09bf d835 333f 5349 073f
00000090: f761 25bf 1f05 363f 0da9 16bf d35c b73d
000000a0: 915b 97bf 6bcc 46be 3943 15bf e12b 083f
000000b0: 6adb 16bf 0d6f 373f d353 ab3e 3916 063f
000000c0: abeb 403f 1d27 f83e d82b 9bbe 4ea9 06bf
000000d0: 7fe8 6b3d c719 6bbe 4f06 b43e 0899 50bf
000000e0: 9496 27bf ecdb ecbe a6d0 0fbf 1cda 3d3f
000000f0: 862f b33e 9403 a33e 6680 2d3f 536c 713f
00000100: bf96 4c3f bfd9 0d3f 26d9 1b3f c0a2 18bf
00000110: 8173 3fbf dea5 083f f0d8 983e 236c 0cbf
00000120: e441 1cbf fe56 4a3f b29c 81bf 7850 1d3f
00000130: 30c5 ab3f f354 7d3e f1c1 1dbf 672f 233f
00000140: 24af 43bf 6721 a1be 168a 3f3f 9929 24bf
00000150: d5f2 183f 32e5 973e b12e 10bf 4cb7 3f3f
00000160: d45b 35bf 12a3 883d 34b3 b0bf 2842 9fbe
00000170: 00f6 45bf 7c71 333f dc46 5bbf dcde 513f
00000180: bbe2 823e 0198 da3e 6298 063f f2ec f63e
00000190: eddd 9bbe 9f0f 68bf 86c8 69be 4256 9cbe
000001a0: 821f 883e 4aeb 1bbf a85c 2dbf 86ea d4be
000001b0: 9927 d9be 07f2 693f 58b6 9d3e 7d11 b83e
000001c0: 7717 233f 434b 7f3f 073e 493f 9f73 2a3f
000001d0: 96fc 363f 86b5 2bbf dfac 53bf eb2e 903e
000001e0: 8b5e cc3e 7b02 cfbe 22eb 43bf 5793 0e3f
000001f0: 398e 61bf d438 353f 9ea0 8c3f e90f d43e
00000200: 2a5a 04bf 76b6 1c3f fec7 71bf db00 ccbe
00000210: 41ac 223f 8d70 1bbf 924f 383f da0b 193f
00000220: bf22 28bf c3bd 283f 23b1 18bf 6f14 b23c
00000230: a161 8dbf 4dd5 40be 92b0 39bf ae3c 403f
00000240: 26e0 3ebf 94ba 433f 6472 da3e 9fba 173f
00000250: 1c44 413f e9f9 973e 4be4 75be 54b8 23bf
00000260: f962 87be 7a5c d5be efae 173f cfed 41bf
00000270: 863a f9be 95b2 09bf 13f6 03bf de7e 233f
00000280: 5fcd cd3e b1be a03e 984e 043f d3da 273f
00000290: 9cec 313f 56cd f33e 5574 0e3f f40e eebe
000002a0: 2bce ebbe a5eb da3e 4d0e 193e 391e 84be
000002b0: 156c ffbe ef07 0e3f 7835 41bf c3e6 183f
000002c0: 861f a23f 54d1 ca3e 3928 bcbe 4681 ca3e
000002d0: 77ab 2bbf a2d7 94be 2301 043f 1e98 01bf
000002e0: 1ffd db3e abd2 403f 1357 02bf a7ab 213f
000002f0: eca3 d1be 0bef da3d 5f64 7ebf 3abc afbe
00000300: 8734 16bf 1529 b93e 62ba 20bf 31d3 f33e
00000310: 0252 0c3f 5bb5 de3e 95e5 ed3e 9c82 a93e
00000320: ffcd 69be 745a 65bf f854 b03d 200c 9cbe
00000330: 414f a13e 06fe 43bf 8bbd 42bf 5899 0cbf
00000340: d2a6 00bf ee17 863f 54d5 f03e ee6f dd3e
00000350: bc09 313f c49d 733f 6bcc 5b3f 92ed 1d3f
00000360: 0cdc 533f a920 4fbf 5d3e 32bf 322c dc3e
00000370: 6e7d 413e b772 9fbe 5957 44bf 7308 223f
00000380: d9ca 49bf 5711 403f 2fef a13f e72d 283e
00000390: 8d20 31bf e53b 223f 06bf 8fbf 4996 edbe
000003a0: fd02 273f 9de4 1dbf 9e39 2b3f 1c0e c93e
000003b0: 461c 19bf f63a 0a3f 955f 2bbf 4edc 193e
000003c0: 6c3c cbbf f9cf b1be b4f1 3cbf 1371 2f3f
000003d0: 36c1 3bbf b7e2 0b3f 002e 143e a762 203f
000003e0: 1751 463f 1ebc 063f e936 b5be 8103 4ebf
000003f0: bc16 0d3e 2695 9bbe ce84 433e 589b 25bf
-0.2634917 -0.92747223 0.15773343 -0.23416293 0.47187784 -0.8253388 -0.6923089 -0.6194914
-0.323163 0.5030745 0.38039628 0.31449988 0.6097152 1.0690923 0.7300955 0.48899743
0.6741329 -0.49991962 -0.53805673 0.4572782 0.41863814 -0.3164448 -0.5398888 0.7653422
-0.8242281 0.49424234 1.3342783 0.22897048 -0.6236594 0.5122029 -0.78215814 -0.46956453
0.5235081 -0.53572446 0.70004034 0.5284626 -0.6460261 0.71101564 -0.588517 0.08953252
-1.1824819 -0.19413917 -0.583057 0.53191954 -0.5892855 0.71653825 0.3346239 0.5237766
0.753596 0.4846734 -0.30306888 -0.5260209 0.057594772 -0.22959052 0.35161063 -0.8148351
-0.6546414 -0.46261537 -0.5617775 0.74160933 0.34997195 0.31838667 0.67774045 0.94305915
0.7991752 0.5541038 0.6087822 -0.59623337 -0.7478562 0.53378093 0.2985301 -0.54852504
-0.6103804 0.7903899 -1.0125945 0.6145091 1.3419552 0.24739437 -0.61624056 0.63744205
-0.7643912 -0.31470796 0.7482008 -0.64125973 0.5974553 0.2966705 -0.56321245 0.74889064
-0.70843244 0.06671728 -1.3804688 -0.3110516 -0.7732849 0.7009504 -0.85655 0.8198068
0.25563607 0.42694095 0.5257627 0.4822765 -0.30442753 -0.90648836 -0.228304 -0.3053456
0.2658654 -0.609059 -0.6771951 -0.41585177 -0.42413023 0.9138493 0.3080318 0.35950842
0.6370768 0.99724215 0.7861027 0.66582674 0.71479166 -0.6707386 -0.82685655 0.28160796
0.3991588 -0.4043158 -0.7653066 0.5569357 -0.8810764 0.7078984 1.0986516 0.41418388
-0.5170008 0.61215913 -0.9444579 -0.39844403 0.6354409 -0.60718614 0.71996415 0.5978371
-0.6567802 0.65914553 -0.5964529 0.02173826 -1.1045419 -0.18831368 -0.7253505 0.7509259
-0.74560773 0.7645657 0.42665398 0.59269136 0.7549455 0.29682854 -0.24012868 -0.6395314
-0.26442698 -0.41672117 0.592513 -0.7575349 -0.48677462 -0.5378812 -0.51547354 0.6386546
0.40195748 0.31395486 0.51682425 0.65568274 0.6950166 0.47617596 0.5564626 -0.46495783
-0.4605573 0.42757908 0.14946862 -0.25804308 -0.49887148 0.55480856 -0.7547221 0.59727114
1.266587 0.3961283 -0.36749437 0.39551753 -0.6705851 -0.29070765 0.51564234 -0.5062274
0.42966554 0.75321454 -0.50914115 0.63152546 -0.40945375 0.10690125 -0.99371904 -0.34323293
-0.586739 0.36164156 -0.627844 0.47622064 0.54812634 0.43497738 0.4646422 0.3310746
-0.22832488 -0.89591146 0.086099565 -0.30478 0.31505778 -0.76559484 -0.7607047 -0.54921484
-0.5025455 1.0476053 0.47037756 0.43249458 0.6915548 0.95162606 0.8585879 0.6169063
0.8275764 -0.8090921 -0.6962641 0.43002468 0.18895504 -0.31142208 -0.7669578 0.6329414
-0.78825146 0.7502646 1.2651118 0.1642376 -0.69190294 0.6337264 -1.1230171 -0.4640372
0.65238935 -0.6167696 0.6688479 0.39268577 -0.59808767 0.5399622 -0.6694272 0.15025446
-1.5877814 -0.34728983 -0.7380631 0.6853191 -0.7334169 0.54642814 0.14470673 0.6265053
0.77467483 0.52630794 -0.35393456 -0.80474097 0.13778204 -0.3038723 0.1909363 -0.6469016

lstm.weight_hh_l1 f4 [200, 50]
00000000: cda4 b63d 3c7d 3a3d d063 863d 0a1f 0e3e
00000010: 08fd ff3d c536 d33d 264a 62bc 60b9 053c
00000020: 2129 783d b5bc 1cbc 6476 093e 8754 103e
00000030: 8917 febc 99d6 2fbd fa16 a73c 5b3a ea3d
00000040: fd7f b5bc c491 3b3d 1a20 0fbe 397e 883d
00000050: c020 f5bd 9876 083e f2b8 ed3d 6614 253d
00000060: 95b2 e9bd 4b34 01be 4fea 38bd bffa 26bd
00000070: c846 b93c a5e6 52bd adb1 a53d 4dd8 c93d
00000080: 71c2 b33d 686f f73c 362b 0ebd 71e2 07be
00000090: 19c7 b63d 22c2 c8bd 4487 df3d 0b3b cf3d
000000a0: aca6 473c a739 3a3d 4e9b 3c3c 2efc 7c3d
000000b0: cb66 703d c5f9 ea3d 0e78 883d 5693 f6bd
000000c0: 803a bcbb ad9d a13d 858b f9bd 4743 a73c
000000d0: 544a b63c 61fd 5dbd 5fbf ce3b a5a5 e63c
000000e0: d521 de3d 95c8 81bc 29fd 033e 33cd 91bd
000000f0: 6526 8d3c df56 003e 5e96 f9bd 3582 0cbe
00000100: bc81 673a 04f9 62bd ed86 41bd 8eac f7bd
00000110: 5cfd 9dbd e79f d0bd 106f 553c 17fb 13bd
00000120: 9cee b2bd 2d7f 54bd 4681 b1bd 2bc3 003e
00000130: 06ec e4bb edd0 e23b af46 023e 5152 203d
00000140: 6d27 dd3d 8224 9cbd 8bdd 3abd 069e aa3c
00000150: 7b4a 753c 9da8 bf3d 51ea 2e3c 0fea cf3d
00000160: 710a 0e3e 7699 07be f978 94bb d4fe 013e
00000170: 2c7b c93d 6bfb 73bd 2787 fe3c 202d 133c
00000180: be0c bdbd 67d0 e2bd 94a8 b1bc d44f 693c
00000190: 0228 4bbd b619 8ebd 0edd 7dbc 0e3f 83bd
000001a0: 1525 bdbd 6d15 a43d b310 de3d a89f 8bbd
000001b0: 62e2 ab3d a35a 00bd 3b8c 2bbd 6edd 84bd
000001c0: 6a53 963d 2534 013e e001 1fbd 89f7 08be
000001d0: d53a 8bbd cbe5 9fbd ca90 fabd 03cb 89ba
000001e0: 5e68 e53d cd4a d93d 5bde 3ebd aef4 96bd
000001f0: ac75 783c a314 04be 45be 7cbd 0f7f 57bb
00000200: 6dcb cebc 8d8f 83bd e759 d63d 04d1 ddbd
00000210: 0a32 b63c d7ac 493c 4736 ef3d c589 8c3c
00000220: 5629 08be e0f6 033d e105 ee3d 3d16 81bd
00000230: 8399 7b3b 6597 1dbd 5b28 4fbd 8152 b6bd
00000240: 1a19 5a3d 142e 4abd 8d45 e63c de34 a13d
00000250: 35f9 5b3c f057 6f3b 9482 0fbe 0615 103c
00000260: 82b7 b23c d588 033e 17c5 d5bd a3dd 9e3c
00000270: 9909 b93d 329f d03d 4a7b 68bd 40c2 03be
00000280: 53c4 023e 478a 33bd 27ce 9e3c 02b3 35bd
00000290: 176e abbc 9be0 b43c 0c42 00bd 46d6 d63d
000002a0: 8b6b 0abe 02cf 773c 3ede 82bd fd25 c43c
000002b0: 36b4 033e d901 e5bd 8591 0f3d 19f5 febd
000002c0: f781 183d 7c6a ff3d 0aff 9dbd 13f0 8abd
000002d0: 0a0a da3d 6ad0 043e a189 073e 98cb a03d
000002e0: cdf7 f53d aba3 fc3c 21b0 0abe 7cf4 04be
000002f0: 9124 d6bd 1b49 22bd e751 e3bc 177d f73c
00000300: be68 0cbe 6f96 0abe 557c 90bd 6114 0d3e
00000310: c1d1 62bd 647c 343d dd85 66bc d125 473d
00000320: d020 d6bd a0ed 1f3c 848a abbc 8f24 e2bd
00000330: f951 cdbc 2bd5 aabd 388b a4bd 22da 243d
00000340: dd1b 003d 3fab b33c 09c6 22bd d852 b2bd
00000350: 8259 26bd 3a9c 0dbe e1b5 a0bd 7ce7 a93d
00000360: 7436 b1bc c760 623d fb2c 503d 349d 86bc
00000370: 417a b23d 32df febd 4b74 193d e527 7dbd
00000380: d1be cbbc e3b6 963d 2f10 a23d a495 2ebd
00000390: 61de 95bc 46a7 99bd 6ea7 7e3d c11f 89bd
000003a0: 08c9 d73d 9b3f 793d 1151 693d cfb7 013e
000003b0: 93d2 8f3d fa98 cabc 4401 95bd eaa8 94bd
000003c0: 4807 013e dd89 29bd ef60 053e cea1 953d
000003d0: 685e ee3d c94d 28bd 18a8 65bd 66ef 263d
000003e0: b22b 743d a0d0 60bd 456e c6bb f547 81bd
000003f0: ddff 9a3b 145b f7bd 84d4 0d3e 8014 8abd
0.08918152 0.04552959 0.065620065 0.13879028 0.12499434 0.10313181 -0.013811624 0.008161873
0.0605861 -0.009566476 0.13424069 0.14094745 -0.031017082 -0.042929266 0.020396698 0.11436912
-0.022155756 0.04579331 -0.1397709 0.066647 -0.11969137 0.1332649 0.11607541 0.040302657
-0.11411015 -0.12617604 -0.04514533 -0.040766474 0.022616759 -0.05148949 0.080905296 0.09855709
0.08777321 0.03020449 -0.034709178 -0.13269974 0.089246936 -0.09802653 0.10914472 0.101186834
0.012185734 0.045465138 0.011511637 0.061763935 0.05869178 0.11473421 0.066635236 -0.12039821
-0.0057442784 0.078914024 -0.12184814 0.020417823 0.02225224 -0.05419672 0.0063094343 0.028155157
0.10846297 -0.015842715 0.12889542 -0.07119217 0.017230222 0.12533139 -0.121868834 -0.13721545
0.00088312826 -0.05541326 -0.047247816 -0.12093459 -0.0771434 -0.10186749 0.013026968 -0.03612813
-0.087369174 -0.051879097 -0.08667235 0.1257445 -0.006986144 0.0069218786 0.12722276 0.039141003
0.107985355 -0.07624151 -0.045621436 0.020827305 0.014971371 0.09358332 0.010675983 0.10152065
0.1387117 -0.13242134 -0.0045310226 0.12694865 0.09837946 -0.059565943 0.031070305 0.008982927
-0.09230946 -0.11074906 -0.02168683 0.014240224 -0.0495987 -0.06938498 -0.015494598 -0.06408511
-0.092355885 0.08011899 0.10843029 -0.068175614 0.083927885 -0.031336438 -0.04188178 -0.06487547
0.07340129 0.12617548 -0.038820148 -0.13375677 -0.06798331 -0.078075014 -0.122346476 -0.0010512773
0.11201547 0.1060997 -0.046598773 -0.07370888 0.015164774 -0.12898497 -0.061704893 -0.003288213
-0.025243485 -0.064238645 0.10466366 -0.10830882 0.022240657 0.012309275 0.116802745 0.017155537
-0.13297018 0.03221786 0.11622215 -0.0630307 0.003839106 -0.03847446 -0.050575595 -0.08902455
0.053246595 -0.04936035 0.028109336 0.07871412 0.013426115 0.003652092 -0.14014655 0.008794075
0.021816019 0.12845166 -0.104379825 0.019392794 0.09035034 0.10186614 -0.056758203 -0.12867069
0.12770204 -0.043833043 0.01938541 -0.04436017 -0.020926518 0.022079756 -0.031312987 0.10490088
-0.13517587 0.015125038 -0.063900456 0.023943895 0.12861714 -0.11181993 0.035050888 -0.124490924
0.03723332 0.12471482 -0.077146605 -0.06784072 0.10646446 0.12970129 0.13236095 0.078513324
0.12010155 0.030839762 -0.1354375 -0.12983888 -0.10456193 -0.0396205 -0.027749015 0.030211015
-0.13711831 -0.13533948 -0.070549645 0.13777305 -0.05537582 0.04406394 -0.014070001 0.04862005
-0.10455477 0.009761244 -0.020940073 -0.11042129 -0.025063502 -0.0834144 -0.08034366 0.04024709
0.031276572 0.021932242 -0.039739642 -0.087072074 -0.040612705 -0.13829127 -0.07847191 0.08296105
-0.02163241 0.055268075 0.050824147 -0.016432382 0.08714724 -0.12444915 0.03746442 -0.061805625
-0.024871262 0.073591016 0.07913243 -0.042623177 -0.018294515 -0.07502608 0.062171392 -0.0669551
0.105363905 0.060851675 0.056962077 0.12667774 0.07022586 -0.024731148 -0.07275632 -0.0725878
0.12600434 -0.041391242 0.13025258 0.073062524 0.116391 -0.041089807 -0.05606851 0.040755652
0.059611984 -0.05488646 -0.0060556256 -0.06312553 0.0047302083 -0.12077919 0.138506 -0.06742191

lstm.bias_ih_l1 f4 [200]
00000000: 19f9 223f 9867 343f ef86 0b3f f3a7 103f
00000010: 73f8 2a3f b97f 153f 6aa0 423f 1bb8 373f
00000020: ad7a 343f 7ddb 203f 3b1e 3c3f 5cc2 1a3f
00000030: 7bc0 2e3f c435 173f 6ee7 f73e 9a8a 1c3f
00000040: 8154 3a3f 54ba 1a3f b213 353f a0a3 483f
00000050: 0772 483f b5ec 603f 8c1d 483f 264e 2d3f
00000060: a31b 3f3f 459d 133f 0ce4 553f eea6 3f3f
00000070: 45a0 1d3f 7360 113f 9ff6 293f 7fbf 443f
00000080: e87c 1a3f ae4c 013f 101b 313f f1fa 1d3f
00000090: 58a1 5f3f 97b4 123f 4f2a 223f f282 273f
000000a0: ad32 313f ae71 0b3f e78a 2a3f ffdf 233f
000000b0: 4c35 293f a1e2 2d3f 3089 2d3f 3ee7 2c3f
000000c0: d2f8 423f 074d 0f3f 4820 05be 9c74 823d
000000d0: 9dc6 9b3d 5afd aabd 5e84 db3d 6973 893d
000000e0: 77ac 09bb ee3a 4cbd 7a8e a73c 5b83 553c
000000f0: 7ca9 57bd 06ba 403c a907 af3b de99 b9bc
00000100: c7e6 dd3d 5aa0 053e e729 64bd 444d 033e
00000110: 3298 8fbd 777f 06be 66a3 87bd ffa3 abbd
00000120: 3672 d4bd 368d 42bb 74a6 16bc d19e d83c
00000130: 7ca1 793a ba60 eabd d9dd b63d 2af5 a3bd
00000140: a307 e1bc bbdf 63bd 4802 2c3d 35fb 05bd
00000150: a4f8 eabd 1b7e 223d b409 a73d 1180 d9bd
00000160: 4477 0abd cc79 a7bd ab26 593d aab2 bb3d
00000170: 8ac8 283d 117e bcbc ef98 bfbd e091 ee3c
00000180: afe0 803c 4e9e 4dbd fa21 0e3e 615a 6b3d
00000190: 2c25 263e b7ed a9bd 6b6d 3abe 323a 10be
000001a0: f053 bf3a 2d0a 8abd 2ba4 133e 150c 04be
000001b0: 2f56 41bd d8ae f4bd ab08 51bd 5e53 21bd
000001c0: 0719 07be c549 dbbd 8c69 173e 1463 273d
000001d0: b6be 21bd e385 1e3d 4f38 8abd d175 abbb
000001e0: 2e23 353d 3ff7 a63c 9710 1b3d aa0e ee3c
000001f0: cd44 4bbd 3582 77ba f900 0fbe 4e3c 8ebd
00000200: fb31 243c 7aa0 313c a224 5dbd 00ca 2b3e
00000210: 9fb7 413d 0551 583b 5027 563b b010 193e
00000220: ec86 af3d c465 b2bd bffd 38bd ff13 11be
00000230: ec74 c1bd 51b9 72bd 38c1 79bb e43c 75bd
00000240: 69bf 863d 6090 f33c 0ff0 7a3d 2680 a7bb
00000250: 468f 7e3c 2c83 d1bd 1ac8 1d3f 974f 443f
00000260: ba87 313f a0f9 173f 890b 333f 7652 033f
00000270: 58cf 4d3f 93ca 503f 4785 143f 1c11 363f
00000280: 56cb 283f 9cc7 243f 8ed2 403f cfa4 0f3f
00000290: 3eb9 213f 769c 1c3f c3bf 653f 8070 383f
000002a0: 0495 4e3f 2b35 453f d77c 4c3f 94d6 553f
000002b0: 0bf4 373f 6fd9 113f b94d 133f 98e3 033f
000002c0: d8cd 453f 9fad 303f 7ff0 363f cb91 333f
000002d0: cb5f 333f 517d 3c3f af2d 153f 7260 083f
000002e0: 6037 213f 5e33 5c3f e006 673f a3de f63e
000002f0: 9f3f 293f 268f ea3e 6660 113f 8e93 f03e
00000300: 1942 5b3f 22bb 463f ddc7 203f e29e 413f
00000310: 24cb 573f 8794 033f 3c9f 373f d8e4 4e3f
0.6366134 0.7047057 0.5450277 0.5650627 0.66785353 0.58398014 0.7602602 0.717653
0.7049969 0.6283491 0.7348363 0.6045282 0.6826245 0.59066415 0.48418754 0.6114899
0.7278519 0.60440564 0.7073318 0.7837467 0.7829899 0.87861186 0.78170085 0.6769737
0.74651545 0.5766185 0.83551097 0.7486409 0.61572677 0.56787795 0.6639194 0.768547
0.6034684 0.5050763 0.6918192 0.6171103 0.87355566 0.5730681 0.6334581 0.6543418
0.6921795 0.54470336 0.666182 0.64013666 0.6609695 0.67923933 0.67787457 0.6754035
0.7616092 0.5597691 -0.13000596 0.06369898 0.07606242 -0.08349104 0.107186064 0.06711466
-0.0021007338 -0.049860887 0.02045368 0.013031806 -0.052651867 0.011763101 0.0053414893 -0.022656377
0.10835033 0.1304945 -0.055704024 0.12822443 -0.07011451 -0.13134561 -0.06622963 -0.08380889
-0.103733465 -0.002968622 -0.009194959 0.026442917 0.0009522659 -0.114442304 0.08929033 -0.08005746
-0.027469462 -0.055633288 0.041994363 -0.032710273 -0.11473206 0.039671045 0.081561476 -0.1062013
-0.033805147 -0.08177528 0.053015392 0.09164937 0.041206874 -0.023009332 -0.09355342 0.029122293
0.015732137 -0.0501998 0.13880149 0.05745924 0.16225117 -0.08297294 -0.18205802 -0.140847
0.0014597159 -0.06740222 0.14418094 -0.12895234 -0.04720133 -0.11947411 -0.051033657 -0.039386146
-0.13193141 -0.1070743 0.14786357 0.040865973 -0.039488517 0.038701903 -0.06749021 -0.0052325507
0.044223003 0.020381568 0.03785762 0.029059727 -0.04962616 -0.00094417046 -0.13965215 -0.06945096
0.010021682 0.010841483 -0.053990014 0.16776276 0.047294255 0.0033007276 0.003267724 0.14947772
0.08570656 -0.087108165 -0.045163866 -0.14167784 -0.09446129 -0.059258763 -0.0038109552 -0.059872523
0.06579477 0.02973193 0.061264094 -0.005111712 0.015537089 -0.10230097 0.61633456 0.76683944
0.6934773 0.5936527 0.69939476 0.512977 0.80394506 0.81559104 0.58015865 0.71119857
0.65935266 0.6436708 0.7532128 0.5611085 0.6317328 0.6117624 0.8974573 0.7204666
0.8069613 0.7703425 0.7987799 0.83530545 0.71856755 0.569724 0.5754047 0.51519156
0.7726722 0.69014925 0.7146072 0.7014434 0.70068043 0.7362872 0.5827283 0.53272164
0.6297512 0.8601588 0.90244865 0.48216733 0.66112703 0.4581234 0.5678772 0.46987575
0.8564773 0.7762929 0.6280497 0.7563306 0.84294343 0.5139851 0.7172735 0.8081794

lstm.bias_hh_l1 f4 [200]
00000000: 855e 2b3f e101 563f da69 083f 5873 cc3e
00000010: 48f4 3c3f 3072 2b3f bb48 483f 5755 4c3f
00000020: 0679 123f cd4b 233f 5693 083f e336 123f
00000030: 2032 423f 58a5 4c3f 687e 3a3f e6c4 293f
00000040: 39b2 313f 4a07 323f 7a77 203f 5c90 153f
00000050: 418c 463f 6b27 3e3f d86d 383f 5a7a 133f
00000060: 3790 1f3f 1318 c03e 2acd 4f3f b357 493f
00000070: 71b8 1b3f 937d 513f 3657 013f 6b08 133f
00000080: 7cbb 183f ca8a 1d3f e5ed 033f 7570 493f
00000090: 4f0b 273f 2a8a 2e3f 8eab 463f 60d7 003f
000000a0: 2f66 283f 6072 303f f9da 2f3f 5961 363f
000000b0: d658 3f3f b67c 473f 2e1b 283f b2f6 423f
000000c0: f87c 3d3f acde 1b3f 245c 49bd 76a2 c1bd
000000d0: 7a13 bdbc 9615 c03d 0a73 103e b5b0 9fbd
000000e0: 8f7b b93d ba30 3a3d cb8f 94bd 2f70 e33d
000000f0: a5b2 e13d fef1 0e3e 55fa d9bd 3c22 38bd
00000100: 68a2 40bc 11ad c03d d46d 7bbd 32d5 a93d
00000110: 3bd6 743c cb61 8ebd 31d2 b23d fb77 00be
00000120: ba15 39bd 9d3a d33c 147a b43b 5fea 953d
00000130: 58aa 8b3d e6b8 0a3e b09a 8ebc 818f d3bd
00000140: 5f01 0dbe 9c39 e4bd 38fd 9cbd d250 cf3d
00000150: 35e2 9d3d 0edc 943d 146e cfbd 5389 f63d
00000160: 9024 c9bd cdc9 10be d974 b939 bfa6 e23d
00000170: b481 ac3d 9206 f33d 47bb d93d c03d 2abc
00000180: f860 24bd 3116 d23c 652c 99bd 7b55 c3bd
00000190: d099 643d 6100 a63c b945 f23c 1e4c 8abb
000001a0: 0df0 f3bd 2887 c63d 36f6 153e 36d8 903d
000001b0: d6c0 e03d f1a9 adbd ad28 eabd c1f0 aebd
000001c0: 0820 adbd fb33 11be fd75 d3bc b29a fabd
000001d0: f99f 0e3e fd0c 653d be1a 00be de7e 7c3d
000001e0: fd37 82bd 3847 d83d 3546 6ebd 9760 a53c
000001f0: c5ea 92bd 7b43 743c 0597 823d 6e5e 753a
00000200: f015 c3bd ebe8 1f3e f085 42bd 4da8 dc3d
00000210: c60a 1cbe 9d96 21bd 7ff2 a93d 9407 a4bc
00000220: 76ff a73d 9016 f1bd 5bba 2dbd 974f 09be
00000230: 9578 df3b f90c 7c3c ff24 c23a eafc 0e3e
00000240: 758e 1bbc d391 283e a4af d53c a71e c03d
00000250: be46 e9bc 6918 cc3d e695 0d3f 49d2 543f
00000260: 46e3 453f ca7e 0d3f 0de7 413f 8afd e03e
00000270: 02a0 233f 6fad 0d3f dc91 0d3f f66c 453f
00000280: c86b 1f3f 3ffc 093f c402 123f 0ff6 333f
00000290: 1aa6 083f d6fa 123f 22cc 323f 6bd9 163f
000002a0: d692 493f fb64 213f b514 3f3f 87b9 1e3f
000002b0: ab10 2b3f d579 1d3f 2e0e 373f 1385 ae3e
000002c0: de77 403f cb6c 4a3f a3c8 323f 321f 1b3f
000002d0: 233f 253f a226 163f 9aab 103f 8fdc f93e
000002e0: f4e9 ed3e f2d3 363f ab90 623f b63c 2b3f
000002f0: 97ee 303f d0b0 1f3f dc47 1a3f d056 193f
00000300: 130e 253f a6cc 283f a075 443f 9499 2d3f
00000310: 9639 443f 5ade 473f e432 0e3f 6f26 173f
0.669411 0.83596617 0.53286517 0.3993175 0.73810244 0.6697111 0.7823598 0.7981772
0.5721592 0.6378754 0.53349817 0.57115 0.75857735 0.79939795 0.7284913 0.6631607
0.6941257 0.6954237 0.62682307 0.584234 0.7755776 0.742789 0.7204261 0.5760857
0.6232943 0.37518367 0.8117243 0.78649443 0.6082831 0.81832236 0.505237 0.5743472
0.5966108 0.615399 0.51534873 0.7868722 0.6525163 0.6817957 0.7760552 0.50328636
0.6578092 0.6892452 0.686935 0.7124229 0.7474493 0.7792467 0.6566647 0.7615768
0.7401881 0.60886645 -0.049160138 -0.09454815 -0.023080576 0.09379117 0.14106384 -0.07797376
0.0905677 0.045456626 -0.07253989 0.11105382 0.11020402 0.139595 -0.1064345 -0.044954523
-0.011757471 0.0940801 -0.061384037 0.08292617 0.014943655 -0.06952246 0.08731497 -0.12545769
-0.045186736 0.025784785 0.005507717 0.07320093 0.068196 0.13547096 -0.017407745 -0.103301056
-0.13770054 -0.111438006 -0.07665485 0.10122837 0.07709161 0.072685346 -0.101284176 0.12037911
-0.09821427 -0.14139481 0.00035373008 0.110669605 0.084231764 0.118664876 0.106314234 -0.010390699
-0.04013154 0.025645347 -0.07479171 -0.095377885 0.05581075 0.020263853 0.029574262 -0.0042204997
-0.119110204 0.09693748 0.14644703 0.07072489 0.109742805 -0.084796794 -0.114335395 -0.08542014
-0.08453375 -0.14179985 -0.025813097 -0.12236537 0.13928212 0.05592059 -0.12510201 0.061644427
-0.06358335 0.10560459 -0.058172423 0.02018766 -0.07173685 0.014908667 0.06376461 0.00093600794
-0.095256686 0.15616195 -0.047491014 0.10774288 -0.15238485 -0.039450277 0.082982056 -0.020023145
0.08203022 -0.117718816 -0.04241405 -0.13409267 0.0068197944 0.015383952 0.0014812051 0.13963667
-0.009494414 0.16461878 0.026084729 0.093808465 -0.028476115 0.09965593 0.5530685 0.8313337
0.77299917 0.5527159 0.7574318 0.43943435 0.6391603 0.55342764 0.5530069 0.77119386
0.62273836 0.5390052 0.5703547 0.7029733 0.5337845 0.57413995 0.6984273 0.58925503
0.7873968 0.6304471 0.7464097 0.6200184 0.6682231 0.61514026 0.7150601 0.34085903
0.751829 0.79072255 0.698374 0.60594475 0.64549464 0.586527 0.56511843 0.48801085
0.46467555 0.7141715 0.88501996 0.6688951 0.6911406 0.6237917 0.602659 0.5989809
0.644746 0.6593727 0.7674198 0.67812467 0.7665037 0.78073657 0.555464 0.5904302

fc.weight f4 [1, 50]
00000000: e46c bebf 7843 d23f 635b af3f 92a5 943f
00000010: e71c e13f 90f5 8abf 6dba bfbf 72b8 ab3f
00000020: cb44 e0bf e070 e53f 9802 b13f 5d5b bb3f
00000030: cfd0 ac3f 17dd ae3f 1fed a0bf c5f6 b13f
00000040: 64fe d1bf 1e59 c23f 9d2a b83f 393a bf3f
00000050: e9f5 f03f 8312 d33f d728 d7bf 9f70 a6bf
00000060: 0941 a73f 56bb 9cbf b0ec e13f 6b23 d33f
00000070: 3ef0 d1bf 990a c0bf d33c 8cbf e35e c7bf
00000080: 9388 ae3f c1e4 a03f 1cd0 b7bf 1b42 f5bf
00000090: 5065 d4bf 38d8 9b3f 1204 aebf 6790 c43f
000000a0: 4cbc b63f fdd0 b3bf 18f3 d33f f5d8 dcbf
000000b0: 7f69 abbf 7dbd efbf b1a8 d33f 5c4a c93f
000000c0: 9463 c2bf ccb1 abbf
-1.4876981 1.642684 1.3699764 1.1613028 1.7586945 -1.085619 -1.4978768 1.3415663
-1.7520994 1.7925072 1.3828917 1.4637257 1.3501223 1.3661221 -1.2572364 1.3903433
-1.6405759 1.5183446 1.4388005 1.4939643 1.8825046 1.6490024 -1.6809338 -1.3003119
1.3066722 -1.224467 1.7650356 1.6495184 -1.6401441 -1.5003234 -1.0956062 -1.5575832
1.3635429 1.256981 -1.4360385 -1.9160799 -1.6593418 1.217536 -1.3594992 1.5356568
1.4276214 -1.4048153 1.6558561 -1.725371 -1.339157 -1.8729702 1.6535856 1.5725818
-1.5186639 -1.3413634
