back-end/modelo_lstm.pth (torch, 129733 bytes, 9 tensors)

lstm.weight_ih_l0 f4 [200, 3]
000000 c8 97 fb bc 82 58 6c be a2 e0 cb bb 18 70 aa bd
       -0.030712023 -0.23080638 -0.0062218467 -0.083221614
000010 5d fc 2b be 4c 40 f2 3d ec 28 f7 be e1 6b 47 3e
       -0.16795488 0.1182867 -0.48273408 0.19474746
000020 34 eb 57 3e eb b9 f7 3d 1c 35 99 be 0b 46 30 b9
       0.21085817 0.12096008 -0.29923332 -0.00016810761
000030 89 f9 2d 3d e7 87 95 3e d9 f7 b5 3c 20 f4 17 3e
       0.042474303 0.29205248 0.02221291 0.1483922
000040 45 95 01 bd dd 61 5a bd d6 f6 90 3b d9 cc a0 3e
       -0.031636495 -0.053315986 0.0044239564 0.31406286
000050 33 19 32 3d 0c 9f a7 bd 6c 70 d2 3d ef 7a 2f be
       0.043481063 -0.08184633 0.10275349 -0.17136739
000060 c7 ee b1 3e 7c 60 b0 3e 2a f5 7e 3e a0 2d 1d 3e
       0.34752485 0.34448612 0.2489821 0.15349436
000070 18 c6 34 be fb 6c ec be b9 98 53 3e da 97 c7 be
       -0.17653692 -0.46176895 0.20663728 -0.3898304
000080 80 61 f6 bd c6 b2 a2 3e 04 33 a4 3e 0d 77 89 3e
       -0.120303154 0.31777018 0.32070172 0.2684864
000090 17 61 93 3e bd c0 8d 3e df 67 76 3d 75 50 ca 3d
       0.2878501 0.2768611 0.060157653 0.09878627
0000a0 30 a3 5f be 78 ba 1b 3f 8b 08 de 3d f8 b4 ea bd
       -0.21839595 0.60831404 0.10841473 -0.11460298
0000b0 5d 5c 27 3e 98 54 3f 3e 4f b3 9d 3e db e4 4c 3e
       0.16343828 0.18684614 0.30800864 0.20009176
0000c0 2c 70 93 3e f9 7d a2 be df e0 a2 3c 83 73 81 3e
       0.28796518 -0.31736735 0.019882618 0.2528344
0000d0 06 4c 36 3e 96 9e 15 3e ac cc 09 3d 68 8e 07 3c
       0.17802438 0.14611277 0.033642456 0.008273698
0000e0 0c 21 95 bc 96 4b 91 be b5 96 a3 be 9f a1 a9 3d
       -0.018204235 -0.2837798 -0.31950918 0.0828278
0000f0 4d 74 06 3e b5 de 13 3e 21 22 9b 3d bc b7 a9 3e
       0.13130303 0.14440425 0.07574869 0.3314799
000100 78 d3 b8 3e 1c b3 46 3e e7 6d 9b be 5b 83 b0 3b
       0.36098838 0.19404262 -0.30357286 0.0053867525
000110 a5 90 c4 3e 93 57 b8 3d c3 47 57 3e 11 9b 93 3e
       0.38391605 0.090010785 0.21023469 0.28829244
000120 e8 e3 75 3e 26 5f ae 3d b9 bc 18 3f 35 c5 8d 3d
       0.2401272 0.08514242 0.5966297 0.0692238
000130 14 47 75 3e 05 e5 08 3e dc c2 c7 3e b6 68 cc 3e
       0.23952895 0.13368614 0.39015853 0.39923638
000140 b8 54 94 3e a4 da e1 be 26 21 97 be 0f 63 6b 3e
       0.28970885 -0.44112122 -0.29517478 0.22987007
000150 ec a3 9a 3e d4 12 9b 3e 3d c3 83 3e ce 04 b5 3e
       0.30203187 0.30287802 0.25734892 0.35355228
000160 14 a3 8e 3e fc 44 82 3e 9a e6 07 bd 7d 5b 9b 3e
       0.27858794 0.25443256 -0.033178903 0.30343238
000170 20 b7 80 3d 99 94 e8 3c 1c f3 bc be 0a e5 32 be
       0.06284928 0.02839117 -0.36904228 -0.17470184
000180 58 a1 28 3e 46 03 8c 3e eb 8a 10 3e 09 91 96 3d
       0.16467798 0.27346247 0.14115493 0.07351882
000190 3e b7 e8 3d ce eb 04 3f 60 59 ce bd 35 59 c0 3d
       0.11363076 0.5192231 -0.10075641 0.09392015
0001a0 c1 34 b5 bd 33 5a a5 3e 03 86 1a be bf 1c cb 3c
       -0.08847953 0.3229538 -0.15090184 0.02479398
0001b0 ae 34 a7 3d 56 16 67 3e 7c 66 5b 3e 8c a0 d9 3d
       0.08164345 0.22567114 0.21425813 0.10626325
0001c0 db 96 84 3e 54 f5 9a 3c 75 98 75 3d ad 69 90 3e
       0.25896344 0.01891581 0.059959847 0.28205624
0001d0 58 8b d9 3c 12 24 dc 3e 90 30 cd 3e e0 d0 9d 3e
       0.026555702 0.4299627 0.40076113 0.3082342
0001e0 e3 11 0e 3e 06 a8 24 be 60 82 1e 3f ea 5e cd 3e
       0.1387401 -0.16079721 0.61917686 0.40111476
0001f0 d7 27 9b 3e bd 79 87 3e dd 61 20 3d 76 f8 8a 3e
       0.30303833 0.26460066 0.03915583 0.27142686
000200 18 a0 78 3e 36 6b d3 3d 19 8f 56 3e f8 ef 6a 3e
       0.24279821 0.10323183 0.20953025 0.22943103
000210 c4 90 fe 3d 81 b8 e7 3d 7b 69 06 3f be ae 60 3e
       0.124299556 0.11314488 0.525047 0.21941659
000220 ea 69 2a 3e e6 d5 88 3e 30 f0 82 3d dd 36 3c 3e
       0.16641966 0.26725692 0.063934684 0.18380304
000230 ca e7 32 3d 2d 7d 03 3f 0b b4 58 be f8 bb 5a 3d
       0.043678083 0.5136288 -0.21162431 0.053401917
000240 06 f8 9b 3e ca f7 9a be cb 43 19 3d f8 32 27 3e
       0.30462664 -0.30267173 0.037418168 0.16328037
000250 41 fc 5e 3e a9 26 0b 3d a6 b9 0c be a7 b5 e5 bc
       0.21775915 0.033972416 -0.13742694 -0.02804072
000260 a1 a6 84 3d e6 5c c2 bd 10 32 e5 3d 5b 38 a2 bd
       0.064770944 -0.09490375 0.11191189 -0.07920905
000270 f3 c0 3b 3d 8c e4 2b 3d 2f eb 01 be d7 b6 81 bd
       0.045838308 0.041966006 -0.12687372 -0.06333702
000280 46 1e c2 3d 0f c0 e2 3d 32 70 0f 3e 4b 75 6c bd
       0.094784304 0.110717885 0.14007643 -0.057729047
000290 ad b0 e7 3d a4 b3 d8 3c db d8 6c bd 9a 24 af bd
       0.11312995 0.026452847 -0.057823997 -0.08551903
0002a0 f1 09 99 3d 12 63 d3 3d d1 e9 09 3e 0b c0 06 be
       0.07472599 0.103216305 0.134681 -0.13159196
0002b0 65 31 f7 3b 3a ca 02 3e de 93 97 3d 91 87 9c 3c
       0.00754373 0.12772456 0.0740125 0.019107612
0002c0 6c 5a b7 3c 22 10 2d bd 77 d9 94 bd 5c 7d d9 bd
       0.022381984 -0.042251714 -0.072680406 -0.106196135
0002d0 3f 93 c3 bd a2 b4 0a be 94 6a cd 3c 8c 01 81 3d
       -0.09549569 -0.13545468 0.025075234 0.06299123
0002e0 3e b9 da bc 16 71 88 bd 96 8a 76 3c b6 25 e9 bd
       -0.026699658 -0.066621944 0.01504769 -0.11384146
0002f0 7d 44 0d 3e 85 97 d2 bd ae 40 90 3d d3 bd 75 bd
       0.13795657 -0.10282806 0.07043587 -0.059995484
000300 bb 24 02 3e bd 91 dd 3c 21 0b 36 bd e6 2b f1 3d
       0.12709324 0.027047032 -0.044444207 0.11775951
000310 57 38 0b bd e6 d0 16 bd 60 52 10 3e dd 56 53 bd
       -0.033989277 -0.036820315 0.14093924 -0.05159651
000320 b0 dc 9a 3c 43 7a c8 bd b4 98 d4 bc aa a4 be 3d
       0.01890406 -0.097889446 -0.02595172 0.09308751
000330 90 16 b0 3d 3b ac da bc 32 8a 97 3d e4 08 85 bd
       0.085980535 -0.026693454 0.073994055 -0.064958364
000340 9a ff ee bd 5f 09 b6 bd cd 26 67 3d 4d 7e ca 3d
       -0.11669846 -0.08888506 0.056433488 0.09887371
000350 a5 9e 5f 3d ee f2 4b 3c 85 be b1 3d 05 fb 74 3d
       0.054594655 0.012448056 0.08678917 0.059809703
000360 ce 49 a4 3d 45 0c 21 bd e3 54 5c bd f9 af e2 3c
       0.080218896 -0.03931834 -0.05379189 0.0276718
000370 99 20 18 3d e5 75 c2 3d f6 5a 01 3d 05 d8 23 bc
       0.037140463 0.09495143 0.031580888 -0.010000234
000380 0d 09 fb bd 06 13 c1 bd fd ab 05 3e 1d 62 ac bd
       -0.12257586 -0.094274566 0.1305389 -0.08417151
000390 ee ac e6 3d 44 b7 e4 3d 8d 91 b5 3d 15 dc a6 3d
       0.112634525 0.11167768 0.08865652 0.08147446
0003a0 3d d6 a0 3d 95 2c 37 bd 89 ab 7a 3d dd 65 54 3d
       0.07853363 -0.04472025 0.061198745 0.051854957
0003b0 18 8a a7 bc 10 7f 03 3e d8 d5 a5 bb 16 d5 ce 3d
       -0.02045159 0.12841439 -0.0050608926 0.10099237
0003c0 17 8d 05 3d ad c6 04 bd 5f 2e 94 bc 13 b3 39 ba
       0.032605257 -0.032416034 -0.018088518 -0.0007083874
0003d0 1a 25 87 3d 43 05 41 bc f5 a1 b4 3b 7e 5c 35 bc
       0.065988734 -0.01178104 0.005512471 -0.011069415
0003e0 63 31 60 3d 9d 50 ea 3c 79 4d d6 3d 30 cc 62 bd
       0.0547346 0.028602893 0.104639955 -0.05537051
0003f0 69 a9 6a 3d fc 93 7e 3c 49 30 8c bc ef 73 54 3d
       0.05729047 0.015538212 -0.017112868 0.051868375

lstm.weight_hh_l0 f4 [200, 50]
000000 8f ef ee 3d ec 9c 91 bd ae 51 0d 3e 83 eb 43 3d
       0.11666786 -0.071100086 0.1380069 0.047832023
000010 e5 8b b4 ba da 44 f0 bc bc 1e e2 bd 4d 92 f9 bd
       -0.0013774602 -0.029329706 -0.11041018 -0.12186108
000020 76 4b 69 bd 4c 1a ab 3b a0 45 a9 3c 83 26 0d 3e
       -0.05695673 0.0052216407 0.020663083 0.13784222
000030 71 43 98 3d c9 ab 0a bd f3 fb dc bd aa 12 74 3d
       0.074347384 -0.033855233 -0.10790243 0.059588112
000040 50 f5 37 bb d2 e4 cb bd 6b ce b1 3d 78 f1 c1 3c
       -0.0028069802 -0.099557534 0.08681949 0.023674712
000050 2c e8 e2 bd 3f 9a c4 bd 63 ac 5e 3d 9f b2 66 3d
       -0.110794395 -0.095997326 0.05436362 0.05632269
000060 12 84 ad bd 7a ed dd 3d 77 da a8 bd a2 15 6b bd
       -0.08472456 0.10836311 -0.08244794 -0.057393678
000070 88 5c b1 3c 28 4f 08 bd ea 6d 87 bd 67 4d 0b be
       0.021650568 -0.033278614 -0.06612761 -0.13603745
000080 54 de c7 bd c8 bb 81 3c bc 77 ec bd 1f ee f3 3c
       -0.097592026 0.015836611 -0.11546275 0.02977663
000090 2e 93 3d 3d a7 e0 ca bd 57 9f d7 bc 37 aa fe 3d
       0.04628294 -0.0990613 -0.026321096 0.1243481
0000a0 91 7b 5a 3d 50 ab 8f bc 45 b4 55 bd 07 37 74 bd
       0.0533405 -0.017537743 -0.05217387 -0.05962279
0000b0 77 d1 8b bc ee c4 c0 bd 18 81 f6 3d b8 9a 9f bc
       -0.017067654 -0.09412561 0.120363414 -0.019482955
0000c0 18 fe 11 bd 40 85 c7 3d d8 e6 0d 3e a8 19 7e 3d
       -0.035642713 0.09742212 0.13857591 0.062036186
0000d0 4f f0 fc 3d 7b 5f 1f bd 4e 63 e5 3d 4b b5 8b 3d
       0.12350523 -0.038909417 0.112005815 0.06821688
0000e0 d6 cc f2 bd af c2 0b 3c a9 c1 14 3b b3 15 e2 bd
       -0.118554756 0.008530303 0.0022698438 -0.11039295
0000f0 e9 57 97 3d f2 16 65 bd e2 27 be bc d7 d6 07 3d
       0.073898144 -0.055930085 -0.023212377 0.03316387
000100 8e 74 3e 3d 12 92 a2 bd e3 e5 7c 3d 97 1c fe 3d
       0.046497874 -0.07938017 0.061742675 0.12407797
000110 f1 c0 85 bc 9d 1e e0 3d 07 a8 d6 3c 78 7d 8b bd
       -0.016327353 0.10943339 0.026203169 -0.06811041
000120 7c 7a 09 3e 8b 8f ee 3c e6 64 b2 bd 31 19 6e bd
       0.1342563 0.029121181 -0.08710651 -0.058129493
000130 1a e8 de 3d 34 42 37 3c db eb f7 bc 25 dd 09 be
       0.108841136 0.011185218 -0.030263832 -0.13463266
000140 82 8e 84 3d 2b a0 99 bd 36 7d 65 bd 90 79 a9 3d
       0.06472494 -0.07501253 -0.056027614 0.08275139
000150 b4 52 fd 3d 89 c1 b9 bd 9a b3 ba 3d 92 b1 bc bd
       0.1236929 -0.09070117 0.091162875 -0.09213556
000160 3e 26 3c bd 03 45 90 3d a5 5d e8 bc 80 2a 06 3e
       -0.045934908 0.07044413 -0.028364966 0.1310215
000170 88 1c 06 be d8 6b 78 3d d7 b6 ac bd a5 2d c3 3d
       -0.13096821 0.060649723 -0.084333114 0.095301904
000180 60 83 a8 bd fb 44 42 3d a9 a0 d2 3d 4e f9 07 be
       -0.08228183 0.047429066 0.1028455 -0.13278696
000190 70 96 0a be 69 4c c3 3c 72 ea 3e 3d b9 34 7a bd
       -0.1353395 0.023840146 0.046610303 -0.061085436
0001a0 7b 26 b2 3d 55 20 8f 3d d5 2f 06 3d e0 aa aa 3d
       0.08698746 0.06988589 0.03276046 0.08333373
0001b0 23 e6 c3 3b 98 8c aa 3c 2b bd d8 3d c7 fc a7 bd
       0.005978362 0.020818993 0.10582956 -0.0820251
0001c0 85 e9 05 be 86 8a 4d 3d 01 40 0a 3e 78 91 37 bb
       -0.13077362 0.050180934 0.13500978 -0.002801029
0001d0 80 a9 a4 3c 91 6e b4 bd 7a 29 c7 bc f8 50 d2 3d
       0.020100355 -0.08810151 -0.02431177 0.1026935
0001e0 12 87 f2 3d aa 42 a1 bc 1d 61 c1 bd 9d dc 89 bd
       0.11842169 -0.019685108 -0.09442351 -0.06731532
0001f0 ab ce 02 3d 7f c1 dd 3d fa c3 b5 bc ca b0 cb 3d
       0.031935375 0.10827922 -0.022188175 0.09945829
000200 58 7f d3 bc c3 89 81 3d e5 af ee 3c c7 d0 0e be
       -0.025817558 0.06325104 0.029136607 -0.1394683
000210 f5 a0 8b 3d a2 4a 39 3c c6 de f1 bd 4e 05 89 3c
       0.068178095 0.011309298 -0.11810069 0.016726162
000220 f5 a1 0b be 3a 77 66 3d b4 ae d4 3d f2 18 df bc
       -0.13636 0.056266047 0.103848845 -0.027233575
000230 67 70 a4 bd 8f b8 75 3d 52 c6 55 bc 19 d8 52 bd
       -0.080292515 0.059990462 -0.0130477715 -0.051475618
000240 26 4d 93 3d e7 3d c0 bd 62 1b cd 3c b9 ef 32 bd
       0.07192449 -0.09386807 0.025037471 -0.04368565
000250 f8 da e7 bc e5 8d 90 bd 8a cc 66 3d 54 1d 95 3d
       -0.028302655 -0.07058314 0.056347407 0.072809845
000260 61 44 b7 bd f0 54 c8 bc fa 77 e6 bd 7b 6e b4 3d
       -0.08948589 -0.024454564 -0.112533525 0.08810135
000270 da 81 03 bc 1c fe 0f 3e 47 88 af bd e2 d8 dd bd
       -0.0080265645 0.14061779 -0.08570915 -0.10832383
000280 36 16 d9 bd 6b c5 6b 3d 4e ee 9f 3d 88 95 bf 3c
       -0.105999395 0.05756132 0.07809125 0.023386732
000290 0b f2 98 3d 7d 4b 86 3d c6 19 0d 3d 38 6d d1 3d
       0.07468041 0.06557367 0.034448408 0.1022591
0002a0 e0 2d b8 bd 0b b7 f9 bd 2b 70 94 3d 06 6e a7 bc
       -0.08993125 -0.12193116 0.07247957 -0.020438205
0002b0 ca f3 a9 3c a1 42 93 3d e7 4b 00 be f5 fb d1 bd
       0.02074613 0.07190443 -0.12528954 -0.10253135
0002c0 a3 e1 30 bc 6c 50 0b 3e 9b 3a 26 3c 36 2d 09 be
       -0.0107959835 0.13604897 0.010145809 -0.13396153
0002d0 67 13 4a bd cc 0a 88 3d ab ca 08 3e 9c 16 8f 3d
       -0.04933491 0.06642684 0.13358562 0.06986734
0002e0 5a e4 ab bd e4 24 00 3e 9b 14 f5 3d 32 d5 f7 bc
       -0.08393164 0.12514073 0.11966821 -0.030253027
0002f0 16 59 96 bd ff 4b 1a 3d d3 0b 9a 3d 03 63 03 3e
       -0.073412105 0.03767013 0.075217865 0.12830739
000300 47 e2 0c 3e 99 db 1d 3d 3e 37 c4 3d c2 e6 b4 3c
       0.13758193 0.038539503 0.09580849 0.02208269
000310 8c 1c 1c bc ac 9b aa bd f6 2d cf 3d 16 fc 33 3d
       -0.0095282905 -0.08330473 0.10116188 0.04394158
000320 1f 4e 54 bd 54 c9 25 bd 56 59 9e 3d 8a 6f 41 3b
       -0.051832315 -0.040475205 0.07731883 0.0029515945
000330 7b ff a8 3c 65 df 6c bd a5 c0 03 be 51 eb 8c bc
       0.020629635 -0.057830233 -0.12866457 -0.017202051
000340 8c 94 0c be e7 5a 01 be 95 b7 f0 3c 8b fb c5 3c
       -0.13728541 -0.12632333 0.029384414 0.024167797
000350 f8 f2 d9 3d 30 00 a1 bd 36 f7 09 3e b4 bd cb bd
       0.10642046 -0.07861364 0.1347321 -0.099482924
000360 11 50 01 3e 6d 7e 11 3d f1 89 2c 3d 05 bb a3 3d
       0.12628199 0.03552096 0.04212374 0.079946555
000370 b7 0c 5f bc 62 f0 4b bd 3a 7b d4 3d 1f c0 08 3e
       -0.013613871 -0.049789794 0.10375066 0.13354538
000380 c1 5b 5d 3d ac f6 a3 bd 18 95 ac 3c 7b e0 cd 3d
       0.05404258 -0.08006033 0.021067187 0.10052582
000390 c7 86 95 bd 6c 66 9c 3d df f7 a8 3d c7 fa 6a 3c
       -0.07301097 0.07636723 0.08250403 0.014342017
0003a0 a3 d1 fe bd 46 6b ba bc e1 dc 32 bd f9 04 28 bd
       -0.12442329 -0.02275623 -0.043667678 -0.041020367
0003b0 58 88 07 3e bc f4 52 bd a4 56 e9 bd 2f 1d 70 bd
       0.13235605 -0.05150293 -0.113934785 -0.05862158
0003c0 7e 5e d4 bd 5c dd 0d 3c 91 92 00 be f3 e4 d2 bc
       -0.103695855 0.008658733 -0.1255591 -0.025743937
0003d0 6b a9 87 3d 09 31 c6 3d 86 4a 8b bd 5a 38 48 3d
       0.06624111 0.096773215 -0.068013236 0.048881866
0003e0 00 8c e2 bd 15 a6 2e 3d df fc 60 3d ef 3c d1 bc
       -0.11061859 0.042638857 0.054928657 -0.02554175
0003f0 a5 80 b1 3d 7f 30 c7 bd bb 59 dc bc ba b5 77 bd
       0.08667115 -0.09726047 -0.026898256 -0.060476042

lstm.bias_ih_l0 f4 [200]
000000 41 93 93 3e 6b ea 50 bc 02 50 ef be bf d5 c3 3e
       0.28823283 -0.012751202 -0.4674073 0.38249013
000010 b2 cb 64 3e 07 fc 65 be bd be 50 3d 71 89 69 be
       0.22343329 -0.22459422 0.050963152 -0.22806336
000020 b6 10 6c 3e b8 fa 60 3c be 1c 59 3e fb fb 81 3e
       0.2305325 0.013731651 0.2120237 0.25387558
000030 1e a4 f7 3d f9 b2 92 3e 5a 41 8e 3e b0 bc 61 3e
       0.1209185 0.2865217 0.27784234 0.22044635
000040 30 0e ae 3e 7e cb b9 3e dd c8 c4 be 2b 4b 93 3e
       0.339952 0.36288065 -0.38434497 0.28768286
000050 bd 53 25 3e 04 ce 82 3e 9a 98 e0 bd 2d 71 12 3d
       0.16145225 0.25547802 -0.109666064 0.035752464
000060 5a 8d e4 3e d3 17 a0 3e 78 42 50 3e f9 28 eb bd
       0.44639093 0.31268176 0.20337856 -0.11482424
000070 4b f3 0d 3e ea f0 be 3e ae 02 df bc 05 e3 8d 3e
       0.1386234 0.37293178 -0.027222957 0.27712265
000080 b7 99 81 3e fd d9 e2 3d 71 51 84 be 77 ed 9b bd
       0.25312588 0.11076734 -0.25843385 -0.07613652
000090 a9 d2 20 3e 6a d2 b0 3d 45 d4 95 3e 0f 77 51 3e
       0.1570536 0.08633883 0.2926351 0.20455573
0000a0 06 1f f9 3d 89 89 bf 3e f7 e0 94 3e fe 2f 68 3e
       0.121641204 0.37409618 0.29077885 0.22674558
0000b0 fd bb d1 3e d9 0e d5 3d ae 25 21 3e 14 a2 bd 3e
       0.40963736 0.104032226 0.1573703 0.37037718
0000c0 da 17 ae 3e 36 d4 42 3e e1 fd e1 bd 9a 19 89 3d
       0.34002572 0.19026265 -0.11034752 0.06694336
0000d0 2c c2 d7 bd b8 78 0c be 04 3e be 3c 29 a0 5a 3d
       -0.10535082 -0.13717926 0.02322293 0.053375397
0000e0 a9 49 dc 3d 0f 31 68 3d 50 d0 58 3d 82 c7 e6 bd
       0.10756237 0.05668741 0.052933037 -0.11268522
0000f0 5b 1b c5 3c fe 63 fb 3d 3b 40 04 3e f7 6e b6 bd
       0.024060896 0.12274931 0.12915127 -0.089078836
000100 cf 9a 54 bd 4e 8c a5 3b af fc e6 bd 88 07 05 3e
       -0.05190545 0.005052126 -0.11278664 0.12991154
000110 cc 2c 40 bd 95 ce e1 3c 50 0c 6d bd 97 26 0f 3c
       -0.04691772 0.027564326 -0.05787307 0.008737228
000120 89 b4 04 be 51 fb c1 bd fe 27 01 be 0a 4d ae bd
       -0.12959494 -0.09471763 -0.12612912 -0.08510788
000130 17 f6 ad 3d 04 51 a6 3d 8e 9c e0 bd 30 ab c6 3c
       0.084942035 0.08120921 -0.109673604 0.02425155
000140 40 56 f8 bd d8 bb 8d bc 78 b0 06 be 9f 5c 8f 3d
       -0.12125826 -0.017301485 -0.13153255 0.07000088
000150 9c d4 c4 3c eb e1 f3 3d 78 69 9f 3d 0c 7d 02 be
       0.024027161 0.11908325 0.077837884 -0.12743014
000160 46 b3 1d bd 2e b4 e3 3d 5e 58 e6 3d 34 e2 c2 3d
       -0.038501047 0.11118351 0.112473235 0.09515801
000170 f4 d7 ff 3d 83 4a a1 3a 15 8e 31 3d 65 f8 9c 3d
       0.12492362 0.0012305531 0.04334839 0.07664565
000180 06 fa d7 3c 8b 5f bf 3c a9 2c f1 3d c1 d7 8f bc
       0.026364338 0.023360988 0.117760964 -0.017558934
000190 ec 01 81 be fd 97 b4 be ab 0c cd be 2d 1d 31 be
       -0.2519678 -0.35272208 -0.40048727 -0.17296286
0001a0 88 36 6a 3e a2 cd 1b be 06 1b 3a bd 9d 79 1c be
       0.22872365 -0.15215161 -0.045435928 -0.15280767
0001b0 30 fd bb be a8 49 3c 3e dc 85 bc 3e b5 eb 00 3e
       -0.36716604 0.18387473 0.36820877 0.12589915
0001c0 b6 89 0c 3e 7e c9 9e 3e ed e1 92 3e 37 f3 fc 3d
       0.13724408 0.310131 0.28687993 0.12351077
0001d0 06 7e 98 3e 1d 01 7b be 44 3b 8c be 38 0d 9a 3e
       0.29783648 -0.24512143 -0.27388966 0.3008821
0001e0 96 6e 13 3e 8d 55 b5 be 70 45 95 be ed 1e a7 3d
       0.14397654 -0.35416833 -0.2915454 0.081601955
0001f0 43 c7 36 be d6 89 9e 3d ac d7 3f 3e c1 6e 51 3e
       -0.1784945 0.07741134 0.18734616 0.20452406
000200 0e 16 d2 bd 04 5f a5 3e b9 c6 42 be 8f cb a9 be
       -0.10258113 0.32299054 -0.19021119 -0.33163115
000210 40 2d 7a 3e 0e 60 cf bd f7 81 93 3e bb 81 ec 3e
       0.24431324 -0.10125743 0.28810093 0.46192726
000220 e6 0a 73 be 55 f8 7e 3e 4a 40 83 be d4 6d 06 3e
       -0.23734626 0.24899419 -0.25634986 0.13127834
000230 ff 76 2a be 56 d8 9b be 5f 66 2f bd fd cc 4e 3e
       -0.16646956 -0.3043849 -0.042822238 0.20195384
000240 0c 0d 69 be 2b f3 1c 3e f6 5a df 3d 06 b8 c2 3e
       -0.22758883 0.15327136 0.10906021 0.38031024
000250 63 0c b4 3e de a6 2d 3e f5 ed 0c 3e 1b 2b ad 3e
       0.351657 0.16958186 0.13762648 0.3382195
000260 a4 c4 06 be 35 0a 1d 3e 68 81 34 3e 66 d0 f0 3d
       -0.1316095 0.15335925 0.1762749 0.11758499
000270 65 f3 86 3e 49 3f e9 be f9 b5 b2 3e 83 a3 93 3d
       0.2635757 -0.45556095 0.3490446 0.07208922
000280 19 22 c1 3e 3d 5a 6d 3e 8a b9 5a 3e 31 33 bb bd
       0.37721327 0.23178954 0.2135984 -0.09140623
000290 eb c4 49 3d 5c bc 64 3e 69 b4 0f 3e bd 7e 4c 3d
       0.04926006 0.22337478 0.14033665 0.049925555
0002a0 f9 d5 b9 be 86 87 4d 3e 82 12 ee bc 66 ce 41 3d
       -0.3629606 0.2007123 -0.02906156 0.047315978
0002b0 58 f7 80 be 9b 64 ad 3e 36 64 ca 3d 09 6f 89 3d
       -0.25188708 0.33865818 0.09882395 0.067106314
0002c0 e3 89 0b 3f 89 0d 27 3e ea 40 61 3e 70 cf 97 3e
       0.54507273 0.16313757 0.21997419 0.2965045
0002d0 fe ef 10 3f 43 58 e3 3e 05 55 b6 be bc 80 fd 3d
       0.566162 0.44403276 -0.3561174 0.1237807
0002e0 6a 66 5f be 7f 40 58 3e ac aa a8 3e ff 2d bf 3e
       -0.21816412 0.21118353 0.32942712 0.3733978
0002f0 19 05 08 3e bd 3d 3b bd 36 83 cd 3d 02 94 07 be
       0.13283195 -0.045713175 0.10034792 -0.13240054
000300 e9 8a 85 3c f0 77 be 3d 9a 64 61 3e 7c 26 20 3e
       0.01630159 0.0930022 0.22011033 0.1563968
000310 23 71 4c be 00 67 c1 3e e6 30 1d 3d bc 5d c9 3e
       -0.19965033 0.37773895 0.03837671 0.39329326

lstm.bias_hh_l0 f4 [200]
000000 88 aa 95 3d 6a 65 49 be e5 dc 30 bf e7 25 cb 3e
       0.07307917 -0.19667593 -0.6908706 0.39677355
000010 61 21 b2 3d d5 c8 6d 3c 44 e1 e5 3a c5 02 b5 be
       0.08697773 0.014513214 0.0017538448 -0.35353675
000020 05 e9 be 3e ef 02 ac 3d 0b 21 73 3e 50 c8 81 3e
       0.37287155 0.08398997 0.23743074 0.2534814
000030 43 7f 26 3e d1 6b 87 3d 30 7a 87 3e 53 04 69 3e
       0.16259484 0.06612361 0.2646041 0.22755556
000040 41 36 87 3e b9 32 02 3e f2 25 83 be 52 1a fa 3d
       0.2640858 0.12714662 -0.25614887 0.122120515
000050 1b 26 0a 3c d8 2f 88 3e 91 9f 71 be 84 e2 8a 3e
       0.008431937 0.26599002 -0.23596026 0.27125943
000060 d5 e4 8d 3e 5e f8 7d 3e 87 52 9c 3e f5 61 41 ba
       0.27713647 0.24801776 0.30531713 -0.00073769625
000070 a8 56 a2 3e ea 29 6c 3e a9 7e c6 3d 96 b2 17 3e
       0.31706738 0.23062864 0.09692127 0.14814219
000080 ba b8 a1 3e 1f 4e ba 3e f5 4b 5c be 6d 22 95 3d
       0.31586248 0.36387727 -0.2151335 0.07281957
000090 20 96 7a 3e 90 5c 8c 3e b9 5a 0b 3e bc 7d 95 3e
       0.2447133 0.2741437 0.13608827 0.2919749
0000a0 b6 fa 3f 3e 27 18 47 3e b9 0e 68 3e 60 f5 8c 3e
       0.18747982 0.19442807 0.22661866 0.27530956
0000b0 eb 40 c3 3e d8 84 19 3e 7e 5e 3d 3e aa 0a 76 3e
       0.38135466 0.14992082 0.18493077 0.24027506
0000c0 ab 60 e9 3e 31 ff e0 3e bb 0c 77 bd 38 f2 d8 bc
       0.45581564 0.43944696 -0.060314875 -0.026482686
0000d0 9a e4 ab bc 29 a0 ac bd 66 06 02 3e 0f e0 02 be
       -0.02098303 -0.084289856 0.12697753 -0.12780784
0000e0 72 3f 39 bd 35 1a 80 bd 29 0f 95 bb 6c 84 c4 3c
       -0.04522652 -0.062549986 -0.0045489264 0.023988925
0000f0 15 15 78 bd ec d9 e4 bc 89 73 0f be e1 66 60 bd
       -0.06056698 -0.027935944 -0.14008917 -0.054785613
000100 0e 37 ef bc 18 a4 43 bd b7 aa d8 bd 62 ee cd bc
       -0.029201057 -0.047763914 -0.10579436 -0.025138084
000110 e9 91 4f bd d3 f7 d9 3d 50 42 40 3c 8a 96 53 3d
       -0.05067626 0.10642972 0.01173456 0.051657237
000120 0e a6 f8 bd 99 6f e3 3c 4a 35 64 bd 93 92 0e 3e
       -0.121410474 0.027763175 -0.055714883 0.13923101
000130 c8 da 6c 3d 4b d9 8f bd b3 a7 0c 3e 9b 53 e6 3d
       0.057825834 -0.07023867 0.13735847 0.11246415
000140 36 82 e6 3d be c8 08 3d d1 47 15 3d fe 52 7d bd
       0.112553045 0.033394568 0.036445443 -0.061846726
000150 5b 89 6c 3d fb e4 0d bd ab 77 b7 3d ae d4 96 3d
       0.05774818 -0.0346422 0.08958372 0.07364784
000160 af bd 58 bc 28 fe 2a bd 56 26 d4 3d 45 b6 b4 bd
       -0.013228818 -0.04174629 0.103588745 -0.08823828
000170 a3 5d b0 3d bc 14 c4 3d 0f 92 87 bd 84 9d 04 be
       0.0861161 0.09574267 -0.06619655 -0.12950712
000180 44 fc 06 be fd 71 40 3d 84 fb f3 bd e6 13 93 3d
       -0.13182169 0.046983708 -0.11913207 0.0718153
000190 92 6e ae be 3c 17 4e be 39 d9 66 be d1 02 80 be
       -0.34068733 -0.2012605 -0.22543801 -0.2500215
0001a0 1e 77 ce 3e 77 28 bc be 59 82 16 be 84 03 18 be
       0.40325254 -0.36749622 -0.14698161 -0.14845091
0001b0 2a 8b a6 be 50 ca 9c 3e 9c 61 c0 3e 64 1b c1 3e
       -0.3252805 0.30623102 0.3757447 0.3771621
0001c0 14 90 f9 3d 3a a8 a9 3e 26 26 38 3e 16 64 9b 3e
       0.12185684 0.3313616 0.17983302 0.30349797
0001d0 3d 7b 9e 3e 65 0d f1 bd 89 2e 9e be 97 96 14 3e
       0.30953398 -0.11770133 -0.30894879 0.1451057
0001e0 65 dd 56 3e 5a 53 ce be 9d 97 2c be 7a 6d 9b 3e
       0.20982893 -0.40297967 -0.16854711 0.3035696
0001f0 78 93 a1 be dc a2 95 3d 23 ee 5c 3e 87 9f b7 3e
       -0.31557822 0.073064536 0.21575217 0.35863897
000200 c8 4c 6c be 61 ad 8d 3e b4 40 8e be be 5d 83 be
       -0.23076165 0.2767134 -0.2778374 -0.25657457
000210 c6 1d 67 3e b3 a4 7a bd b4 00 90 3e 60 dc 96 3e
       0.22569951 -0.061192226 0.28125536 0.29465008
000220 1d 5d 62 be 2f 6f ef 3d ca 62 44 bd d4 31 44 3e
       -0.22105832 0.116911285 -0.047945775 0.19159633
000230 4b 95 cb be a1 29 35 be 61 71 dc bd 6c 33 6f 3e
       -0.3976234 -0.17691661 -0.10763813 0.2335946
000240 aa 65 09 be 5a 67 b2 3e d5 c8 58 3e 78 7b 8d 3e
       -0.13417688 0.34844476 0.21170361 0.27633262
000250 17 2e a2 3e 97 1c 8b 3e a8 84 e3 3d bc e7 aa 3e
       0.3167579 0.2717025 0.111092865 0.33379924
000260 7e a7 6f be 21 ce 28 3c 3d 44 1b 3e a2 6a 18 3e
       -0.23403737 0.010303051 0.1516275 0.14884427
000270 6d b7 c3 3c 96 af ec be 38 d6 4a 3e 75 ba b4 3d
       0.023891175 -0.4622771 0.1980828 0.08824626
000280 65 6d 87 3e c5 e9 4d 3e 86 c2 94 3e 1f f2 99 bd
       0.2645065 0.20108707 0.2905466 -0.07516884
000290 65 c1 9a bc e3 e8 2a 3e ab f1 99 3d 1c 70 47 3e
       -0.018891046 0.16690402 0.07516798 0.1947636
0002a0 6c 1c e2 be 79 ae 31 3e ce 4c bb bc 9c 6f be bd
       -0.4416231 0.17351712 -0.022863772 -0.092986315
0002b0 c7 ab 42 be f7 4b 24 3e 56 59 07 3e ce 04 1a 3e
       -0.1901084 0.16044603 0.13217673 0.15040895
0002c0 00 26 26 3f 18 4b 8a 3e d3 57 90 3e 75 26 5d 3e
       0.64901733 0.27010417 0.28192005 0.21596701
0002d0 0f 74 b1 3e 19 3a 64 3e be 94 99 be 90 7c c5 3a
       0.34658858 0.22287787 -0.29996294 0.001506703
0002e0 d3 dd 9a be a2 77 90 3c 89 3a cf 3e e8 e3 95 3e
       -0.30247363 0.01763517 0.40474346 0.2927544
0002f0 4f 45 f3 3d 7e 50 07 3e 06 6c a8 3e c8 6f 0e 3d
       0.11878454 0.13214299 0.32894915 0.03477457
000300 d4 6a 98 3d ad a4 c7 3d 90 11 8e 3e 0f 17 93 3e
       0.07442251 0.09748206 0.27747774 0.2872853
000310 06 e5 bc be 8c 3c c8 3e 8d 11 e7 bc 66 10 51 3e
       -0.3689348 0.39108694 -0.028206611 0.20416412

lstm.weight_ih_l1 f4 [200, 50]
000000 62 e8 86 be d2 6e 6d bf ff 8c 0e 3e 68 c8 6f be
       -0.2634917 -0.92747223 0.13920973 -0.23416293
000010 bd 71 01 3f 0e 54 4c bf 8a 9b 2b bf 0a 00 18 bf
       0.50564176 -0.7981576 -0.6703421 -0.5937506
000020 9f 75 a5 be 7e c9 00 3f 4d c3 c2 3e 21 06 a1 3e
       -0.323163 0.5030745 0.38039628 0.31449988
000030 ae 76 16 3f 43 d9 88 3f 18 bc 3b 3f a2 1e ef 3e
       0.5877484 1.0691303 0.73333883 0.46703058
000040 f9 93 2c 3f 3a b6 f4 be c6 a3 03 bf 5e 20 ea 3e
       0.6741329 -0.47795278 -0.51421773 0.4572782
000050 bd 57 d6 3e 0e 05 a2 be 65 e6 0a bf d9 4d 3e 3f
       0.41863814 -0.3164448 -0.54257804 0.74337536
000060 ff 60 4d bf 18 ce f1 3e 62 0e ab 3f 3d 77 6a 3e
       -0.8022613 0.4722755 1.3363764 0.22897048
000070 86 08 1a bf bb 1f 03 3f bc f8 47 bf c3 6a f0 be
       -0.60169256 0.5122029 -0.78113914 -0.46956453
000080 d8 0b 00 3f 9f 85 03 bf a6 f1 2c 3f 81 a5 06 3f
       0.5001807 -0.51375765 0.67556226 0.5259629
000090 59 c2 1f bf 81 65 30 3f 6f 09 11 bf 43 50 bb 3d
       -0.62405926 0.6890488 -0.5665502 0.09146168
0000a0 72 e9 97 bf 6b cc 46 be 9b a3 0f bf 43 8c 02 3f
       -1.1868117 -0.19413917 -0.5610902 0.5099527
0000b0 cc 3b 11 bf 6f cf 31 3f d3 53 ab 3e 3f 3a 06 3f
       -0.5673187 0.69457144 0.3346239 0.52432626
0000c0 ab eb 40 3f 1d 27 f8 3e d8 2b 9b be 4e a9 06 bf
       0.753596 0.4846734 -0.30306888 -0.5260209
0000d0 6f 54 ed 3c c7 19 6b be a5 93 c9 3e ce ed 48 bf
       0.028970925 -0.22959052 0.39370456 -0.7848786
0000e0 8f 30 1f bf f3 9a db be a6 d0 0f bf 1c da 3d 3f
       -0.6218347 -0.42891654 -0.5617775 0.74160933
0000f0 86 2f b3 3e 94 03 a3 3e 61 1a 25 3f cc 6c 71 3f
       0.34997195 0.31838667 0.64493376 0.94306636
000100 c4 e3 4c 3f ba 73 05 3f 26 d9 1b 3f bb 3c 10 bf
       0.8003504 0.5212971 0.6087822 -0.5634267
000110 08 c1 37 bf de a5 08 3f f0 d8 98 3e 23 6c 0c bf
       -0.7177892 0.53378093 0.2985301 -0.54852504
000120 74 1d 1c bf f9 f0 41 3f 5b d3 7a bf 73 ea 14 3f
       -0.6098244 0.7575832 -0.9797875 0.5817024
000130 d7 d6 ab 3f f3 54 7d 3e ec 5b 15 bf 67 2f 23 3f
       1.3424939 0.24739437 -0.58343387 0.63744205
000140 c2 84 43 bf 67 21 a1 be 35 c2 36 3f 94 c3 1b bf
       -0.7637445 -0.31470796 0.71390086 -0.60845304
000150 55 50 11 3f 30 bc 97 3e ac c8 07 bf 47 51 37 3f
       0.567632 0.29635763 -0.53040576 0.71608394
000160 cf f5 2c bf 8b a0 89 3d 8c b9 b1 bf 28 42 9f be
       -0.67562574 0.06720074 -1.388475 -0.3110516
000170 fb 8f 3d bf 77 0b 2b 3f d7 e0 52 bf d7 78 49 3f
       -0.7404782 0.6681437 -0.8237433 0.7870001
000180 bb e2 82 3e 7e 71 da 3e 62 98 06 3f f2 ec f6 3e
       0.25563607 0.42664713 0.5257627 0.4822765
000190 ed dd 9b be 9f 0f 68 bf 00 e2 7c be 42 56 9c be
       -0.30442753 -0.90648836 -0.24695587 -0.3053456
0001a0 a7 0f 9c 3e d7 fa 14 bf ac 71 27 bf 3c f0 c6 be
       0.30480692 -0.5819525 -0.65407825 -0.3885516
0001b0 99 27 d9 be 07 f2 69 3f 58 b6 9d 3e 7d 11 b8 3e
       -0.42413023 0.9138493 0.3080318 0.35950842
0001c0 7b 2c 1d 3f 11 4d 7f 3f 93 23 4a 3f a3 88 24 3f
       0.61395997 0.9972697 0.7896053 0.6427099
0001d0 96 fc 36 3f 8a ca 25 bf f3 5e 4d bf eb 2e 90 3e
       0.71479166 -0.64762175 -0.80223006 0.28160796
0001e0 8b 5e cc 3e 7b 02 cf be ee 65 44 bf 5b a8 08 3f
       0.3991588 -0.4043158 -0.7671803 0.5338189
0001f0 3d a3 5b bf d8 4d 2f 3f 4e e9 8c 3f e9 0f d4 3e
       -0.85795957 0.68478155 1.1008699 0.41418388
000200 59 de fc be 76 b6 1c 3f 08 ee 71 bf db 00 cc be
       -0.49388388 0.61215913 -0.9450383 -0.39844403
000210 91 5e 1c 3f 91 85 15 bf 1f dd 31 3f 19 56 18 3f
       0.61081797 -0.5840693 0.6947803 0.59506375
000220 c3 37 22 bf c7 d2 22 3f 27 c6 12 bf 9b 30 c2 3c
       -0.63366336 0.6360287 -0.57333606 0.023704818
000230 72 cd 8e bf 4d d5 40 be 96 c5 33 bf b2 51 3a 3f
       -1.1156447 -0.18831368 -0.7022337 0.7278091
000240 2a f5 38 bf 98 cf 3d 3f 64 72 da 3e a6 c1 17 3f
       -0.7224909 0.7414489 0.42665398 0.5927986
000250 1c 44 41 3f e9 f9 97 3e 4b e4 75 be 54 b8 23 bf
       0.7549455 0.29682854 -0.24012868 -0.6395314
000260 79 3e 87 be 7a 5c d5 be d8 46 18 3f 12 1d 40 bf
       -0.2641485 -0.41672117 0.594831 -0.7504436
000270 0d 17 f9 be 27 8f 08 bf 13 f6 03 bf de 7e 23 3f
       -0.486504 -0.53343433 -0.51547354 0.6386546
000280 5f cd cd 3e b1 be a0 3e d9 3c 04 3f 01 c7 27 3f
       0.40195748 0.31395486 0.51655346 0.6553803
000290 7f ac 34 3f dd a9 f3 3e 55 74 0e 3f 7b eb ed be
       0.7057571 0.47590533 0.5564626 -0.4646872
0002a0 9a 17 ea be a5 eb da 3e 4d 0e 19 3e 39 1e 84 be
       -0.45721132 0.42757908 0.14946862 -0.25804308
0002b0 b7 be 05 bf 30 f6 0d 3f b9 23 41 bf 04 d5 18 3f
       -0.5224413 0.5545378 -0.75445133 0.59700036
0002c0 df 76 a3 3f 54 d1 ca 3e c0 04 bc be 46 81 ca 3e
       1.2770652 0.3961283 -0.36722374 0.39551753
0002d0 55 f3 2d bf a2 d7 94 be c0 b3 03 3f 5f 86 01 bf
       -0.6794942 -0.29070765 0.5144615 -0.5059566
0002e0 7b db d9 3e 54 6e 3e 3f 54 45 02 bf e8 99 21 3f
       0.42550263 0.743871 -0.50887036 0.6312547
0002f0 73 80 d1 be e6 06 e3 3d d7 c9 7d bf 3a bc af be
       -0.4091831 0.110853 -0.9913611 -0.34323293
000300 c8 22 16 bf 9c 05 b9 3e a3 a8 20 bf b8 af f3 3e
       -0.5864682 0.36137092 -0.6275732 0.47595
000310 02 52 0c 3f b0 ef e0 3e 95 e5 ed 3e 9c 82 a9 3e
       0.54812634 0.43932867 0.4646422 0.3310746
000320 ff cd 69 be 74 5a 65 bf 82 fc 71 3d 20 0c 9c be
       -0.22832488 -0.89591146 0.0590787 -0.30478
000330 89 1c b6 3e 21 61 3e bf 1a 3f 3b bf 39 c8 05 bf
       0.35568646 -0.74366957 -0.7314316 -0.5225864
000340 d2 a6 00 bf ee 17 86 3f 54 d5 f0 3e ee 6f dd 3e
       -0.5025455 1.0476053 0.47037756 0.43249458
000350 4b 8b 29 3f 47 a2 73 3f 5c 58 5b 3f 21 6f 16 3f
       0.6622817 0.9516949 0.856817 0.5876332
000360 0c dc 53 3f 38 a2 47 bf ca a6 2b bf 32 2c dc 3e
       0.8275764 -0.779819 -0.67051375 0.43002468
000370 6e 7d 41 3e b7 72 9f be 12 5d 42 bf 02 8a 1a 3f
       0.18895504 -0.31142208 -0.75923264 0.60366833
000380 68 4c 42 bf e6 92 38 3f e4 c1 a1 3f e7 2d 28 3e
       -0.75897837 0.7209915 1.2637296 0.1642376
000390 1c a2 29 bf e5 3b 22 3f 0a 9a 8e bf 49 96 ed be
       -0.66262984 0.6337264 -1.1140759 -0.4640372
0003a0 bd 94 1f 3f 2c 66 16 bf 9b d8 24 3f 1c af ca 3e
       0.6233633 -0.5874965 0.64393014 0.39586723
0003b0 d5 9d 11 bf 85 bc 02 3f 24 e1 23 bf 48 3a 1b 3e
       -0.5688146 0.5106891 -0.6401541 0.15158951
0003c0 37 f0 cb bf f9 cf b1 be 43 73 35 bf a2 f2 27 3f
       -1.5932683 -0.34728983 -0.70879 0.65604603
0003d0 c5 42 34 bf 46 64 04 3f 00 2e 14 3e c4 4e 20 3f
       -0.7041438 0.51715505 0.14470673 0.62620187
0003e0 17 51 46 3f 1e bc 06 3f e9 36 b5 be 81 03 4e bf
       0.77467483 0.52630794 -0.35393456 -0.80474097
0003f0 a0 05 ea 3d 26 95 9b be 09 a9 79 3e a0 3d 1e bf
       0.11426854 -0.3038723 0.24380888 -0.6181278

lstm.weight_hh_l1 f4 [200, 50]
000000 cd a4 b6 3d 3c 7d 3a 3d d0 63 86 3d 0a 1f 0e 3e
       0.08918152 0.04552959 0.065620065 0.13879028
000010 08 fd ff 3d c5 36 d3 3d 26 4a 62 bc 60 b9 05 3c
       0.12499434 0.10313181 -0.013811624 0.008161873
000020 21 29 78 3d b5 bc 1c bc 64 76 09 3e 87 54 10 3e
       0.0605861 -0.009566476 0.13424069 0.14094745
000030 89 17 fe bc 99 d6 2f bd fa 16 a7 3c 5b 3a ea 3d
       -0.031017082 -0.042929266 0.020396698 0.11436912
000040 fd 7f b5 bc c4 91 3b 3d 1a 20 0f be 39 7e 88 3d
       -0.022155756 0.04579331 -0.1397709 0.066647
000050 c0 20 f5 bd 98 76 08 3e f2 b8 ed 3d 66 14 25 3d
       -0.11969137 0.1332649 0.11607541 0.040302657
000060 95 b2 e9 bd 4b 34 01 be 4f ea 38 bd bf fa 26 bd
       -0.11411015 -0.12617604 -0.04514533 -0.040766474
000070 c8 46 b9 3c a5 e6 52 bd ad b1 a5 3d 4d d8 c9 3d
       0.022616759 -0.05148949 0.080905296 0.09855709
000080 71 c2 b3 3d 68 6f f7 3c 36 2b 0e bd 71 e2 07 be
       0.08777321 0.03020449 -0.034709178 -0.13269974
000090 19 c7 b6 3d 22 c2 c8 bd 44 87 df 3d 0b 3b cf 3d
       0.089246936 -0.09802653 0.10914472 0.101186834
0000a0 ac a6 47 3c a7 39 3a 3d 4e 9b 3c 3c 2e fc 7c 3d
       0.012185734 0.045465138 0.011511637 0.061763935
0000b0 cb 66 70 3d c5 f9 ea 3d 0e 78 88 3d 56 93 f6 bd
       0.05869178 0.11473421 0.066635236 -0.12039821
0000c0 80 3a bc bb ad 9d a1 3d 85 8b f9 bd 47 43 a7 3c
       -0.0057442784 0.078914024 -0.12184814 0.020417823
0000d0 54 4a b6 3c 61 fd 5d bd 5f bf ce 3b a5 a5 e6 3c
       0.02225224 -0.05419672 0.0063094343 0.028155157
0000e0 d5 21 de 3d 95 c8 81 bc 29 fd 03 3e 33 cd 91 bd
       0.10846297 -0.015842715 0.12889542 -0.07119217
0000f0 65 26 8d 3c df 56 00 3e 5e 96 f9 bd 35 82 0c be
       0.017230222 0.12533139 -0.121868834 -0.13721545
000100 bc 81 67 3a 04 f9 62 bd ed 86 41 bd 8e ac f7 bd
       0.00088312826 -0.05541326 -0.047247816 -0.12093459
000110 5c fd 9d bd e7 9f d0 bd 10 6f 55 3c 17 fb 13 bd
       -0.0771434 -0.10186749 0.013026968 -0.03612813
000120 9c ee b2 bd 2d 7f 54 bd 46 81 b1 bd 2b c3 00 3e
       -0.087369174 -0.051879097 -0.08667235 0.1257445
000130 06 ec e4 bb ed d0 e2 3b af 46 02 3e 51 52 20 3d
       -0.006986144 0.0069218786 0.12722276 0.039141003
000140 6d 27 dd 3d 82 24 9c bd 8b dd 3a bd 06 9e aa 3c
       0.107985355 -0.07624151 -0.045621436 0.020827305
000150 7b 4a 75 3c 9d a8 bf 3d 51 ea 2e 3c 0f ea cf 3d
       0.014971371 0.09358332 0.010675983 0.10152065
000160 71 0a 0e 3e 76 99 07 be f9 78 94 bb d4 fe 01 3e
       0.1387117 -0.13242134 -0.0045310226 0.12694865
000170 2c 7b c9 3d 6b fb 73 bd 27 87 fe 3c 20 2d 13 3c
       0.09837946 -0.059565943 0.031070305 0.008982927
000180 be 0c bd bd 67 d0 e2 bd 94 a8 b1 bc d4 4f 69 3c
       -0.09230946 -0.11074906 -0.02168683 0.014240224
000190 02 28 4b bd b6 19 8e bd 0e dd 7d bc 0e 3f 83 bd
       -0.0495987 -0.06938498 -0.015494598 -0.06408511
0001a0 15 25 bd bd 6d 15 a4 3d b3 10 de 3d a8 9f 8b bd
       -0.092355885 0.08011899 0.10843029 -0.068175614
0001b0 62 e2 ab 3d a3 5a 00 bd 3b 8c 2b bd 6e dd 84 bd
       0.083927885 -0.031336438 -0.04188178 -0.06487547
0001c0 6a 53 96 3d 25 34 01 3e e0 01 1f bd 89 f7 08 be
       0.07340129 0.12617548 -0.038820148 -0.13375677
0001d0 d5 3a 8b bd cb e5 9f bd ca 90 fa bd 03 cb 89 ba
       -0.06798331 -0.078075014 -0.122346476 -0.0010512773
0001e0 5e 68 e5 3d cd 4a d9 3d 5b de 3e bd ae f4 96 bd
       0.11201547 0.1060997 -0.046598773 -0.07370888
0001f0 ac 75 78 3c a3 14 04 be 45 be 7c bd 0f 7f 57 bb
       0.015164774 -0.12898497 -0.061704893 -0.003288213
000200 6d cb ce bc 8d 8f 83 bd e7 59 d6 3d 04 d1 dd bd
       -0.025243485 -0.064238645 0.10466366 -0.10830882
000210 0a 32 b6 3c d7 ac 49 3c 47 36 ef 3d c5 89 8c 3c
       0.022240657 0.012309275 0.116802745 0.017155537
000220 56 29 08 be e0 f6 03 3d e1 05 ee 3d 3d 16 81 bd
       -0.13297018 0.03221786 0.11622215 -0.0630307
000230 83 99 7b 3b 65 97 1d bd 5b 28 4f bd 81 52 b6 bd
       0.003839106 -0.03847446 -0.050575595 -0.08902455
000240 1a 19 5a 3d 14 2e 4a bd 8d 45 e6 3c de 34 a1 3d
       0.053246595 -0.04936035 0.028109336 0.07871412
000250 35 f9 5b 3c f0 57 6f 3b 94 82 0f be 06 15 10 3c
       0.013426115 0.003652092 -0.14014655 0.008794075
000260 82 b7 b2 3c d5 88 03 3e 17 c5 d5 bd a3 dd 9e 3c
       0.021816019 0.12845166 -0.104379825 0.019392794
000270 99 09 b9 3d 32 9f d0 3d 4a 7b 68 bd 40 c2 03 be
       0.09035034 0.10186614 -0.056758203 -0.12867069
000280 53 c4 02 3e 47 8a 33 bd 27 ce 9e 3c 02 b3 35 bd
       0.12770204 -0.043833043 0.01938541 -0.04436017
000290 17 6e ab bc 9b e0 b4 3c 0c 42 00 bd 46 d6 d6 3d
       -0.020926518 0.022079756 -0.031312987 0.10490088
0002a0 8b 6b 0a be 02 cf 77 3c 3e de 82 bd fd 25 c4 3c
       -0.13517587 0.015125038 -0.063900456 0.023943895
0002b0 36 b4 03 3e d9 01 e5 bd 85 91 0f 3d 19 f5 fe bd
       0.12861714 -0.11181993 0.035050888 -0.124490924
0002c0 f7 81 18 3d 7c 6a ff 3d 0a ff 9d bd 13 f0 8a bd
       0.03723332 0.12471482 -0.077146605 -0.06784072
0002d0 0a 0a da 3d 6a d0 04 3e a1 89 07 3e 98 cb a0 3d
       0.10646446 0.12970129 0.13236095 0.078513324
0002e0 cd f7 f5 3d ab a3 fc 3c 21 b0 0a be 7c f4 04 be
       0.12010155 0.030839762 -0.1354375 -0.12983888
0002f0 91 24 d6 bd 1b 49 22 bd e7 51 e3 bc 17 7d f7 3c
       -0.10456193 -0.0396205 -0.027749015 0.030211015
000300 be 68 0c be 6f 96 0a be 55 7c 90 bd 61 14 0d 3e
       -0.13711831 -0.13533948 -0.070549645 0.13777305
000310 c1 d1 62 bd 64 7c 34 3d dd 85 66 bc d1 25 47 3d
       -0.05537582 0.04406394 -0.014070001 0.04862005
000320 d0 20 d6 bd a0 ed 1f 3c 84 8a ab bc 8f 24 e2 bd
       -0.10455477 0.009761244 -0.020940073 -0.11042129
000330 f9 51 cd bc 2b d5 aa bd 38 8b a4 bd 22 da 24 3d
       -0.025063502 -0.0834144 -0.08034366 0.04024709
000340 dd 1b 00 3d 3f ab b3 3c 09 c6 22 bd d8 52 b2 bd
       0.031276572 0.021932242 -0.039739642 -0.087072074
000350 82 59 26 bd 3a 9c 0d be e1 b5 a0 bd 7c e7 a9 3d
       -0.040612705 -0.13829127 -0.07847191 0.08296105
000360 74 36 b1 bc c7 60 62 3d fb 2c 50 3d 34 9d 86 bc
       -0.02163241 0.055268075 0.050824147 -0.016432382
000370 41 7a b2 3d 32 df fe bd 4b 74 19 3d e5 27 7d bd
       0.08714724 -0.12444915 0.03746442 -0.061805625
000380 d1 be cb bc e3 b6 96 3d 2f 10 a2 3d a4 95 2e bd
       -0.024871262 0.073591016 0.07913243 -0.042623177
000390 61 de 95 bc 46 a7 99 bd 6e a7 7e 3d c1 1f 89 bd
       -0.018294515 -0.07502608 0.062171392 -0.0669551
0003a0 08 c9 d7 3d 9b 3f 79 3d 11 51 69 3d cf b7 01 3e
       0.105363905 0.060851675 0.056962077 0.12667774
0003b0 93 d2 8f 3d fa 98 ca bc 44 01 95 bd ea a8 94 bd
       0.07022586 -0.024731148 -0.07275632 -0.0725878
0003c0 48 07 01 3e dd 89 29 bd ef 60 05 3e ce a1 95 3d
       0.12600434 -0.041391242 0.13025258 0.073062524
0003d0 68 5e ee 3d c9 4d 28 bd 18 a8 65 bd 66 ef 26 3d
       0.116391 -0.041089807 -0.05606851 0.040755652
0003e0 b2 2b 74 3d a0 d0 60 bd 45 6e c6 bb f5 47 81 bd
       0.059611984 -0.05488646 -0.0060556256 -0.06312553
0003f0 dd ff 9a 3b 14 5b f7 bd 84 d4 0d 3e 80 14 8a bd
       0.0047302083 -0.12077919 0.138506 -0.06742191

lstm.bias_ih_l1 f4 [200]
000000 66 27 1d 3f c6 c0 2a 3f e7 5a 05 3f 5a 95 10 3f
       0.6138824 0.667004 0.5209183 0.5647789
000010 cd 1f 23 3f 58 60 0e 3f 21 3a 3d 3f 5e e1 2c 3f
       0.637204 0.5561576 0.7391682 0.67531383
000020 34 91 2d 3f d9 56 18 3f db d3 2c 3f 78 70 10 3f
       0.6779969 0.5950752 0.67510766 0.56421614
000030 e8 4b 28 3f d8 41 0e 3f a8 af d2 3e bb 81 16 3f
       0.65740824 0.5556922 0.4114964 0.58791703
000040 57 50 33 3f f3 37 14 3f f9 68 2a 3f fa db 3d 3f
       0.70044464 0.5789787 0.66566426 0.7416378
000050 18 07 3e 3f c9 97 57 3f c6 c4 40 3f 42 73 22 3f
       0.74229574 0.8421598 0.7530025 0.6345712
000060 cb c8 36 3f 62 01 14 3f 77 55 4f 3f 5e dc 37 3f
       0.71400136 0.5781461 0.80989784 0.7182063
000070 28 60 18 3f 63 c4 06 3f 22 40 22 3f 52 1d 3c 3f
       0.5952172 0.5264341 0.6337911 0.7348224
000080 47 ac 14 3f 2a ca e9 3e 4a 81 2a 3f bd 76 0f 3f
       0.58075374 0.4566205 0.6660353 0.56040555
000090 be ef 56 3f 6c 7a 09 3f 8e e8 14 3f c3 d0 24 3f
       0.8395957 0.53702426 0.5816735 0.64381045
0000a0 a5 d8 2c 3f 8d 05 09 3f 54 0e 20 3f 42 96 1c 3f
       0.67518073 0.53524095 0.62521863 0.61166775
0000b0 43 1b 21 3f 8f 10 26 3f f4 1b 27 3f fc f2 27 3f
       0.62932223 0.64869016 0.6527703 0.6560514
0000c0 85 ec 39 3f c9 39 07 3f 48 20 05 be 9c 74 82 3d
       0.72626525 0.5282255 -0.13000596 0.06369898
0000d0 9d c6 9b 3d 5a fd aa bd 5e 84 db 3d 69 73 89 3d
       0.07606242 -0.08349104 0.107186064 0.06711466
0000e0 77 ac 09 bb ee 3a 4c bd 7a 8e a7 3c 5b 83 55 3c
       -0.0021007338 -0.049860887 0.02045368 0.013031806
0000f0 7c a9 57 bd 06 ba 40 3c a9 07 af 3b de 99 b9 bc
       -0.052651867 0.011763101 0.0053414893 -0.022656377
000100 c7 e6 dd 3d 5a a0 05 3e e7 29 64 bd 44 4d 03 3e
       0.10835033 0.1304945 -0.055704024 0.12822443
000110 32 98 8f bd 77 7f 06 be 66 a3 87 bd ff a3 ab bd
       -0.07011451 -0.13134561 -0.06622963 -0.08380889
000120 36 72 d4 bd 36 8d 42 bb 74 a6 16 bc d1 9e d8 3c
       -0.103733465 -0.002968622 -0.009194959 0.026442917
000130 7c a1 79 3a ba 60 ea bd d9 dd b6 3d 2a f5 a3 bd
       0.0009522659 -0.114442304 0.08929033 -0.08005746
000140 a3 07 e1 bc bb df 63 bd 48 02 2c 3d 35 fb 05 bd
       -0.027469462 -0.055633288 0.041994363 -0.032710273
000150 a4 f8 ea bd 1b 7e 22 3d b4 09 a7 3d 11 80 d9 bd
       -0.11473206 0.039671045 0.081561476 -0.1062013
000160 44 77 0a bd cc 79 a7 bd ab 26 59 3d aa b2 bb 3d
       -0.033805147 -0.08177528 0.053015392 0.09164937
000170 8a c8 28 3d 11 7e bc bc ef 98 bf bd e0 91 ee 3c
       0.041206874 -0.023009332 -0.09355342 0.029122293
000180 af e0 80 3c 4e 9e 4d bd fa 21 0e 3e 61 5a 6b 3d
       0.015732137 -0.0501998 0.13880149 0.05745924
000190 92 f9 25 3e b4 b8 a9 bd 0c ea 39 be 15 02 0f be
       0.16208485 -0.082871825 -0.18155688 -0.13965638
0001a0 06 2b a1 39 02 fc 89 bd c4 1f 15 3e de 07 04 be
       0.00030740368 -0.0673752 0.14562899 -0.12893626
0001b0 79 2c 41 bd 41 f1 f5 bd 2a 0c 55 bd 65 eb 22 bd
       -0.047161553 -0.12008906 -0.052013554 -0.03977527
0001c0 1f 22 08 be dd 4e db bd 89 3c 18 3e cc c3 26 3d
       -0.13294266 -0.10708401 0.14866842 0.04071407
0001d0 9a 6e 1c bd 9f 88 1e 3d 3e 3f 8a bd 5e 08 cf bb
       -0.038191415 0.03870451 -0.06750344 -0.006318136
0001e0 b3 d3 31 3d e1 f0 a2 3c 09 3a 22 3d 02 10 fc 3c
       0.043414783 0.01989025 0.039606128 0.030769352
0001f0 7a ee 48 bd 42 0f f8 ba 60 90 0e be 6e 73 8f bd
       -0.049055554 -0.0018925446 -0.13922262 -0.07004438
000200 46 af 3c 3c d6 d7 33 3c 0a 50 59 bd f5 75 2b 3e
       0.011516398 0.010976752 -0.053054847 0.16744216
000210 fa a5 41 3d 44 a5 2c 3b b2 a2 9d 3b 65 b0 19 3e
       0.04727743 0.0026343623 0.0048106546 0.15008695
000220 dd 8b b0 3d 6b 53 b4 bd 78 6f 35 bd d1 cb 10 be
       0.08620427 -0.08804973 -0.044295758 -0.1414025
000230 11 a8 c0 bd cc 3f 73 bd 31 ed 89 bb d9 0d 6f bd
       -0.09407056 -0.059387013 -0.0042091836 -0.058362816
000240 c3 35 88 3d 5f 8a f2 3c d2 e1 78 3d 83 3c 9c bb
       0.06650879 0.029606996 0.060762234 -0.0047679557
000250 e8 a3 81 3c 56 ec d1 bd bd df 17 3f 76 0b 3b 3f
       0.015825227 -0.10250156 0.5932577 0.73064363
000260 2d 2e 2b 3f 4e d0 17 3f bd 8a 2a 3f 71 12 f8 3e
       0.66867334 0.5930222 0.6661795 0.4845157
000270 3e 1e 48 3f 6e a1 47 3f 27 8c 0c 3f 8b eb 2b 3f
       0.78171146 0.779807 0.54901356 0.67156285
000280 69 a0 18 3f e1 b7 1a 3f 7c b1 39 3f 0f 76 07 3f
       0.59619766 0.60436827 0.72536445 0.5291452
000290 0c 53 0e 3f bf 03 16 3f c5 2f 5f 3f 12 4d 32 3f
       0.5559547 0.58599466 0.87182266 0.6964885
0002a0 c7 ec 45 3f eb 1c 3b 3f b9 43 43 3f 51 4a 4c 3f
       0.7731442 0.73091 0.7627521 0.798009
0002b0 17 6a 2f 3f 8d f2 06 3f a3 b8 0a 3f 29 e0 03 3f
       0.68521255 0.52713853 0.54187983 0.51513916
0002c0 7c 25 3f 3f c3 cc 27 3f 53 10 32 3f e1 c1 28 3f
       0.7466657 0.65546817 0.6955616 0.65920836
0002d0 3a 6e 2b 3f 00 67 34 3f 68 55 0f 3f 9f 93 fa 3e
       0.6696507 0.70469666 0.55989695 0.4894075
0002e0 d6 74 1a 3f e2 c5 4d 3f c8 a8 5d 3f 0f 06 e4 3e
       0.6033453 0.8038007 0.86585665 0.44535872
0002f0 29 3e 1c 3f 08 8a e5 3e 08 45 0d 3f e7 1f eb 3e
       0.6103235 0.44831872 0.5518346 0.45922777
000300 10 ba 51 3f 5e 12 3f 3f f1 f9 18 3f bd ed 37 3f
       0.81924534 0.746374 0.5975638 0.71847135
000310 81 9b 4f 3f 49 c0 fc 3e 67 b1 2d 3f f4 58 47 3f
       0.81096655 0.49365452 0.6784882 0.77870107

lstm.bias_hh_l1 f4 [200]
000000 d2 8c 25 3f 0f 5b 4c 3f d2 3d 02 3f 1d 4e cc 3e
       0.64668 0.79826444 0.5087558 0.39903346
000010 a2 1b 35 3f cf 52 24 3f 72 e2 42 3f 9a 7e 41 3f
       0.7074529 0.64188856 0.7612678 0.75583804
000020 8d 8f 0b 3f 29 c7 1a 3f f4 91 f2 3e ff e4 07 3f
       0.54515916 0.60460144 0.47376978 0.53083795
000030 8d bd 3b 3f 6c b1 43 3f 88 e2 27 3f 07 bc 23 3f
       0.73336107 0.764426 0.65580034 0.6395878
000040 0f ae 2a 3f e9 84 2b 3f c1 cc 15 3f b6 c8 0a 3f
       0.6667184 0.6699968 0.58515555 0.5421251
000050 52 21 3c 3f 7f d2 34 3f 12 15 31 3f 76 9f 08 3f
       0.7348834 0.7063369 0.69172776 0.5336832
000060 5f 3d 17 3f 52 e0 c0 3e 95 3e 49 3f 23 8d 41 3f
       0.5907802 0.37671143 0.7861112 0.7560598
000070 54 78 16 3f 83 e1 46 3f 7a 41 f3 3e 3e 66 0a 3f
       0.58777356 0.77687854 0.47510892 0.5406226
000080 db ea 12 3f 2b 23 11 3f 38 a8 fa 3e 41 ec 3a 3f
       0.5738961 0.5669429 0.48956466 0.73016745
000090 b5 59 1e 3f ff 4f 25 3f cd 69 39 3f 6f 4a fc 3e
       0.6185563 0.6457519 0.72427064 0.49275538
0000a0 27 0c 24 3f 3f 06 2e 3f 66 5e 25 3f 9c 17 2f 3f
       0.64081043 0.6797828 0.64597166 0.683954
0000b0 cd 3e 37 3f a4 aa 3f 3f f2 ad 21 3f 70 02 3e 3f
       0.715802 0.7486975 0.63156044 0.7422247
0000c0 ab 70 34 3f 6e cb 13 3f 24 5c 49 bd 76 a2 c1 bd
       0.7048442 0.57732284 -0.049160138 -0.09454815
0000d0 7a 13 bd bc 96 15 c0 3d 0a 73 10 3e b5 b0 9f bd
       -0.023080576 0.09379117 0.14106384 -0.07797376
0000e0 8f 7b b9 3d ba 30 3a 3d cb 8f 94 bd 2f 70 e3 3d
       0.0905677 0.045456626 -0.07253989 0.11105382
0000f0 a5 b2 e1 3d fe f1 0e 3e 55 fa d9 bd 3c 22 38 bd
       0.11020402 0.139595 -0.1064345 -0.044954523
000100 68 a2 40 bc 11 ad c0 3d d4 6d 7b bd 32 d5 a9 3d
       -0.011757471 0.0940801 -0.061384037 0.08292617
000110 3b d6 74 3c cb 61 8e bd 31 d2 b2 3d fb 77 00 be
       0.014943655 -0.06952246 0.08731497 -0.12545769
000120 ba 15 39 bd 9d 3a d3 3c 14 7a b4 3b 5f ea 95 3d
       -0.045186736 0.025784785 0.005507717 0.07320093
000130 58 aa 8b 3d e6 b8 0a 3e b0 9a 8e bc 81 8f d3 bd
       0.068196 0.13547096 -0.017407745 -0.103301056
000140 5f 01 0d be 9c 39 e4 bd 38 fd 9c bd d2 50 cf 3d
       -0.13770054 -0.111438006 -0.07665485 0.10122837
000150 35 e2 9d 3d 0e dc 94 3d 14 6e cf bd 53 89 f6 3d
       0.07709161 0.072685346 -0.101284176 0.12037911
000160 90 24 c9 bd cd c9 10 be d9 74 b9 39 bf a6 e2 3d
       -0.09821427 -0.14139481 0.00035373008 0.110669605
000170 b4 81 ac 3d 92 06 f3 3d 47 bb d9 3d c0 3d 2a bc
       0.084231764 0.118664876 0.106314234 -0.010390699
000180 f8 60 24 bd 31 16 d2 3c 65 2c 99 bd 7b 55 c3 bd
       -0.04013154 0.025645347 -0.07479171 -0.095377885
000190 5d eb 63 3d 62 d4 a6 3c 90 60 f6 3c 3d 92 46 bb
       0.05564438 0.020364944 0.030075341 -0.0030299567
0001a0 2e 4c f6 bd 53 95 c6 3d cf 71 17 3e a9 e0 90 3d
       -0.12026249 0.0969645 0.14789508 0.070741005
0001b0 b3 d5 e0 3d 5a ec ae bd 77 2a ec bd c1 bc af bd
       0.1097826 -0.08541174 -0.11531537 -0.08580924
0001c0 4a 32 af bd 8d 36 11 be 29 de cc bc 5c ea fa bd
       -0.08554514 -0.14180966 -0.025008278 -0.12251732
0001d0 01 f4 0f 3e b9 0f 65 3d 3b 1e 00 be 8a 0c 78 3d
       0.14057924 0.055923197 -0.12511532 0.060558833
0001e0 bf df 83 bd a6 45 d7 3d c3 1c 67 bd f0 61 b3 3c
       -0.064391606 0.10511331 -0.056423914 0.021897286
0001f0 9d bf 91 bd b8 b9 64 3c 37 78 83 3d 9a 9c b3 39
       -0.071166255 0.013960294 0.064194135 0.00034258218
000200 48 06 c0 bd 65 0c 20 3e 58 b1 3e bd 42 00 dc 3d
       -0.09376198 0.15629728 -0.046555847 0.10742237
000210 32 0f 1c be 55 51 24 bd 6f 1b ad 3d d4 09 9f bc
       -0.15240172 -0.040116627 0.08452498 -0.019413866
000220 67 04 a9 3d 37 04 f3 bd 14 2c 2a bd 69 07 09 be
       0.08252793 -0.11866038 -0.041545942 -0.13381733
000230 6c 46 ec 3b 07 f3 79 3c 93 f2 8d 3a b3 88 10 3e
       0.0072105434 0.015255696 0.0010829739 0.14114647
000240 74 db 0f bc 11 71 28 3e 2e 93 d1 3c dd d2 c0 3d
       -0.008780349 0.16449381 0.025582876 0.09415219
000250 79 ea e6 bc 3f af cb 3d 89 ad 07 3f 28 8e 4b 3f
       -0.028187977 0.09945535 0.5299917 0.7951379
000260 b9 89 3f 3f 78 55 0d 3f 41 66 39 3f 0a 6b d2 3e
       0.74819523 0.5520854 0.7242165 0.4109729
000270 e8 ee 1d 3f 4a 84 04 3f bc 98 05 3f 65 47 3b 3f
       0.61692667 0.5176436 0.5218618 0.73155814
000280 db 40 0f 3f 05 d9 ff 3e b2 e1 0a 3f 4f c7 2b 3f
       0.55958337 0.4997026 0.54250634 0.67100996
000290 d0 7f ea 3e 1f 62 0c 3f 24 3c 2c 3f fd b5 10 3f
       0.45800638 0.5483722 0.6727927 0.5652769
0002a0 99 ea 40 3f bb 4c 17 3f 97 db 35 3f 44 2d 15 3f
       0.7535797 0.59101456 0.7103819 0.58272195
0002b0 b7 86 22 3f f3 92 12 3f 18 79 2e 3f 38 7e ae 3e
       0.6348681 0.57255477 0.68153524 0.34080672
0002c0 82 cf 39 3f ef 8b 41 3f 77 e8 2d 3f 48 4f 10 3f
       0.72582257 0.75604147 0.6793284 0.56370974
0002d0 92 4d 1d 3f 51 10 0e 3f 53 d3 0a 3f 4f af e3 3e
       0.6144649 0.55493647 0.54228705 0.44469687
0002e0 de 64 e0 3e 76 66 28 3f 93 32 59 3f 75 d0 21 3f
       0.43826956 0.65781343 0.84842795 0.63208705
0002f0 21 ed 23 3f 3c 2e 1d 3f 7e 2c 16 3f 02 9d 16 3f
       0.64033705 0.61398673 0.5866164 0.58833325
000300 0a 86 1b 3f e2 23 21 3f b4 a7 3c 3f 6f e8 23 3f
       0.607514 0.6294538 0.73693395 0.6402654
000310 f3 09 3c 3f f6 a9 42 3f 0f 45 04 3f 8b 9a 0f 3f
       0.7345268 0.7604059 0.51667875 0.5609519
