back-end/modelo_lstm.pth (torch, 129733 bytes, 9 tensors)

lstm.weight_ih_l0 f4 [200, 3]
-0.030712131 -0.23080659 -0.006221911 -0.08501015 -0.17213945 0.11750022 -0.4799623 0.19703594
0.21637022 0.12096008 -0.29923332 -0.00016812714 0.042474303 0.29205248 0.02221291 0.1529524
-0.033949975 -0.0709899 0.0044239564 0.31406286 0.043481063 -0.08293368 0.097392894 -0.16678342
0.34752485 0.34448612 0.2489821 0.1512531 -0.18289009 -0.46249652 0.20472115 -0.3947087
-0.12104576 0.31777018 0.32070172 0.2684864 0.2878501 0.2768611 0.060157653 0.09555817
-0.21531303 0.6108801 0.098633334 -0.1230525 0.1476128 0.18684614 0.30800864 0.20009176
0.28580183 -0.32278517 0.019027246 0.2528344 0.17802438 0.14611277 0.037669558 0.0066718627
-0.029750038 -0.2838252 -0.31966308 0.08280749 0.13130303 0.14440425 0.07574869 0.3314799
0.36098838 0.19404262 -0.30810514 0.0010986279 0.39474156 0.090010785 0.21023469 0.28829244
0.24323818 0.089749515 0.5975681 0.0692238 0.23952895 0.13368614 0.39015853 0.39923638
0.28970885 -0.4411421 -0.29525298 0.22985941 0.30203187 0.30287802 0.25734892 0.35355228
0.27858794 0.25443256 -0.033178903 0.30343238 0.06284928 0.028252104 -0.36945814 -0.17475842
0.16467798 0.27346247 0.14115493 0.1012664 0.14137083 0.5424045 -0.09770456 0.094794184
-0.08055679 0.3213085 -0.15207535 0.028389515 0.08164345 0.22567114 0.21425813 0.10626325
0.25896344 0.01891581 0.059959847 0.28205624 0.026555702 0.4299627 0.40076113 0.3082342
0.1382975 -0.15996376 0.62967557 0.40111476 0.30303833 0.26460066 0.03915583 0.27142686
0.24279821 0.10323183 0.20953025 0.22943103 0.13677998 0.12641795 0.53307045 0.21941659
0.16641966 0.26725692 0.063934684 0.18380304 0.043678083 0.4934389 -0.23187989 0.03180995
0.30184153 -0.30909806 0.03624729 0.16328037 0.21775915 0.033972416 -0.13742694 -0.02804072
0.064770944 -0.09490375 0.11191189 -0.07920905 0.045838308 0.041966006 -0.12687372 -0.06333702
0.094784304 0.110717885 0.14007643 -0.057729047 0.11312995 0.026452847 -0.057823997 -0.08551903
0.07472599 0.103216305 0.134681 -0.13159196 0.00754373 0.12772456 0.0740125 0.019107612
0.022381984 -0.042251714 -0.072680406 -0.106196135 -0.09549569 -0.13545468 0.025075234 0.06299123
-0.026699658 -0.066621944 0.01504769 -0.11384146 0.13795657 -0.10282806 0.07043587 -0.059995484
0.12709324 0.027047032 -0.044444207 0.11775951 -0.033989277 -0.036820315 0.14093924 -0.05159651
0.01890406 -0.097889446 -0.02595172 0.09308751 0.085980535 -0.026693454 0.073994055 -0.064958364
-0.11669846 -0.08888506 0.056433488 0.09887371 0.054594655 0.012448056 0.08678917 0.059809703
0.080218896 -0.03931834 -0.05379189 0.0276718 0.037140463 0.09495143 0.031580888 -0.010000234
-0.12257586 -0.094274566 0.1305389 -0.08417151 0.112634525 0.11167768 0.08865652 0.08147446
0.07853363 -0.04472025 0.061198745 0.051854957 -0.02045159 0.12841439 -0.0050608926 0.10099237
0.032605257 -0.032416034 -0.018088518 -0.0007083874 0.065988734 -0.01178104 0.005512471 -0.011069415
0.0547346 0.028602893 0.104639955 -0.05537051 0.05729047 0.015538212 -0.017112868 0.051868375
00000000: 0298 fbbc 9058 6cbe 2ce1 cbbb cd19 aebd
00000010: 5345 30be f5a3 f03d 9ebd f5be cac3 493e
00000020: 2890 5d3e ebb9 f73d 1c35 99be 494b 30b9
00000030: 89f9 2d3d e787 953e d9f7 b53c 8e9f 1c3e
00000040: 210f 0bbd 2763 91bd d6f6 903b d9cc a03e
00000050: 3319 323d 22d9 a9bd ed75 c73d 46c9 2abe
00000060: c7ee b13e 7c60 b03e 2af5 7e3e 18e2 1a3e
00000070: 8a47 3bbe 58cc ecbe 6ca2 513e 4217 cabe
00000080: d7e6 f7bd c6b2 a23e 0433 a43e 0d77 893e
00000090: 1761 933e bdc0 8d3e df67 763d 00b4 c33d
000000a0: 057b 5cbe a362 1c3f 4600 ca3d f302 fcbd
000000b0: cf27 173e 9854 3f3e 4fb3 9d3e dbe4 4c3e
000000c0: 9e54 923e 1944 a5be 07df 9b3c 8373 813e
000000d0: 064c 363e 969e 153e 654b 1a3d a49f da3b
000000e0: 5ab6 f3bc 8951 91be e1aa a3be f996 a93d
000000f0: 4d74 063e b5de 133e 2122 9b3d bcb7 a93e
00000100: 78d3 b83e 1cb3 463e f5bf 9dbe d6ff 8f3a
00000110: 911b ca3e 9357 b83d c347 573e 119b 933e
00000120: 6e13 793e 98ce b73d 39fa 183f 35c5 8d3d
00000130: 1447 753e 05e5 083e dcc2 c73e b668 cc3e
00000140: b854 943e 61dd e1be 662b 97be 4460 6b3e
00000150: eca3 9a3e d412 9b3e 3dc3 833e ce04 b53e
00000160: 14a3 8e3e fc44 823e 9ae6 07bd 7d5b 9b3e
00000170: 20b7 803d f570 e73c 9e29 bdbe dff3 32be
00000180: 58a1 283e 4603 8c3e eb8a 103e c264 cf3d
00000190: 84c3 103e 05db 0a3f 5419 c8bd 7423 c23d
000001a0: f5fa a4bd 8c82 a43e a4b9 1bbe 2191 e83c
000001b0: ae34 a73d 5616 673e 7c66 5b3e 8ca0 d93d
000001c0: db96 843e 54f5 9a3c 7598 753d ad69 903e
000001d0: 588b d93c 1224 dc3e 9030 cd3e e0d0 9d3e
000001e0: dc9d 0d3e 8acd 23be 6b32 213f ea5e cd3e
000001f0: d727 9b3e bd79 873e dd61 203d 76f8 8a3e
00000200: 18a0 783e 366b d33d 198f 563e f8ef 6a3e
00000210: 0d10 0c3e b573 013e 4e77 083f beae 603e
00000220: ea69 2a3e e6d5 883e 30f0 823d dd36 3c3e
00000230: cae7 323d 06a4 fc3e ec71 6dbe 264b 023d
00000240: f98a 9a3e 1a42 9ebe 0a78 143d f832 273e
00000250: 41fc 5e3e a926 0b3d a6b9 0cbe a7b5 e5bc
00000260: a1a6 843d e65c c2bd 1032 e53d 5b38 a2bd
00000270: f3c0 3b3d 8ce4 2b3d 2feb 01be d7b6 81bd
00000280: 461e c23d 0fc0 e23d 3270 0f3e 4b75 6cbd
00000290: adb0 e73d a4b3 d83c dbd8 6cbd 9a24 afbd
000002a0: f109 993d 1263 d33d d1e9 093e 0bc0 06be
000002b0: 6531 f73b 3aca 023e de93 973d 9187 9c3c
000002c0: 6c5a b73c 2210 2dbd 77d9 94bd 5c7d d9bd
000002d0: 3f93 c3bd a2b4 0abe 946a cd3c 8c01 813d
000002e0: 3eb9 dabc 1671 88bd 968a 763c b625 e9bd
000002f0: 7d44 0d3e 8597 d2bd ae40 903d d3bd 75bd
00000300: bb24 023e bd91 dd3c 210b 36bd e62b f13d
00000310: 5738 0bbd e6d0 16bd 6052 103e dd56 53bd
00000320: b0dc 9a3c 437a c8bd b498 d4bc aaa4 be3d
00000330: 9016 b03d 3bac dabc 328a 973d e408 85bd
00000340: 9aff eebd 5f09 b6bd cd26 673d 4d7e ca3d
00000350: a59e 5f3d eef2 4b3c 85be b13d 05fb 743d
00000360: ce49 a43d 450c 21bd e354 5cbd f9af e23c
00000370: 9920 183d e575 c23d f65a 013d 05d8 23bc
00000380: 0d09 fbbd 0613 c1bd fdab 053e 1d62 acbd
00000390: eeac e63d 44b7 e43d 8d91 b53d 15dc a63d
000003a0: 3dd6 a03d 952c 37bd 89ab 7a3d dd65 543d
000003b0: 188a a7bc 107f 033e d8d5 a5bb 16d5 ce3d
000003c0: 178d 053d adc6 04bd 5f2e 94bc 13b3 39ba
000003d0: 1a25 873d 4305 41bc f5a1 b43b 7e5c 35bc
000003e0: 6331 603d 9d50 ea3c 794d d63d 30cc 62bd
000003f0: 69a9 6a3d fc93 7e3c 4930 8cbc ef73 543d

lstm.weight_hh_l0 f4 [200, 50]
0.11666786 -0.071100086 0.1380069 0.047832023 -0.0013774602 -0.029329706 -0.11041018 -0.12186108
-0.05695673 0.0052216407 0.020663083 0.13784222 0.074347384 -0.033855233 -0.10790243 0.059588112
-0.0028069802 -0.099557534 0.08681949 0.023674712 -0.110794395 -0.095997326 0.05436362 0.05632269
-0.08472456 0.10836311 -0.08244794 -0.057393678 0.021650568 -0.033278614 -0.06612761 -0.13603745
-0.097592026 0.015836611 -0.11546275 0.02977663 0.04628294 -0.0990613 -0.026321096 0.1243481
0.0533405 -0.017537743 -0.05217387 -0.05962279 -0.017067654 -0.09412561 0.120363414 -0.019482955
-0.035642713 0.09742212 0.13857591 0.062036186 0.12350523 -0.038909417 0.112005815 0.06821688
-0.118554756 0.008530303 0.0022698438 -0.11039295 0.073898144 -0.055930085 -0.023212377 0.03316387
0.046497874 -0.07938017 0.061742675 0.12407797 -0.016327353 0.10943339 0.026203169 -0.06811041
0.1342563 0.029121181 -0.08710651 -0.058129493 0.108841136 0.011185218 -0.030263832 -0.13463266
0.06472494 -0.07501253 -0.056027614 0.08275139 0.1236929 -0.09070117 0.091162875 -0.09213556
-0.045934908 0.07044413 -0.028364966 0.1310215 -0.13096821 0.060649723 -0.084333114 0.095301904
-0.08228183 0.047429066 0.1028455 -0.13278696 -0.1353395 0.023840146 0.046610303 -0.061085436
0.08698746 0.06988589 0.03276046 0.08333373 0.005978362 0.020818993 0.10582956 -0.0820251
-0.13077362 0.050180934 0.13500978 -0.002801029 0.020100355 -0.08810151 -0.02431177 0.1026935
0.11842169 -0.019685108 -0.09442351 -0.06731532 0.031935375 0.10827922 -0.022188175 0.09945829
-0.025817558 0.06325104 0.029136607 -0.1394683 0.068178095 0.011309298 -0.11810069 0.016726162
-0.13636 0.056266047 0.103848845 -0.027233575 -0.080292515 0.059990462 -0.0130477715 -0.051475618
0.07192449 -0.09386807 0.025037471 -0.04368565 -0.028302655 -0.07058314 0.056347407 0.072809845
-0.08948589 -0.024454564 -0.112533525 0.08810135 -0.0080265645 0.14061779 -0.08570915 -0.10832383
-0.105999395 0.05756132 0.07809125 0.023386732 0.07468041 0.06557367 0.034448408 0.1022591
-0.08993125 -0.12193116 0.07247957 -0.020438205 0.02074613 0.07190443 -0.12528954 -0.10253135
-0.0107959835 0.13604897 0.010145809 -0.13396153 -0.04933491 0.06642684 0.13358562 0.06986734
-0.08393164 0.12514073 0.11966821 -0.030253027 -0.073412105 0.03767013 0.075217865 0.12830739
0.13758193 0.038539503 0.09580849 0.02208269 -0.0095282905 -0.08330473 0.10116188 0.04394158
-0.051832315 -0.040475205 0.07731883 0.0029515945 0.020629635 -0.057830233 -0.12866457 -0.017202051
-0.13728541 -0.12632333 0.029384414 0.024167797 0.10642046 -0.07861364 0.1347321 -0.099482924
0.12628199 0.03552096 0.04212374 0.079946555 -0.013613871 -0.049789794 0.10375066 0.13354538
0.05404258 -0.08006033 0.021067187 0.10052582 -0.07301097 0.07636723 0.08250403 0.014342017
-0.12442329 -0.02275623 -0.043667678 -0.041020367 0.13235605 -0.05150293 -0.113934785 -0.05862158
-0.103695855 0.008658733 -0.1255591 -0.025743937 0.06624111 0.096773215 -0.068013236 0.048881866
-0.11061859 0.042638857 0.054928657 -0.02554175 0.08667115 -0.09726047 -0.026898256 -0.060476042
00000000: 8fef ee3d ec9c 91bd ae51 0d3e 83eb 433d
00000010: e58b b4ba da44 f0bc bc1e e2bd 4d92 f9bd
00000020: 764b 69bd 4c1a ab3b a045 a93c 8326 0d3e
00000030: 7143 983d c9ab 0abd f3fb dcbd aa12 743d
00000040: 50f5 37bb d2e4 cbbd 6bce b13d 78f1 c13c
00000050: 2ce8 e2bd 3f9a c4bd 63ac 5e3d 9fb2 663d
00000060: 1284 adbd 7aed dd3d 77da a8bd a215 6bbd
00000070: 885c b13c 284f 08bd ea6d 87bd 674d 0bbe
00000080: 54de c7bd c8bb 813c bc77 ecbd 1fee f33c
00000090: 2e93 3d3d a7e0 cabd 579f d7bc 37aa fe3d
000000a0: 917b 5a3d 50ab 8fbc 45b4 55bd 0737 74bd
000000b0: 77d1 8bbc eec4 c0bd 1881 f63d b89a 9fbc
000000c0: 18fe 11bd 4085 c73d d8e6 0d3e a819 7e3d
000000d0: 4ff0 fc3d 7b5f 1fbd 4e63 e53d 4bb5 8b3d
000000e0: d6cc f2bd afc2 0b3c a9c1 143b b315 e2bd
000000f0: e957 973d f216 65bd e227 bebc d7d6 073d
00000100: 8e74 3e3d 1292 a2bd e3e5 7c3d 971c fe3d
00000110: f1c0 85bc 9d1e e03d 07a8 d63c 787d 8bbd
00000120: 7c7a 093e 8b8f ee3c e664 b2bd 3119 6ebd
00000130: 1ae8 de3d 3442 373c dbeb f7bc 25dd 09be
00000140: 828e 843d 2ba0 99bd 367d 65bd 9079 a93d
00000150: b452 fd3d 89c1 b9bd 9ab3 ba3d 92b1 bcbd
00000160: 3e26 3cbd 0345 903d a55d e8bc 802a 063e
00000170: 881c 06be d86b 783d d7b6 acbd a52d c33d
00000180: 6083 a8bd fb44 423d a9a0 d23d 4ef9 07be
00000190: 7096 0abe 694c c33c 72ea 3e3d b934 7abd
000001a0: 7b26 b23d 5520 8f3d d52f 063d e0aa aa3d
000001b0: 23e6 c33b 988c aa3c 2bbd d83d c7fc a7bd
000001c0: 85e9 05be 868a 4d3d 0140 0a3e 7891 37bb
000001d0: 80a9 a43c 916e b4bd 7a29 c7bc f850 d23d
000001e0: 1287 f23d aa42 a1bc 1d61 c1bd 9ddc 89bd
000001f0: abce 023d 7fc1 dd3d fac3 b5bc cab0 cb3d
00000200: 587f d3bc c389 813d e5af ee3c c7d0 0ebe
00000210: f5a0 8b3d a24a 393c c6de f1bd 4e05 893c
00000220: f5a1 0bbe 3a77 663d b4ae d43d f218 dfbc
00000230: 6770 a4bd 8fb8 753d 52c6 55bc 19d8 52bd
00000240: 264d 933d e73d c0bd 621b cd3c b9ef 32bd
00000250: f8da e7bc e58d 90bd 8acc 663d 541d 953d
00000260: 6144 b7bd f054 c8bc fa77 e6bd 7b6e b43d
00000270: da81 03bc 1cfe 0f3e 4788 afbd e2d8 ddbd
00000280: 3616 d9bd 6bc5 6b3d 4eee 9f3d 8895 bf3c
00000290: 0bf2 983d 7d4b 863d c619 0d3d 386d d13d
000002a0: e02d b8bd 0bb7 f9bd 2b70 943d 066e a7bc
000002b0: caf3 a93c a142 933d e74b 00be f5fb d1bd
000002c0: a3e1 30bc 6c50 0b3e 9b3a 263c 362d 09be
000002d0: 6713 4abd cc0a 883d abca 083e 9c16 8f3d
000002e0: 5ae4 abbd e424 003e 9b14 f53d 32d5 f7bc
000002f0: 1659 96bd ff4b 1a3d d30b 9a3d 0363 033e
00000300: 47e2 0c3e 99db 1d3d 3e37 c43d c2e6 b43c
00000310: 8c1c 1cbc ac9b aabd f62d cf3d 16fc 333d
00000320: 1f4e 54bd 54c9 25bd 5659 9e3d 8a6f 413b
00000330: 7bff a83c 65df 6cbd a5c0 03be 51eb 8cbc
00000340: 8c94 0cbe e75a 01be 95b7 f03c 8bfb c53c
00000350: f8f2 d93d 3000 a1bd 36f7 093e b4bd cbbd
00000360: 1150 013e 6d7e 113d f189 2c3d 05bb a33d
00000370: b70c 5fbc 62f0 4bbd 3a7b d43d 1fc0 083e
00000380: c15b 5d3d acf6 a3bd 1895 ac3c 7be0 cd3d
00000390: c786 95bd 6c66 9c3d dff7 a83d c7fa 6a3c
000003a0: a3d1 febd 466b babc e1dc 32bd f904 28bd
000003b0: 5888 073e bcf4 52bd a456 e9bd 2f1d 70bd
000003c0: 7e5e d4bd 5cdd 0d3c 9192 00be f3e4 d2bc
000003d0: 6ba9 873d 0931 c63d 864a 8bbd 5a38 483d
000003e0: 008c e2bd 15a6 2e3d dffc 603d ef3c d1bc
000003f0: a580 b13d 7f30 c7bd bb59 dcbc bab5 77bd

lstm.bias_ih_l0 f4 [200]
0.28823283 -0.012823023 -0.47416043 0.38249013 0.22343329 -0.23280293 0.050963152 -0.23119886
0.2305325 0.0136407325 0.21194513 0.25387558 0.1209185 0.285429 0.2662722 0.22044635
0.33986217 0.36288065 -0.3915127 0.28768182 0.16145225 0.25547802 -0.11922917 0.035752464
0.446665 0.31268176 0.20337856 -0.11482477 0.1386234 0.37293178 -0.027222957 0.2771193
0.25312588 0.1288411 -0.25636137 -0.07849205 0.1570536 0.08633883 0.2926351 0.20455573
0.12424265 0.37409618 0.29077885 0.22674558 0.41292542 0.104032226 0.1573703 0.34694505
0.3399133 0.19026265 -0.11034752 0.06694336 -0.10535082 -0.13717926 0.02322293 0.053375397
0.10756237 0.05668741 0.052933037 -0.11268522 0.024060896 0.12274931 0.12915127 -0.089078836
-0.05190545 0.005052126 -0.11278664 0.12991154 -0.04691772 0.027564326 -0.05787307 0.008737228
-0.12959494 -0.09471763 -0.12612912 -0.08510788 0.084942035 0.08120921 -0.109673604 0.02425155
-0.12125826 -0.017301485 -0.13153255 0.07000088 0.024027161 0.11908325 0.077837884 -0.12743014
-0.038501047 0.11118351 0.112473235 0.09515801 0.12492362 0.0012305531 0.04334839 0.07664565
0.026364338 0.023360988 0.117760964 -0.017558934 -0.2519678 -0.35272208 -0.4254472 -0.17296286
0.22984637 -0.15215161 -0.045435928 -0.15280767 -0.36716604 0.18387473 0.36820877 0.12589915
0.13724408 0.310131 0.28687993 0.12351077 0.29783648 -0.24512143 -0.27388966 0.3008821
0.14397654 -0.35416833 -0.2915454 0.081601955 -0.1784945 0.07741134 0.18734616 0.20452406
-0.10258113 0.32299054 -0.19021119 -0.33163115 0.24431324 -0.10125743 0.28810093 0.45920315
-0.23734626 0.24899419 -0.25634986 0.116862275 -0.16646956 -0.3043849 -0.042822238 0.20195384
-0.22758883 0.15327136 0.10906021 0.38031024 0.351657 0.16958186 0.13762648 0.33814675
-0.1316095 0.15335925 0.1762749 0.13015002 0.2635757 -0.46842158 0.34904158 0.07199838
0.37721327 0.23178771 0.22054966 -0.09293506 0.04926006 0.22337483 0.14024772 0.049925555
-0.37200046 0.2007123 -0.029065253 0.04731216 -0.25983775 0.33865818 0.09882395 0.067106314
0.5373953 0.16313757 0.21997419 0.29643875 0.5649129 0.44403276 -0.35755783 0.1237807
-0.22560982 0.21118353 0.32942712 0.3733978 0.13283195 -0.039001845 0.11711338 -0.13240093
0.01630159 0.0930022 0.22011033 0.1563968 -0.2001884 0.3685027 0.038262703 0.39328846
00000000: 4193 933e a817 52bc 28c5 f2be bfd5 c33e
00000010: b2cb 643e e463 6ebe bdbe 503d 65bf 6cbe
00000020: b610 6c3e 617d 5f3c 2508 593e fbfb 813e
00000030: 1ea4 f73d c023 923e d454 883e b0bc 613e
00000040: 6a02 ae3e 7ecb b93e 5a74 c8be 084b 933e
00000050: bd53 253e 04ce 823e 6c2e f4bd 2d71 123d
00000060: 46b1 e43e d317 a03e 7842 503e 4029 ebbd
00000070: 4bf3 0d3e eaf0 be3e ae02 dfbc 95e2 8d3e
00000080: b799 813e ecee 033e cc41 83be 71c0 a0bd
00000090: a9d2 203e 6ad2 b03d 45d4 953e 0f77 513e
000000a0: ee72 fe3d 8989 bf3e f7e0 943e fe2f 683e
000000b0: f66a d33e d90e d53d ae25 213e c8a2 b13e
000000c0: 1e09 ae3e 36d4 423e e1fd e1bd 9a19 893d
000000d0: 2cc2 d7bd b878 0cbe 043e be3c 29a0 5a3d
000000e0: a949 dc3d 0f31 683d 50d0 583d 82c7 e6bd
000000f0: 5b1b c53c fe63 fb3d 3b40 043e f76e b6bd
00000100: cf9a 54bd 4e8c a53b affc e6bd 8807 053e
00000110: cc2c 40bd 95ce e13c 500c 6dbd 9726 0f3c
00000120: 89b4 04be 51fb c1bd fe27 01be 0a4d aebd
00000130: 17f6 ad3d 0451 a63d 8e9c e0bd 30ab c63c
00000140: 4056 f8bd d8bb 8dbc 78b0 06be 9f5c 8f3d
00000150: 9cd4 c43c ebe1 f33d 7869 9f3d 0c7d 02be
00000160: 46b3 1dbd 2eb4 e33d 5e58 e63d 34e2 c23d
00000170: f4d7 ff3d 834a a13a 158e 313d 65f8 9c3d
00000180: 06fa d73c 8b5f bf3c a92c f13d c1d7 8fbc
00000190: ec01 81be fd97 b4be 37d4 d9be 2d1d 31be
000001a0: d95c 6b3e a2cd 1bbe 061b 3abd 9d79 1cbe
000001b0: 30fd bbbe a849 3c3e dc85 bc3e b5eb 003e
000001c0: b689 0c3e 7ec9 9e3e ede1 923e 37f3 fc3d
000001d0: 067e 983e 1d01 7bbe 443b 8cbe 380d 9a3e
000001e0: 966e 133e 8d55 b5be 7045 95be ed1e a73d
000001f0: 43c7 36be d689 9e3d acd7 3f3e c16e 513e
00000200: 0e16 d2bd 045f a53e b9c6 42be 8fcb a9be
00000210: 402d 7a3e 0e60 cfbd f781 933e ad1c eb3e
00000220: e60a 73be 55f8 7e3e 4a40 83be 7d55 ef3d
00000230: ff76 2abe 56d8 9bbe 5f66 2fbd fdcc 4e3e
00000240: 0c0d 69be 2bf3 1c3e f65a df3d 06b8 c23e
00000250: 630c b43e dea6 2d3e f5ed 0c3e 9221 ad3e
00000260: a4c4 06be 350a 1d3e 6881 343e 0c46 053e
00000270: 65f3 863e f4d4 efbe 94b5 b23e e373 933d
00000280: 1922 c13e c259 6d3e c5d7 613e bd54 bebd
00000290: ebc4 493d 5fbc 643e 199d 0f3e bd7e 4c3d
000002a0: d876 bebe 8687 4d3e 411a eebc 65ca 413d
000002b0: 7409 85be 9b64 ad3e 3664 ca3d 096f 893d
000002c0: bd92 093f 890d 273e ea40 613e d2c6 973e
000002d0: 229e 103f 4358 e33e d211 b7be bc80 fd3d
000002e0: 4306 67be 7f40 583e acaa a83e ff2d bf3e
000002f0: 1905 083e 66c0 1fbd 24d9 ef3d 1c94 07be
00000300: e98a 853c f077 be3d 9a64 613e 7c26 203e
00000310: 30fe 4cbe 63ac bc3e 5ab9 1c3d 1b5d c93e

lstm.bias_hh_l0 f4 [200]
0.07307917 -0.19674684 -0.69762355 0.39677355 0.08697773 0.0063045793 0.0017538448 -0.35667256
0.37287155 0.083899125 0.23735216 0.2534814 0.16259484 0.06503135 0.25303394 0.22755556
0.26399598 0.12714662 -0.2633166 0.12211815 0.008431937 0.26599002 -0.24552347 0.27125943
0.27741054 0.24801776 0.30531713 -0.0007388199 0.31706738 0.23062864 0.09692127 0.14813669
0.31586248 0.38195086 -0.21306068 0.07046404 0.2447133 0.2741437 0.13608827 0.2919749
0.19008125 0.19442807 0.22661866 0.27530956 0.38464272 0.14992082 0.18493077 0.21684313
0.45570323 0.43944696 -0.060314875 -0.026482686 -0.02098303 -0.084289856 0.12697753 -0.12780784
-0.04522652 -0.062549986 -0.0045489264 0.023988925 -0.06056698 -0.027935944 -0.14008917 -0.054785613
-0.029201057 -0.047763914 -0.10579436 -0.025138084 -0.05067626 0.10642972 0.01173456 0.051657237
-0.121410474 0.027763175 -0.055714883 0.13923101 0.057825834 -0.07023867 0.13735847 0.11246415
0.112553045 0.033394568 0.036445443 -0.061846726 0.05774818 -0.0346422 0.08958372 0.07364784
-0.013228818 -0.04174629 0.103588745 -0.08823828 0.0861161 0.09574267 -0.06619655 -0.12950712
-0.13182169 0.046983708 -0.11913207 0.0718153 -0.34068733 -0.2012605 -0.25039747 -0.2500215
0.4043753 -0.36749622 -0.14698161 -0.14845091 -0.3252805 0.30623102 0.3757447 0.3771621
0.12185684 0.3313616 0.17983302 0.30349797 0.30953398 -0.11770133 -0.30894879 0.1451057
0.20982893 -0.40297967 -0.16854711 0.3035696 -0.31557822 0.073064536 0.21575217 0.35863897
-0.23076165 0.2767134 -0.2778374 -0.25657457 0.22569951 -0.061192226 0.28125536 0.29192597
-0.22105832 0.116911285 -0.047945775 0.17718035 -0.3976234 -0.17691661 -0.10763813 0.2335946
-0.13417688 0.34844476 0.21170361 0.27633262 0.3167579 0.2717025 0.111092865 0.3337265
-0.23403737 0.010303051 0.1516275 0.16140935 0.023891175 -0.47513774 0.19807753 0.088155426
0.2645065 0.20108524 0.29749775 -0.07669767 -0.018891046 0.16690406 0.07507946 0.1947636
-0.45066294 0.17351712 -0.022867465 -0.092989795 -0.198059 0.16044603 0.13217673 0.15040895
0.6413399 0.27010417 0.28192005 0.21590127 0.34533978 0.22287787 -0.30140337 0.001506703
-0.3099196 0.01763517 0.40474346 0.2927544 0.11878454 0.1388541 0.3457147 0.034773495
0.07442251 0.09748206 0.27747774 0.2872853 -0.36947298 0.3818507 -0.028320687 0.20415835
00000000: 88aa 953d 0178 49be 7597 32bf e725 cb3e
00000010: 6121 b23d a596 ce3b 44e1 e53a c99d b6be
00000020: 05e9 be3e 4ed3 ab3d 720c 733e 50c8 813e
00000030: 437f 263e 282f 853d aa8d 813e 5304 693e
00000040: 7b2a 873e b932 023e 6fd1 86be 1519 fa3d
00000050: 1b26 0a3c d82f 883e 816a 7bbe 84e2 8a3e
00000060: c108 8e3e 5ef8 7d3e 8752 9c3e 5dad 41ba
00000070: a856 a23e ea29 6c3e a97e c63d 25b1 173e
00000080: bab8 a13e 108f c33e 942c 5abe 734f 903d
00000090: 2096 7a3e 905c 8c3e b95a 0b3e bc7d 953e
000000a0: a9a4 423e 2718 473e b90e 683e 60f5 8c3e
000000b0: e4ef c43e d884 193e 7e5e 3d3e 200c 5e3e
000000c0: ef51 e93e 31ff e03e bb0c 77bd 38f2 d8bc
000000d0: 9ae4 abbc 29a0 acbd 6606 023e 0fe0 02be
000000e0: 723f 39bd 351a 80bd 290f 95bb 6c84 c43c
000000f0: 1515 78bd ecd9 e4bc 8973 0fbe e166 60bd
00000100: 0e37 efbc 18a4 43bd b7aa d8bd 62ee cdbc
00000110: e991 4fbd d3f7 d93d 5042 403c 8a96 533d
00000120: 0ea6 f8bd 996f e33c 4a35 64bd 9392 0e3e
00000130: c8da 6c3d 4bd9 8fbd b3a7 0c3e 9b53 e63d
00000140: 3682 e63d bec8 083d d147 153d fe52 7dbd
00000150: 5b89 6c3d fbe4 0dbd ab77 b73d aed4 963d
00000160: afbd 58bc 28fe 2abd 5626 d43d 45b6 b4bd
00000170: a35d b03d bc14 c43d 0f92 87bd 849d 04be
00000180: 44fc 06be fd71 403d 84fb f3bd e613 933d
00000190: 926e aebe 3c17 4ebe 1934 80be d102 80be
000001a0: 480a cf3e 7728 bcbe 5982 16be 8403 18be
000001b0: 2a8b a6be 50ca 9c3e 9c61 c03e 641b c13e
000001c0: 1490 f93d 3aa8 a93e 2626 383e 1664 9b3e
000001d0: 3d7b 9e3e 650d f1bd 892e 9ebe 9796 143e
000001e0: 65dd 563e 5a53 cebe 9d97 2cbe 7a6d 9b3e
000001f0: 7893 a1be dca2 953d 23ee 5c3e 879f b73e
00000200: c84c 6cbe 61ad 8d3e b440 8ebe be5d 83be
00000210: c61d 673e b3a4 7abd b400 903e 5277 953e
00000220: 1d5d 62be 2f6f ef3d ca62 44bd c46e 353e
00000230: 4b95 cbbe a129 35be 6171 dcbd 6c33 6f3e
00000240: aa65 09be 5a67 b23e d5c8 583e 787b 8d3e
00000250: 172e a23e 971c 8b3e a884 e33d 33de aa3e
00000260: 7ea7 6fbe 21ce 283c 3d44 1b3e 7e48 253e
00000270: 6db7 c33c 4145 f3be d6d4 4a3e d58a b43d
00000280: 656d 873e 4ae9 4d3e a051 983e ab13 9dbd
00000290: 65c1 9abc e6e8 2a3e 43c3 993d 1c70 473e
000002a0: 4bbd e6be 79ae 313e 8d54 bbbc 6f71 bebd
000002b0: facf 4abe f74b 243e 5659 073e ce04 1a3e
000002c0: da2e 243f 184b 8a3e d357 903e 3915 5d3e
000002d0: 60d0 b03e 193a 643e 8b51 9abe 907c c53a
000002e0: c8ad 9ebe a277 903c 893a cf3e e8e3 953e
000002f0: 4f45 f33d c52f 0e3e 8401 b13e a76e 0e3d
00000300: d46a 983d ada4 c73d 9011 8e3e 0f17 933e
00000310: 902b bdbe ef81 c33e c900 e8bc e30e 513e

lstm.weight_ih_l1 f4 [200, 50]
-0.2634917 -0.92747223 0.20720036 -0.23416293 0.39947474 -0.8881845 -0.7488001 -0.68254054
-0.323163 0.5030745 0.38039628 0.31449988 0.6662064 1.0696555 0.7282633 0.5454889
0.6741329 -0.5564109 -0.5959009 0.4572782 0.41863814 -0.3164448 -0.54465944 0.8218334
-0.8807193 0.5507338 1.3337301 0.22897048 -0.68015057 0.5122029 -0.782977 -0.46956453
0.5822302 -0.59221566 0.758804 0.5278379 -0.7025173 0.76750684 -0.6450082 0.08138794
-1.1620721 -0.19413917 -0.6395482 0.58841074 -0.6457767 0.77302945 0.3346239 0.5252656
0.753596 0.4846734 -0.30306888 -0.5260209 0.10407555 -0.22959052 0.28209227 -0.8529038
-0.70565736 -0.51062995 -0.5617775 0.74160933 0.34997195 0.31838667 0.7287564 0.9431702
0.79884356 0.60511976 0.6087822 -0.64724934 -0.7914607 0.53378093 0.2985301 -0.54852504
-0.6115559 0.84140587 -1.0636101 0.6655251 1.3418857 0.24739437 -0.66725653 0.63744205
-0.7653321 -0.31470796 0.8002063 -0.6922757 0.6400283 0.29610536 -0.6142284 0.7999066
-0.7594484 0.06339823 -1.3739735 -0.3110516 -0.8243009 0.75196636 -0.90756595 0.8708228
0.25563607 0.42742023 0.5257627 0.4822765 -0.30442753 -0.90648836 -0.17633308 -0.3053456
0.18400563 -0.6746941 -0.7401826 -0.48340753 -0.42413023 0.9138493 0.3080318 0.35950842
0.70006424 0.99762076 0.78446424 0.7288142 0.71479166 -0.7337261 -0.88868076 0.28160796
0.3991588 -0.4043158 -0.7674096 0.6199232 -0.94406384 0.7708859 1.0982519 0.41418388
-0.5799883 0.61215913 -0.9452016 -0.39844403 0.70070094 -0.6701736 0.78238946 0.59693456
-0.71976763 0.722133 -0.65944034 0.016165724 -1.0796685 -0.18831368 -0.788338 0.8139134
-0.80859524 0.8275532 0.42665398 0.5943455 0.7549455 0.29682854 -0.24012868 -0.6395314
-0.25154904 -0.41672117 0.57137305 -0.7907519 -0.5006567 -0.5661326 -0.51547354 0.6386546
0.40195748 0.31395486 0.5307074 0.6602964 0.670048 0.490058 0.5564626 -0.47883987
-0.48272976 0.42757908 0.14946862 -0.25804308 -0.53106445 0.56869173 -0.7686053 0.6111543
1.2510711 0.3961283 -0.38137642 0.39551753 -0.6559828 -0.29070765 0.53217864 -0.52011055
0.45428935 0.7645601 -0.5230243 0.64540863 -0.4233358 0.09253398 -0.9801574 -0.34323293
-0.6006222 0.3755236 -0.64172715 0.49010268 0.54812634 0.43972328 0.4646422 0.3310746
-0.22832488 -0.89591146 0.13797486 -0.30478 0.23763959 -0.8052253 -0.8196702 -0.5987603
-0.5025455 1.0476053 0.47037756 0.43249458 0.7505203 0.9518453 0.8596459 0.6758718
0.8275764 -0.8680576 -0.74505866 0.43002468 0.18895504 -0.31142208 -0.7690763 0.6919069
-0.84721696 0.8092301 1.265991 0.1642376 -0.75086844 0.6337264 -1.1312404 -0.4640372
0.7098064 -0.6757351 0.7158289 0.38979796 -0.6570532 0.5989277 -0.7283927 0.14604926
-1.581458 -0.34728983 -0.7970286 0.74428463 -0.7923824 0.60539365 0.14470673 0.6270317
0.77467483 0.52630794 -0.35393456 -0.80474097 0.1989457 -0.3038723 0.07889947 -0.71632266
00000000: 62e8 86be d26e 6dbf 552c 543e 68c8 6fbe
00000010: f487 cc3e 0f60 63bf 5db1 3fbf faba 2ebf
00000020: 9f75 a5be 7ec9 003f 4dc3 c23e 2106 a13e
00000030: 818c 2a3f 79ea 883f 776f 3a3f 29a5 0b3f
00000040: f993 2c3f f270 0ebf f68c 18bf 5e20 ea3e
00000050: bd57 d63e 0e05 a2be cd6e 0bbf ac63 523f
00000060: d276 61bf e4fc 0c3f abb7 aa3f 3d77 6a3e
00000070: 591e 2ebf bb1f 033f 2e71 48bf c36a f0be
00000080: 0a0d 153f 729b 17bf fb40 423f 6220 073f
00000090: 2cd8 33bf 547b 443f 421f 25bf b8ae a63d
000000a0: c7be 94bf 6bcc 46be 6eb9 23bf 16a2 163f
000000b0: 9f51 25bf 42e5 453f d353 ab3e ce77 063f
000000c0: abeb 403f 1d27 f83e d82b 9bbe 4ea9 06bf
000000d0: 9025 d53d c719 6bbe 666e 903e e757 5abf
000000e0: f6a5 34bf a5b8 02bf a6d0 0fbf 1cda 3d3f
000000f0: 862f b33e 9403 a33e c88f 3a3f 9a73 713f
00000100: 0381 4c3f 21e9 1a3f 26d9 1b3f 22b2 25bf
00000110: 2b9d 4abf dea5 083f f0d8 983e 236c 0cbf
00000120: ed8e 1cbf 6066 573f 6024 88bf da5f 2a3f
00000130: e9c2 ab3f f354 7d3e 53d1 2abf 672f 233f
00000140: ceec 43bf 6721 a1be 52da 4c3f fb38 31bf
00000150: e5d8 233f 1f9b 973e 133e 1dbf aec6 4c3f
00000160: 366b 42bf eed6 813d 5dde afbf 2842 9fbe
00000170: 6205 53bf de80 403f 3e56 68bf 3eee 5e3f
00000180: bbe2 823e d3d6 da3e 6298 063f f2ec f63e
00000190: eddd 9bbe 9f0f 68bf a990 34be 4256 9cbe
000001a0: f96b 3c3e c1b8 2cbf 9b7c 3dbf 3181 f7be
000001b0: 9927 d9be 07f2 693f 58b6 9d3e 7d11 b83e
000001c0: 6937 333f 1364 7f3f a6d2 483f 9193 3a3f
000001d0: 96fc 363f 79d5 3bbf 9580 63bf eb2e 903e
000001e0: 8b5e cc3e 7b02 cfbe f574 44bf 49b3 1e3f
000001f0: 2bae 71bf c758 453f 8593 8c3f e90f d43e
00000200: 1d7a 14bf 76b6 1c3f bbf8 71bf db00 ccbe
00000210: 2361 333f 7f90 2bbf ad4a 483f b4d0 183f
00000220: b142 38bf b5dd 383f 15d1 28bf fb6d 843c
00000230: 9432 8abf 4dd5 40be 85d0 49bf a15c 503f
00000240: 1900 4fbf 87da 533f 6472 da3e 0727 183f
00000250: 1c44 413f e9f9 973e 4be4 75be 54b8 23bf
00000260: 09cb 80be 7a5c d5be 8145 123f b76e 4abf
00000270: 0a2b 00bf 11ee 10bf 13f6 03bf de7e 233f
00000280: 5fcd cd3e b1be a03e 71dc 073f 2f09 293f
00000290: 4488 2b3f e2e8 fa3e 5574 0e3f 802a f5be
000002a0: 5b28 f7be a5eb da3e 4d0e 193e 391e 84be
000002b0: d7f3 07bf c895 113f 51c3 44bf 9c74 1c3f
000002c0: 1923 a03f 54d1 ca3e c543 c3be 4681 ca3e
000002d0: 7dee 27bf a2d7 94be dc3c 083f f725 05bf
000002e0: 9d98 e83e 36ba 433f ece4 05bf 8039 253f
000002f0: 78bf d8be 7582 bd3d 98eb 7abf 3abc afbe
00000300: 60c2 19bf a144 c03e 3b48 24bf bdee fa3e
00000310: 0252 0c3f 6923 e13e 95e5 ed3e 9c82 a93e
00000320: ffcd 69be 745a 65bf 4849 0d3e 200c 9cbe
00000330: cb57 733e 3f23 4ebf e8d5 51bf 5b48 19bf
00000340: d2a6 00bf ee17 863f 54d5 f03e ee6f dd3e
00000350: 1922 403f 22ac 733f c111 5c3f ef05 2d3f
00000360: 0cdc 533f 0639 5ebf 2abc 3ebf 322c dc3e
00000370: 6e7d 413e b772 9fbe 2fe2 44bf d020 313f
00000380: 36e3 58bf b429 4f3f fe0b a23f e72d 283e
00000390: ea38 40bf e53b 223f 7ccc 90bf 4996 edbe
000003a0: dfb5 353f fafc 2cbf 9040 373f 9993 c73e
000003b0: a334 28bf 5353 193f f277 3abf f08d 153e
000003c0: 376d cabf f9cf b1be 110a 4cbf 7089 3e3f
000003d0: 93d9 4abf 14fb 1a3f 002e 143e 2685 203f
000003e0: 1751 463f 1ebc 063f e936 b5be 8103 4ebf
000003f0: 6cb8 4b3e 2695 9bbe 0c96 a13d ec60 37bf

lstm.weight_hh_l1 f4 [200, 50]
0.08918152 0.04552959 0.065620065 0.13879028 0.12499434 0.10313181 -0.013811624 0.008161873
0.0605861 -0.009566476 0.13424069 0.14094745 -0.031017082 -0.042929266 0.020396698 0.11436912
-0.022155756 0.04579331 -0.1397709 0.066647 -0.11969137 0.1332649 0.11607541 0.040302657
-0.11411015 -0.12617604 -0.04514533 -0.040766474 0.022616759 -0.05148949 0.080905296 0.09855709
0.08777321 0.03020449 -0.034709178 -0.13269974 0.089246936 -0.09802653 0.10914472 0.101186834
0.012185734 0.045465138 0.011511637 0.061763935 0.05869178 0.11473421 0.066635236 -0.12039821
-0.0057442784 0.078914024 -0.12184814 0.020417823 0.02225224 -0.05419672 0.0063094343 0.028155157
0.10846297 -0.015842715 0.12889542 -0.07119217 0.017230222 0.12533139 -0.121868834 -0.13721545
0.00088312826 -0.05541326 -0.047247816 -0.12093459 -0.0771434 -0.10186749 0.013026968 -0.03612813
-0.087369174 -0.051879097 -0.08667235 0.1257445 -0.006986144 0.0069218786 0.12722276 0.039141003
0.107985355 -0.07624151 -0.045621436 0.020827305 0.014971371 0.09358332 0.010675983 0.10152065
0.1387117 -0.13242134 -0.0045310226 0.12694865 0.09837946 -0.059565943 0.031070305 0.008982927
-0.09230946 -0.11074906 -0.02168683 0.014240224 -0.0495987 -0.06938498 -0.015494598 -0.06408511
-0.092355885 0.08011899 0.10843029 -0.068175614 0.083927885 -0.031336438 -0.04188178 -0.06487547
0.07340129 0.12617548 -0.038820148 -0.13375677 -0.06798331 -0.078075014 -0.122346476 -0.0010512773
0.11201547 0.1060997 -0.046598773 -0.07370888 0.015164774 -0.12898497 -0.061704893 -0.003288213
-0.025243485 -0.064238645 0.10466366 -0.10830882 0.022240657 0.012309275 0.116802745 0.017155537
-0.13297018 0.03221786 0.11622215 -0.0630307 0.003839106 -0.03847446 -0.050575595 -0.08902455
0.053246595 -0.04936035 0.028109336 0.07871412 0.013426115 0.003652092 -0.14014655 0.008794075
0.021816019 0.12845166 -0.104379825 0.019392794 0.09035034 0.10186614 -0.056758203 -0.12867069
0.12770204 -0.043833043 0.01938541 -0.04436017 -0.020926518 0.022079756 -0.031312987 0.10490088
-0.13517587 0.015125038 -0.063900456 0.023943895 0.12861714 -0.11181993 0.035050888 -0.124490924
0.03723332 0.12471482 -0.077146605 -0.06784072 0.10646446 0.12970129 0.13236095 0.078513324
0.12010155 0.030839762 -0.1354375 -0.12983888 -0.10456193 -0.0396205 -0.027749015 0.030211015
-0.13711831 -0.13533948 -0.070549645 0.13777305 -0.05537582 0.04406394 -0.014070001 0.04862005
-0.10455477 0.009761244 -0.020940073 -0.11042129 -0.025063502 -0.0834144 -0.08034366 0.04024709
0.031276572 0.021932242 -0.039739642 -0.087072074 -0.040612705 -0.13829127 -0.07847191 0.08296105
-0.02163241 0.055268075 0.050824147 -0.016432382 0.08714724 -0.12444915 0.03746442 -0.061805625
-0.024871262 0.073591016 0.07913243 -0.042623177 -0.018294515 -0.07502608 0.062171392 -0.0669551
0.105363905 0.060851675 0.056962077 0.12667774 0.07022586 -0.024731148 -0.07275632 -0.0725878
0.12600434 -0.041391242 0.13025258 0.073062524 0.116391 -0.041089807 -0.05606851 0.040755652
0.059611984 -0.05488646 -0.0060556256 -0.06312553 0.0047302083 -0.12077919 0.138506 -0.06742191
00000000: cda4 b63d 3c7d 3a3d d063 863d 0a1f 0e3e
00000010: 08fd ff3d c536 d33d 264a 62bc 60b9 053c
00000020: 2129 783d b5bc 1cbc 6476 093e 8754 103e
00000030: 8917 febc 99d6 2fbd fa16 a73c 5b3a ea3d
00000040: fd7f b5bc c491 3b3d 1a20 0fbe 397e 883d
00000050: c020 f5bd 9876 083e f2b8 ed3d 6614 253d
00000060: 95b2 e9bd 4b34 01be 4fea 38bd bffa 26bd
00000070: c846 b93c a5e6 52bd adb1 a53d 4dd8 c93d
00000080: 71c2 b33d 686f f73c 362b 0ebd 71e2 07be
00000090: 19c7 b63d 22c2 c8bd 4487 df3d 0b3b cf3d
000000a0: aca6 473c a739 3a3d 4e9b 3c3c 2efc 7c3d
000000b0: cb66 703d c5f9 ea3d 0e78 883d 5693 f6bd
000000c0: 803a bcbb ad9d a13d 858b f9bd 4743 a73c
000000d0: 544a b63c 61fd 5dbd 5fbf ce3b a5a5 e63c
000000e0: d521 de3d 95c8 81bc 29fd 033e 33cd 91bd
000000f0: 6526 8d3c df56 003e 5e96 f9bd 3582 0cbe
00000100: bc81 673a 04f9 62bd ed86 41bd 8eac f7bd
00000110: 5cfd 9dbd e79f d0bd 106f 553c 17fb 13bd
00000120: 9cee b2bd 2d7f 54bd 4681 b1bd 2bc3 003e
00000130: 06ec e4bb edd0 e23b af46 023e 5152 203d
00000140: 6d27 dd3d 8224 9cbd 8bdd 3abd 069e aa3c
00000150: 7b4a 753c 9da8 bf3d 51ea 2e3c 0fea cf3d
00000160: 710a 0e3e 7699 07be f978 94bb d4fe 013e
00000170: 2c7b c93d 6bfb 73bd 2787 fe3c 202d 133c
00000180: be0c bdbd 67d0 e2bd 94a8 b1bc d44f 693c
00000190: 0228 4bbd b619 8ebd 0edd 7dbc 0e3f 83bd
000001a0: 1525 bdbd 6d15 a43d b310 de3d a89f 8bbd
000001b0: 62e2 ab3d a35a 00bd 3b8c 2bbd 6edd 84bd
000001c0: 6a53 963d 2534 013e e001 1fbd 89f7 08be
000001d0: d53a 8bbd cbe5 9fbd ca90 fabd 03cb 89ba
000001e0: 5e68 e53d cd4a d93d 5bde 3ebd aef4 96bd
000001f0: ac75 783c a314 04be 45be 7cbd 0f7f 57bb
00000200: 6dcb cebc 8d8f 83bd e759 d63d 04d1 ddbd
00000210: 0a32 b63c d7ac 493c 4736 ef3d c589 8c3c
00000220: 5629 08be e0f6 033d e105 ee3d 3d16 81bd
00000230: 8399 7b3b 6597 1dbd 5b28 4fbd 8152 b6bd
00000240: 1a19 5a3d 142e 4abd 8d45 e63c de34 a13d
00000250: 35f9 5b3c f057 6f3b 9482 0fbe 0615 103c
00000260: 82b7 b23c d588 033e 17c5 d5bd a3dd 9e3c
00000270: 9909 b93d 329f d03d 4a7b 68bd 40c2 03be
00000280: 53c4 023e 478a 33bd 27ce 9e3c 02b3 35bd
00000290: 176e abbc 9be0 b43c 0c42 00bd 46d6 d63d
000002a0: 8b6b 0abe 02cf 773c 3ede 82bd fd25 c43c
000002b0: 36b4 033e d901 e5bd 8591 0f3d 19f5 febd
000002c0: f781 183d 7c6a ff3d 0aff 9dbd 13f0 8abd
000002d0: 0a0a da3d 6ad0 043e a189 073e 98cb a03d
000002e0: cdf7 f53d aba3 fc3c 21b0 0abe 7cf4 04be
000002f0: 9124 d6bd 1b49 22bd e751 e3bc 177d f73c
00000300: be68 0cbe 6f96 0abe 557c 90bd 6114 0d3e
00000310: c1d1 62bd 647c 343d dd85 66bc d125 473d
00000320: d020 d6bd a0ed 1f3c 848a abbc 8f24 e2bd
00000330: f951 cdbc 2bd5 aabd 388b a4bd 22da 243d
00000340: dd1b 003d 3fab b33c 09c6 22bd d852 b2bd
00000350: 8259 26bd 3a9c 0dbe e1b5 a0bd 7ce7 a93d
00000360: 7436 b1bc c760 623d fb2c 503d 349d 86bc
00000370: 417a b23d 32df febd 4b74 193d e527 7dbd
00000380: d1be cbbc e3b6 963d 2f10 a23d a495 2ebd
00000390: 61de 95bc 46a7 99bd 6ea7 7e3d c11f 89bd
000003a0: 08c9 d73d 9b3f 793d 1151 693d cfb7 013e
000003b0: 93d2 8f3d fa98 cabc 4401 95bd eaa8 94bd
000003c0: 4807 013e dd89 29bd ef60 053e cea1 953d
000003d0: 685e ee3d c94d 28bd 18a8 65bd 66ef 263d
000003e0: b22b 743d a0d0 60bd 456e c6bb f547 81bd
000003f0: ddff 9a3b 145b f7bd 84d4 0d3e 8014 8abd

lstm.bias_ih_l1 f4 [200]
0.6970433 0.7659036 0.6141491 0.5789904 0.73298335 0.6570868 0.80316216 0.7824663
0.7808142 0.6885229 0.8322886 0.6979388 0.73833627 0.6573549 0.5992071 0.6699651
0.7846831 0.6662522 0.77481014 0.8784807 0.8460737 0.9436436 0.83934784 0.7966714
0.8264309 0.581243 0.9088918 0.8023107 0.6622584 0.6314045 0.7406964 0.8586143
0.6774998 0.6160043 0.75524586 0.69535935 0.9262356 0.65980196 0.7328083 0.68758684
0.7451508 0.5756987 0.7356111 0.6972643 0.7247281 0.7289906 0.7242848 0.74314296
0.8364536 0.63905245 -0.13000596 0.06369898 0.07606242 -0.08349104 0.107186064 0.06711466
-0.0021007338 -0.049860887 0.02045368 0.013031806 -0.052651867 0.011763101 0.0053414893 -0.022656377
0.10835033 0.1304945 -0.055704024 0.12822443 -0.07011451 -0.13134561 -0.06622963 -0.08380889
-0.103733465 -0.002968622 -0.009194959 0.026442917 0.0009522659 -0.114442304 0.08929033 -0.08005746
-0.027469462 -0.055633288 0.041994363 -0.032710273 -0.11473206 0.039671045 0.081561476 -0.1062013
-0.033805147 -0.08177528 0.053015392 0.09164937 0.041206874 -0.023009332 -0.09355342 0.029122293
0.015732137 -0.0501998 0.13880149 0.05745924 0.16268136 -0.083067656 -0.18287969 -0.14427249
0.003631041 -0.067372866 0.1415249 -0.12891164 -0.047062214 -0.1181159 -0.049295504 -0.038930476
-0.1299865 -0.1068762 0.14643121 0.040941674 -0.042128038 0.038656615 -0.06741558 -0.0031402758
0.045824084 0.02117409 0.034586806 0.026197877 -0.050250083 0.0024235481 -0.14037228 -0.06830975
0.007096055 0.0105327945 -0.05582186 0.1683106 0.047077186 0.0045244033 0.0002899223 0.14836799
0.08444677 -0.08528993 -0.046711072 -0.14260575 -0.095430665 -0.058756292 -0.0031202873 -0.0628538
0.064279325 0.029482335 0.062404092 -0.005928394 0.0151929995 -0.10206936 0.6769934 0.826562
0.7616482 0.60791975 0.7709031 0.5885193 0.8489434 0.8719628 0.66525424 0.78214645
0.7677246 0.73406565 0.8150095 0.62302995 0.7591757 0.6751233 0.9494654 0.7771475
0.86325467 0.8539105 0.8553949 0.900107 0.78907514 0.68551946 0.6578813 0.5231695
0.8469119 0.74953395 0.75608504 0.7658413 0.77856565 0.8183397 0.65644544 0.6267055
0.6949901 0.9380985 0.9586301 0.57117355 0.75486493 0.48970577 0.61901546 0.5032646
0.9197988 0.8365651 0.6882611 0.8131068 0.8996819 0.58359903 0.7996624 0.87978816
00000000: 6e71 323f 4212 443f e038 1d3f b738 143f
00000010: cca4 3b3f d736 283f 099c 4d3f b64f 483f
00000020: 70e3 473f 0943 303f de10 553f 1eac 323f
00000030: 9b03 3d3f 6948 283f a365 193f d582 2b3f
00000040: fee0 483f 818f 2a3f f559 463f 1ce4 603f
00000050: 4998 583f a192 713f 80df 563f a8f2 4b3f
00000060: fa90 533f 57cc 143f 22ad 683f 3c64 4d3f
00000070: c489 293f baa3 213f 479e 3d3f 26ce 5b3f
00000080: a070 2d3f 75b2 1d3f cb57 413f 1203 323f
00000090: c71d 6d3f c8e8 283f 5399 3b3f b105 303f
000000a0: 34c2 3e3f fd60 133f 0251 3c3f ea7f 323f
000000b0: c887 393f 219f 3a3f bb6a 393f 9e3e 3e3f
000000c0: d321 563f f198 233f 4820 05be 9c74 823d
000000d0: 9dc6 9b3d 5afd aabd 5e84 db3d 6973 893d
000000e0: 77ac 09bb ee3a 4cbd 7a8e a73c 5b83 553c
000000f0: 7ca9 57bd 06ba 403c a907 af3b de99 b9bc
00000100: c7e6 dd3d 5aa0 053e e729 64bd 444d 033e
00000110: 3298 8fbd 777f 06be 66a3 87bd ffa3 abbd
00000120: 3672 d4bd 368d 42bb 74a6 16bc d19e d83c
00000130: 7ca1 793a ba60 eabd d9dd b63d 2af5 a3bd
00000140: a307 e1bc bbdf 63bd 4802 2c3d 35fb 05bd
00000150: a4f8 eabd 1b7e 223d b409 a73d 1180 d9bd
00000160: 4477 0abd cc79 a7bd ab26 593d aab2 bb3d
00000170: 8ac8 283d 117e bcbc ef98 bfbd e091 ee3c
00000180: afe0 803c 4e9e 4dbd fa21 0e3e 615a 6b3d
00000190: f195 263e 601f aabd d044 3bbe 2bbc 13be
000001a0: c2f6 6d3b c9fa 89bd e7eb 103e 6a01 04be
000001b0: 4fc4 40bd c0e6 f1bd 15ea 49bd 9075 1fbd
000001c0: 2e1b 05be e9e1 dabd 10f2 153e 75b2 273d
000001d0: 738e 2cbd 6656 1e3d 2e11 8abd 16cd 4dbb
000001e0: 09b2 3b3d 4975 ad3c e5aa 0d3d ee9c d63c
000001f0: 08d3 4dbd 64d4 1e3b c0bd 0fbe fbe5 8bbd
00000200: 0686 e83b be91 2c3c 76a5 64bd 9d59 2c3e
00000210: 02d4 403d 7241 943b b600 9839 c7ed 173e
00000220: 6ef2 ac3d 7dac aebd 1c54 3fbd 3e07 12be
00000230: 2771 c3bd 70aa 70bd bc7d 4cbb 7eb9 80bd
00000240: e1a4 833d f084 f13c 6f9b 7f3d f942 c2bb
00000250: 0fec 783c be09 d1bd 714f 2d3f 9199 533f
00000260: 60fb 423f a1a0 1b3f e859 453f 33a9 163f
00000270: 5b54 593f f438 5f3f 1a4e 2a3f c03a 483f
00000280: 9989 443f baeb 3b3f 76a4 503f e47e 1f3f
00000290: 5759 423f e1d4 2c3f 2a10 733f 23f3 463f
000002a0: 42fe 5c3f e199 5a3f 29fb 5a3f 6a6d 663f
000002b0: d400 4a3f 347e 2f3f e96a 283f 70ee 053f
000002c0: 38cf 583f 75e1 3f3f ca8e 413f 2d0e 443f
000002d0: 1450 473f b67e 513f cf0c 283f c66f 203f
000002e0: dfea 313f 3927 703f c868 753f 6e38 123f
000002f0: d43e 413f b7ba fa3e cc77 1e3f f3d5 003f
00000300: ef77 6b3f 2129 563f e131 303f c427 503f
00000310: 8e51 663f bf66 153f adb6 4c3f cc39 613f

lstm.bias_hh_l1 f4 [200]
0.7298409 0.89716405 0.60198665 0.41324475 0.80323225 0.74281776 0.8252617 0.8629905
0.64797646 0.6980491 0.6309505 0.6645606 0.8142891 0.8660887 0.84351087 0.7216359
0.7509569 0.7572703 0.6943014 0.67896795 0.8386614 0.80782074 0.7780731 0.6957834
0.70320976 0.37980813 0.88510513 0.84016424 0.6548147 0.88184893 0.58201396 0.6644145
0.67064214 0.726327 0.57877547 0.86512125 0.70519626 0.76852953 0.8754055 0.5365314
0.7107805 0.72024053 0.7563641 0.76955056 0.8112079 0.82899797 0.703075 0.82931626
0.81503254 0.6881498 -0.049160138 -0.09454815 -0.023080576 0.09379117 0.14106384 -0.07797376
0.0905677 0.045456626 -0.07253989 0.11105382 0.11020402 0.139595 -0.1064345 -0.044954523
-0.011757471 0.0940801 -0.061384037 0.08292617 0.014943655 -0.06952246 0.08731497 -0.12545769
-0.045186736 0.025784785 0.005507717 0.07320093 0.068196 0.13547096 -0.017407745 -0.103301056
-0.13770054 -0.111438006 -0.07665485 0.10122837 0.07709161 0.072685346 -0.101284176 0.12037911
-0.09821427 -0.14139481 0.00035373008 0.110669605 0.084231764 0.118664876 0.106314234 -0.010390699
-0.04013154 0.025645347 -0.07479171 -0.095377885 0.056240954 0.020169115 0.028752688 -0.007646027
-0.11693888 0.096966825 0.14379099 0.07076547 0.10988194 -0.08343858 -0.112597175 -0.084964484
-0.08258893 -0.14160192 -0.027245417 -0.12228963 0.13664258 0.0558753 -0.12502733 0.0637367
-0.061982267 0.10639716 -0.061443236 0.017325811 -0.072360806 0.01827639 0.06304455 0.0020771846
-0.098182306 0.1558533 -0.04932286 0.108290665 -0.15260203 -0.038226612 0.08000425 -0.021132987
0.08077043 -0.11590058 -0.043961257 -0.13502058 0.005850418 0.015886415 0.0021718761 0.13665543
-0.011009782 0.16436918 0.02722472 0.09299178 -0.028820198 0.09988754 0.6137274 0.89105624
0.8411701 0.5669829 0.82894015 0.5149763 0.6841586 0.6097994 0.6381025 0.84214175
0.7311103 0.6294001 0.63215137 0.7648947 0.6612274 0.6375008 0.7504354 0.6459359
0.84369016 0.71401507 0.8030247 0.68482 0.73873067 0.7309357 0.79753673 0.34883708
0.82606876 0.85010725 0.73985183 0.6703427 0.72337985 0.6685795 0.63883555 0.5819948
0.52991414 0.7921112 0.9412014 0.7579013 0.7848785 0.65537417 0.65379727 0.63236964
0.7080675 0.71964484 0.82763124 0.73490083 0.8232422 0.8503505 0.63785297 0.662039
00000000: dad6 3a3f 8bac 653f cc1b 1a3f d194 d33e
00000010: a1a0 4d3f 4e29 3e3f 5a44 533f f2ec 5c3f
00000020: c9e1 253f 59b3 323f f985 213f a520 2a3f
00000030: 4075 503f fdb7 5d3f 54f0 573f 21bd 383f
00000040: b63e 403f 77dc 413f bdbd 313f d8d0 2d3f
00000050: 83b2 563f 57cd 4e3f cc2f 473f dc1e 323f
00000060: 8e05 343f 3676 c23e 4096 623f 0115 573f
00000070: f0a1 273f dac0 613f defe 143f 1217 2a3f
00000080: 34af 2b3f 91f0 393f a12a 143f 9678 5d3f
00000090: be87 343f 5abe 443f 931a 603f 1f5a 093f
000000a0: b6f5 353f af61 383f 14a1 413f 4401 453f
000000b0: 52ab 4f3f 3639 543f b9fc 333f 124e 543f
000000c0: f9a5 503f 962a 303f 245c 49bd 76a2 c1bd
000000d0: 7a13 bdbc 9615 c03d 0a73 103e b5b0 9fbd
000000e0: 8f7b b93d ba30 3a3d cb8f 94bd 2f70 e33d
000000f0: a5b2 e13d fef1 0e3e 55fa d9bd 3c22 38bd
00000100: 68a2 40bc 11ad c03d d46d 7bbd 32d5 a93d
00000110: 3bd6 743c cb61 8ebd 31d2 b23d fb77 00be
00000120: ba15 39bd 9d3a d33c 147a b43b 5fea 953d
00000130: 58aa 8b3d e6b8 0a3e b09a 8ebc 818f d3bd
00000140: 5f01 0dbe 9c39 e4bd 38fd 9cbd d250 cf3d
00000150: 35e2 9d3d 0edc 943d 146e cfbd 5389 f63d
00000160: 9024 c9bd cdc9 10be d974 b939 bfa6 e23d
00000170: b481 ac3d 9206 f33d 47bb d93d c03d 2abc
00000180: f860 24bd 3116 d23c 652c 99bd 7b55 c3bd
00000190: ea5c 663d b339 a53c c28a eb3c 868b fabb
000001a0: a77d efbd 8b96 c63d f23d 133e 7ded 903d
000001b0: c809 e13d d9e1 aabd 5999 e6bd dc01 aebd
000001c0: 6324 a9bd 1800 11be c831 dfbc fc72 fabd
000001d0: 08ec 0b3e 80dd 643d 2a07 00be 6388 823d
000001e0: 1ee1 7dbd c1e6 d93d e7ab 7bbd dcee 8d3c
000001f0: e731 94bd 5eb8 953c 801d 813d 6021 083b
00000200: ce13 c9bd 0298 1f3e c406 4abd 7fc7 dd3d
00000210: b543 1cbe 8293 1cbd 45d9 a33d 161f adbc
00000220: f86a a53d 495d edbd b810 34bd d642 0abe
00000230: ddb4 bf3b 3a24 823c 0956 0e3b 67ef 0b3e
00000240: 5f62 34bc 6550 283e 6006 df3c 7972 be3d
00000250: 5618 ecbc d791 cc3d 3d1d 1d3f 431c 643f
00000260: ec56 573f cb25 113f 6c35 543f 7dd5 033f
00000270: 0525 2f3f d01b 1c3f af5a 233f 9a96 573f
00000280: 0b2a 3b3f 5d20 213f acd4 213f 24d0 433f
00000290: 3346 293f 4133 233f 891c 403f 0e5c 253f
000002a0: 14fc 573f b1c9 363f 0793 4d3f 5d50 2f3f
000002b0: 741d 3d3f 9a1e 3b3f 5e2b 4c3f c69a b23e
000002c0: 3e79 533f a1a0 593f ee66 3d3f 949b 2b3f
000002d0: 6c2f 393f 0728 2b3f ba8a 233f 9cfd 143f
000002e0: 74a8 073f cdc7 4a3f 93f2 703f d205 423f
000002f0: cced 483f 9ac6 273f 425f 273f fae2 213f
00000300: e943 353f a53a 383f a4df 533f 7622 3c3f
00000310: 00c0 523f 92b0 593f 554a 233f 637b 293f

fc.weight f4 [1, 50]
-1.5707828 1.7253155 1.4967086 1.181572 1.8363494 -1.1688782 -1.5562501 1.4248517
-1.8496704 1.8457563 1.5501275 1.5399922 1.3978236 1.5140901 -1.380714 1.4494648
-1.7092866 1.5857837 1.5576578 1.6140316 2.008005 1.7348324 -1.7960302 -1.4372694
1.4229875 -1.2370775 1.912039 1.7432594 -1.6759614 -1.6137655 -1.1658978 -1.6880771
1.4372985 1.3858663 -1.4925326 -2.093584 -1.7506051 1.3010218 -1.5258423 1.5663909
1.4845344 -1.4430739 1.7810303 -1.7890061 -1.3960252 -1.9575346 1.7243689 1.6688671
-1.593526 -1.489044
00000000: 690f c9bf 23d7 dc3f 2694 bf3f c03d 973f
00000010: 7f0d eb3f cd9d 95bf 3433 c7bf 8a61 b63f
00000020: 00c2 ecbf be41 ec3f 946a c63f 771e c53f
00000030: e2eb b23f b4cd c13f 3dbb b0bf 1088 b93f
00000040: e7c9 dabf f6fa ca3f 5561 c73f 9698 ce3f
00000050: 2783 0040 fd0e de3f 51e4 e5bf 72f8 b7bf
00000060: 7424 b63f 8e58 9ebf b2bd f43f 2023 df3f
00000070: e785 d6bf de8f cebf 243c 95bf e912 d8bf
00000080: 66f9 b73f 1164 b13f 4f0b bfbf 48fd 05c0
00000090: d413 e0bf e287 a63f cd4e c3bf 7f7f c83f
000000a0: 3905 be3f a5b6 b8bf cdf8 e33f 27fe e4bf
000000b0: f4b0 b2bf 7e90 fabf 1fb8 dc3f 709d d53f
000000c0: a9f8 cbbf fe98 bebf
