back-end/modelo_lstm.pth (torch, 129733 bytes, 9 tensors)

lstm.weight_ih_l0 f4 [200, 3]
0	0x3c885f27	0.016646935
1	0xbe3ad8a6	-0.18246707
2	0x3d1cd78e	0.038291506
3	0x3ca149a1	0.01968843
4	0xbd5d39bc	-0.054010138
5	0x3e647586	0.22310457
6	0xbe811f23	-0.25219068
7	0x3ea108df	0.3145208
8	0x3e274ac4	0.16337115
9	0x3e2ac4ee	0.16676685
10	0xbe7f494c	-0.24930304
11	0x3d3177dc	0.043327197
12	0xbbe9a02f	-0.007129691
13	0x3e7f60a1	0.24939205
14	0xbd244d06	-0.040112518
15	0x3e267052	0.16253784
16	0xbcb8f342	-0.022576932
17	0xbc33b3d5	-0.010968168
18	0xbd5bf890	-0.053703845
19	0x3e837bb3	0.25680313
20	0xbc9a2283	-0.018815285
21	0xbe06d866	-0.13168487
22	0x3db8923f	0.09012269
23	0xbe495dbb	-0.19664662
24	0x3eb1eec7	0.34752485
25	0x3eb0607c	0.34448612
26	0x3e7ef52a	0.2489821
27	0x3e6dcb89	0.23222174
28	0xbd84c5da	-0.0648305
29	0xbec44953	-0.38337192
30	0x3e9d0d83	0.3067437
31	0xbe878257	-0.2646663
32	0xbbb34f75	-0.0054721185
33	0x3ea2b2c6	0.31777018
34	0x3ea43304	0.32070172
35	0x3e89770d	0.2684864
36	0x3e936117	0.2878501
37	0x3e8dc0bd	0.2768611
38	0x3d7667df	0.060157653
39	0x3deb7dcd	0.11498604
40	0xbe4ff354	-0.20307666
41	0x3f084728	0.53233576
42	0x3e163cab	0.1467158
43	0xbddd641a	-0.108101085
44	0x3e799b26	0.2437559
45	0x3e3f5498	0.18684614
46	0x3e9db34f	0.30800864
47	0x3e4ce4db	0.20009176
48	0x3ebd0a94	0.36922133
49	0xbe5b01ab	-0.21387355
50	0x3dcd2d7f	0.10018443
51	0x3e597c5a	0.21238843
52	0x3e0fdd84	0.14049345
53	0x3dc2b408	0.095069945
54	0x3e330662	0.17482904
55	0x3e549754	0.20760852
56	0x3c61d89e	0.013784556
57	0xbe57a0f3	-0.21057491
58	0xbe602332	-0.21888426
59	0x3e1fe970	0.15616393
60	0x3e067827	0.13131772
61	0x3e13e9de	0.14444682
62	0x3d9b24e9	0.075753994
63	0x3ea9b7bc	0.3314799
64	0x3eb8d378	0.36098838
65	0x3e46b31c	0.19404262
66	0xbe9d6a5a	-0.30745202
67	0xbc35b2a2	-0.011089953
68	0x3ebde1f8	0.37086463
69	0x3d736921	0.05942643
70	0x3e37940d	0.1792757
71	0x3e8394e4	0.25699532
72	0x3dcad591	0.09904016
73	0xbd825352	-0.06363548
74	0x3ed272bd	0.41103163
75	0x3cdffadc	0.027341299
76	0x3e4e2324	0.20130593
77	0x3db2d11c	0.08731291
78	0x3ec7c2dc	0.39015853
79	0x3ecc68b6	0.39923638
80	0x3e9454b8	0.28970885
81	0xbeae58f0	-0.3405223
82	0xbe2d0b9d	-0.16898961
83	0x3ea63573	0.32462654
84	0x3e9aa3ec	0.30203187
85	0x3e9b12d4	0.30287802
86	0x3e83c33d	0.25734892
87	0x3eb504ce	0.35355228
88	0x3e8ea314	0.27858794
89	0x3e8244fc	0.25443256
90	0xbde3e3d3	-0.111274384
91	0x3e5a54dd	0.21321435
92	0xbcea671c	-0.02861362
93	0x3da6767c	0.08128068
94	0xbe9b6918	-0.30353618
95	0xbddc3d1a	-0.10753842
96	0x3e28a158	0.16467798
97	0x3e8c0346	0.27346247
98	0x3e108aeb	0.14115493
99	0xbd7eea41	-0.06223512
100	0xbca65ccb	-0.020307919
101	0x3eb22ebb	0.34801278
102	0xbdea621e	-0.114444956
103	0x3de6981a	0.1125948
104	0xbe14f2d9	-0.14545764
105	0x3e9f8066	0.31152648
106	0xbde1844a	-0.1101156
107	0x3cb97f14	0.022643603
108	0x3d450346	0.048098825
109	0x3e40b760	0.18819952
110	0x3e395228	0.18097746
111	0x3d7255d0	0.05916387
112	0x3e5d54bc	0.21614355
113	0xbd0d569f	-0.034506436
114	0x3c2ae476	0.010430446
115	0x3e777fcf	0.24169849
116	0xbd02014a	-0.03173951
117	0x3edc2412	0.4299627
118	0x3ecd3090	0.40076113
119	0x3e9dd0e0	0.3082342
120	0x3e1c6064	0.15271145
121	0xbddcb887	-0.10777383
122	0x3f2708af	0.65247625
123	0x3ecd5eea	0.40111476
124	0x3e9b27d7	0.30303833
125	0x3e8779bd	0.26460066
126	0x3c71ff30	0.014770314
127	0x3e81175a	0.25213128
128	0x3e5f9f33	0.21838073
129	0x3d8ddcb0	0.069268584
130	0x3e34c235	0.17652209
131	0x3e486cfe	0.19572827
132	0xbc842ef2	-0.016135667
133	0xbd05b310	-0.03264147
134	0x3eb05417	0.34439155
135	0x3e39965b	0.18123762
136	0x3e0b9a7e	0.13633153
137	0x3e6f8a8e	0.23392698
138	0x3dc7f09a	0.09762688
139	0x3e6a47da	0.22878972
140	0x3dacd16e	0.08438383
141	0x3ef68b5c	0.48153198
142	0xbe65322c	-0.2238242
143	0xbc9f0fdd	-0.019416744
144	0x3ec08a0f	0.3760533
145	0xbe5aec42	-0.21379188
146	0x3dd908c2	0.105973735
147	0x3e273311	0.16328074
148	0x3e5efc9f	0.21776055
149	0x3d0b26d4	0.033972576
150	0xbe0cb9a6	-0.13742694
151	0xbce5b5a7	-0.02804072
152	0x3d84a6a1	0.064770944
153	0xbdc25ce6	-0.09490375
154	0x3de53210	0.11191189
155	0xbda2385b	-0.07920905
156	0x3d3bc0f3	0.045838308
157	0x3d2be48c	0.041966006
158	0xbe01eb2f	-0.12687372
159	0xbd81b6d7	-0.06333702
160	0x3dc21e46	0.094784304
161	0x3de2c00f	0.110717885
162	0x3e0f7032	0.14007643
163	0xbd6c754b	-0.057729047
164	0x3de7b0ad	0.11312995
165	0x3cd8b3a4	0.026452847
166	0xbd6cd8db	-0.057823997
167	0xbdaf249a	-0.08551903
168	0x3d9909f1	0.07472599
169	0x3dd36312	0.103216305
170	0x3e09e9d1	0.134681
171	0xbe06c00b	-0.13159196
172	0x3bf73165	0.00754373
173	0x3e02ca3a	0.12772456
174	0x3d9793de	0.0740125
175	0x3c9c8791	0.019107612
176	0x3cb75a6c	0.022381984
177	0xbd2d1022	-0.042251714
178	0xbd94d977	-0.072680406
179	0xbdd97d5c	-0.106196135
180	0xbdc3933f	-0.09549569
181	0xbe0ab4a2	-0.13545468
182	0x3ccd6a94	0.025075234
183	0x3d81018c	0.06299123
184	0xbcdab93e	-0.026699658
185	0xbd887116	-0.066621944
186	0x3c768a96	0.01504769
187	0xbde925b6	-0.11384146
188	0x3e0d447d	0.13795657
189	0xbdd29785	-0.10282806
190	0x3d9040ae	0.07043587
191	0xbd75bdd3	-0.059995484
192	0x3e0224bb	0.12709324
193	0x3cdd91bd	0.027047032
194	0xbd360b21	-0.044444207
195	0x3df12be6	0.11775951
196	0xbd0b3857	-0.033989277
197	0xbd16d0e6	-0.036820315
198	0x3e105260	0.14093924
199	0xbd5356dd	-0.05159651
200	0x3c9adcb0	0.01890406
201	0xbdc87a43	-0.097889446
202	0xbcd498b4	-0.02595172
203	0x3dbea4aa	0.09308751
204	0x3db01690	0.085980535
205	0xbcdaac3b	-0.026693454
206	0x3d978a32	0.073994055
207	0xbd8508e4	-0.064958364
208	0xbdeeff9a	-0.11669846
209	0xbdb6095f	-0.08888506
210	0x3d6726cd	0.056433488
211	0x3dca7e4d	0.09887371
212	0x3d5f9ea5	0.054594655
213	0x3c4bf2ee	0.012448056
214	0x3db1be85	0.08678917
215	0x3d74fb05	0.059809703
216	0x3da449ce	0.080218896
217	0xbd210c45	-0.03931834
218	0xbd5c54e3	-0.05379189
219	0x3ce2aff9	0.0276718
220	0x3d182099	0.037140463
221	0x3dc275e5	0.09495143
222	0x3d015af6	0.031580888
223	0xbc23d805	-0.010000234
224	0xbdfb090d	-0.12257586
225	0xbdc11306	-0.094274566
226	0x3e05abfd	0.1305389
227	0xbdac621d	-0.08417151
228	0x3de6acee	0.112634525
229	0x3de4b744	0.11167768
230	0x3db5918d	0.08865652
231	0x3da6dc15	0.08147446
232	0x3da0d63d	0.07853363
233	0xbd372c95	-0.04472025
234	0x3d7aab89	0.061198745
235	0x3d5465dd	0.051854957
236	0xbca78a18	-0.02045159
237	0x3e037f10	0.12841439
238	0xbba5d5d8	-0.0050608926
239	0x3dced516	0.10099237
240	0x3d058d17	0.032605257
241	0xbd04c6ad	-0.032416034
242	0xbc942e5f	-0.018088518
243	0xba39b313	-0.0007083874
244	0x3d87251a	0.065988734
245	0xbc410543	-0.01178104
246	0x3bb4a1f5	0.005512471
247	0xbc355c7e	-0.011069415
248	0x3d603163	0.0547346
249	0x3cea509d	0.028602893
250	0x3dd64d79	0.104639955
251	0xbd62cc30	-0.05537051
252	0x3d6aa969	0.05729047
253	0x3c7e93fc	0.015538212
254	0xbc8c3049	-0.017112868
255	0x3d5473ef	0.051868375

lstm.weight_hh_l0 f4 [200, 50]
0	0x3deeef8f	0.11666786
1	0xbd919cec	-0.071100086
2	0x3e0d51ae	0.1380069
3	0x3d43eb83	0.047832023
4	0xbab48be5	-0.0013774602
5	0xbcf044da	-0.029329706
6	0xbde21ebc	-0.11041018
7	0xbdf9924d	-0.12186108
8	0xbd694b76	-0.05695673
9	0x3bab1a4c	0.0052216407
10	0x3ca945a0	0.020663083
11	0x3e0d2683	0.13784222
12	0x3d984371	0.074347384
13	0xbd0aabc9	-0.033855233
14	0xbddcfbf3	-0.10790243
15	0x3d7412aa	0.059588112
16	0xbb37f550	-0.0028069802
17	0xbdcbe4d2	-0.099557534
18	0x3db1ce6b	0.08681949
19	0x3cc1f178	0.023674712
20	0xbde2e82c	-0.110794395
21	0xbdc49a3f	-0.095997326
22	0x3d5eac63	0.05436362
23	0x3d66b29f	0.05632269
24	0xbdad8412	-0.08472456
25	0x3ddded7a	0.10836311
26	0xbda8da77	-0.08244794
27	0xbd6b15a2	-0.057393678
28	0x3cb15c88	0.021650568
29	0xbd084f28	-0.033278614
30	0xbd876dea	-0.06612761
31	0xbe0b4d67	-0.13603745
32	0xbdc7de54	-0.097592026
33	0x3c81bbc8	0.015836611
34	0xbdec77bc	-0.11546275
35	0x3cf3ee1f	0.02977663
36	0x3d3d932e	0.04628294
37	0xbdcae0a7	-0.0990613
38	0xbcd79f57	-0.026321096
39	0x3dfeaa37	0.1243481
40	0x3d5a7b91	0.0533405
41	0xbc8fab50	-0.017537743
42	0xbd55b445	-0.05217387
43	0xbd743707	-0.05962279
44	0xbc8bd177	-0.017067654
45	0xbdc0c4ee	-0.09412561
46	0x3df68118	0.120363414
47	0xbc9f9ab8	-0.019482955
48	0xbd11fe18	-0.035642713
49	0x3dc78540	0.09742212
50	0x3e0de6d8	0.13857591
51	0x3d7e19a8	0.062036186
52	0x3dfcf04f	0.12350523
53	0xbd1f5f7b	-0.038909417
54	0x3de5634e	0.112005815
55	0x3d8bb54b	0.06821688
56	0xbdf2ccd6	-0.118554756
57	0x3c0bc2af	0.008530303
58	0x3b14c1a9	0.0022698438
59	0xbde215b3	-0.11039295
60	0x3d9757e9	0.073898144
61	0xbd6516f2	-0.055930085
62	0xbcbe27e2	-0.023212377
63	0x3d07d6d7	0.03316387
64	0x3d3e748e	0.046497874
65	0xbda29212	-0.07938017
66	0x3d7ce5e3	0.061742675
67	0x3dfe1c97	0.12407797
68	0xbc85c0f1	-0.016327353
69	0x3de01e9d	0.10943339
70	0x3cd6a807	0.026203169
71	0xbd8b7d78	-0.06811041
72	0x3e097a7c	0.1342563
73	0x3cee8f8b	0.029121181
74	0xbdb264e6	-0.08710651
75	0xbd6e1931	-0.058129493
76	0x3ddee81a	0.108841136
77	0x3c374234	0.011185218
78	0xbcf7ebdb	-0.030263832
79	0xbe09dd25	-0.13463266
80	0x3d848e82	0.06472494
81	0xbd99a02b	-0.07501253
82	0xbd657d36	-0.056027614
83	0x3da97990	0.08275139
84	0x3dfd52b4	0.1236929
85	0xbdb9c189	-0.09070117
86	0x3dbab39a	0.091162875
87	0xbdbcb192	-0.09213556
88	0xbd3c263e	-0.045934908
89	0x3d904503	0.07044413
90	0xbce85da5	-0.028364966
91	0x3e062a80	0.1310215
92	0xbe061c88	-0.13096821
93	0x3d786bd8	0.060649723
94	0xbdacb6d7	-0.084333114
95	0x3dc32da5	0.095301904
96	0xbda88360	-0.08228183
97	0x3d4244fb	0.047429066
98	0x3dd2a0a9	0.1028455
99	0xbe07f94e	-0.13278696
100	0xbe0a9670	-0.1353395
101	0x3cc34c69	0.023840146
102	0x3d3eea72	0.046610303
103	0xbd7a34b9	-0.061085436
104	0x3db2267b	0.08698746
105	0x3d8f2055	0.06988589
106	0x3d062fd5	0.03276046
107	0x3daaaae0	0.08333373
108	0x3bc3e623	0.005978362
109	0x3caa8c98	0.020818993
110	0x3dd8bd2b	0.10582956
111	0xbda7fcc7	-0.0820251
112	0xbe05e985	-0.13077362
113	0x3d4d8a86	0.050180934
114	0x3e0a4001	0.13500978
115	0xbb379178	-0.002801029
116	0x3ca4a980	0.020100355
117	0xbdb46e91	-0.08810151
118	0xbcc7297a	-0.02431177
119	0x3dd250f8	0.1026935
120	0x3df28712	0.11842169
121	0xbca142aa	-0.019685108
122	0xbdc1611d	-0.09442351
123	0xbd89dc9d	-0.06731532
124	0x3d02ceab	0.031935375
125	0x3dddc17f	0.10827922
126	0xbcb5c3fa	-0.022188175
127	0x3dcbb0ca	0.09945829
128	0xbcd37f58	-0.025817558
129	0x3d8189c3	0.06325104
130	0x3ceeafe5	0.029136607
131	0xbe0ed0c7	-0.1394683
132	0x3d8ba0f5	0.068178095
133	0x3c394aa2	0.011309298
134	0xbdf1dec6	-0.11810069
135	0x3c89054e	0.016726162
136	0xbe0ba1f5	-0.13636
137	0x3d66773a	0.056266047
138	0x3dd4aeb4	0.103848845
139	0xbcdf18f2	-0.027233575
140	0xbda47067	-0.080292515
141	0x3d75b88f	0.059990462
142	0xbc55c652	-0.0130477715
143	0xbd52d819	-0.051475618
144	0x3d934d26	0.07192449
145	0xbdc03de7	-0.09386807
146	0x3ccd1b62	0.025037471
147	0xbd32efb9	-0.04368565
148	0xbce7daf8	-0.028302655
149	0xbd908de5	-0.07058314
150	0x3d66cc8a	0.056347407
151	0x3d951d54	0.072809845
152	0xbdb74461	-0.08948589
153	0xbcc854f0	-0.024454564
154	0xbde677fa	-0.112533525
155	0x3db46e7b	0.08810135
156	0xbc0381da	-0.0080265645
157	0x3e0ffe1c	0.14061779
158	0xbdaf8847	-0.08570915
159	0xbdddd8e2	-0.10832383
160	0xbdd91636	-0.105999395
161	0x3d6bc56b	0.05756132
162	0x3d9fee4e	0.07809125
163	0x3cbf9588	0.023386732
164	0x3d98f20b	0.07468041
165	0x3d864b7d	0.06557367
166	0x3d0d19c6	0.034448408
167	0x3dd16d38	0.1022591
168	0xbdb82de0	-0.08993125
169	0xbdf9b70b	-0.12193116
170	0x3d94702b	0.07247957
171	0xbca76e06	-0.020438205
172	0x3ca9f3ca	0.02074613
173	0x3d9342a1	0.07190443
174	0xbe004be7	-0.12528954
175	0xbdd1fbf5	-0.10253135
176	0xbc30e1a3	-0.0107959835
177	0x3e0b506c	0.13604897
178	0x3c263a9b	0.010145809
179	0xbe092d36	-0.13396153
180	0xbd4a1367	-0.04933491
181	0x3d880acc	0.06642684
182	0x3e08caab	0.13358562
183	0x3d8f169c	0.06986734
184	0xbdabe45a	-0.08393164
185	0x3e0024e4	0.12514073
186	0x3df5149b	0.11966821
187	0xbcf7d532	-0.030253027
188	0xbd965916	-0.073412105
189	0x3d1a4bff	0.03767013
190	0x3d9a0bd3	0.075217865
191	0x3e036303	0.12830739
192	0x3e0ce247	0.13758193
193	0x3d1ddb99	0.038539503
194	0x3dc4373e	0.09580849
195	0x3cb4e6c2	0.02208269
196	0xbc1c1c8c	-0.0095282905
197	0xbdaa9bac	-0.08330473
198	0x3dcf2df6	0.10116188
199	0x3d33fc16	0.04394158
200	0xbd544e1f	-0.051832315
201	0xbd25c954	-0.040475205
202	0x3d9e5956	0.07731883
203	0x3b416f8a	0.0029515945
204	0x3ca8ff7b	0.020629635
205	0xbd6cdf65	-0.057830233
206	0xbe03c0a5	-0.12866457
207	0xbc8ceb51	-0.017202051
208	0xbe0c948c	-0.13728541
209	0xbe015ae7	-0.12632333
210	0x3cf0b795	0.029384414
211	0x3cc5fb8b	0.024167797
212	0x3dd9f2f8	0.10642046
213	0xbda10030	-0.07861364
214	0x3e09f736	0.1347321
215	0xbdcbbdb4	-0.099482924
216	0x3e015011	0.12628199
217	0x3d117e6d	0.03552096
218	0x3d2c89f1	0.04212374
219	0x3da3bb05	0.079946555
220	0xbc5f0cb7	-0.013613871
221	0xbd4bf062	-0.049789794
222	0x3dd47b3a	0.10375066
223	0x3e08c01f	0.13354538
224	0x3d5d5bc1	0.05404258
225	0xbda3f6ac	-0.08006033
226	0x3cac9518	0.021067187
227	0x3dcde07b	0.10052582
228	0xbd9586c7	-0.07301097
229	0x3d9c666c	0.07636723
230	0x3da8f7df	0.08250403
231	0x3c6afac7	0.014342017
232	0xbdfed1a3	-0.12442329
233	0xbcba6b46	-0.02275623
234	0xbd32dce1	-0.043667678
235	0xbd2804f9	-0.041020367
236	0x3e078858	0.13235605
237	0xbd52f4bc	-0.05150293
238	0xbde956a4	-0.113934785
239	0xbd701d2f	-0.05862158
240	0xbdd45e7e	-0.103695855
241	0x3c0ddd5c	0.008658733
242	0xbe009291	-0.1255591
243	0xbcd2e4f3	-0.025743937
244	0x3d87a96b	0.06624111
245	0x3dc63109	0.096773215
246	0xbd8b4a86	-0.068013236
247	0x3d48385a	0.048881866
248	0xbde28c00	-0.11061859
249	0x3d2ea615	0.042638857
250	0x3d60fcdf	0.054928657
251	0xbcd13cef	-0.02554175
252	0x3db180a5	0.08667115
253	0xbdc7307f	-0.09726047
254	0xbcdc59bb	-0.026898256
255	0xbd77b5ba	-0.060476042

lstm.bias_ih_l0 f4 [200]
0	0x3e9f9cf6	0.3117444
1	0x3dbd9d45	0.092585124
2	0xbd7eba36	-0.062189303
3	0x3ed59e0c	0.41722143
4	0x3e36eb4b	0.17863195
5	0xbc397d14	-0.011321325
6	0x3bcc6ed6	0.0062387986
7	0xbca67328	-0.020318583
8	0x3e6c10b6	0.2305325
9	0x3db86025	0.09002713
10	0x3e983cd6	0.29733914
11	0x3e81fbfb	0.25387558
12	0x3df7a41e	0.1209185
13	0x3eed3e7b	0.4633673
14	0x3c0d0490	0.008607045
15	0x3e61bcb0	0.22044635
16	0x3ed8f0a3	0.4237109
17	0x3eaa9ee8	0.3332436
18	0x3e32e1d0	0.17468953
19	0x3ea23f10	0.31688738
20	0x3e2553ef	0.161453
21	0x3e82ce04	0.25547802
22	0x3dcd8bc7	0.10036426
23	0x3c73e6e7	0.014886594
24	0x3e9bb2b5	0.3040978
25	0x3e9184aa	0.28421527
26	0x3e504278	0.20337856
27	0xbd8f41c3	-0.06994965
28	0x3e0df34b	0.1386234
29	0x3ebef0ea	0.37293178
30	0xbdc9b50b	-0.09848984
31	0x3ea27718	0.31731486
32	0x3e8199b7	0.25312588
33	0xbd83b664	-0.064312726
34	0x3bdb7683	0.0066974773
35	0x3e45c773	0.19314365
36	0x3e091776	0.13387856
37	0x3d511111	0.051041666
38	0x3e8100bf	0.25195882
39	0x3e51770f	0.20455573
40	0x3ea00240	0.31251717
41	0x3ebf8989	0.37409618
42	0x3e8fce48	0.28087068
43	0x3e50a1e7	0.20374261
44	0x3e799ce1	0.24376251
45	0x3da7724a	0.08176096
46	0x3e32021a	0.17383614
47	0x3ec2aeb5	0.38023916
48	0x3ed3abc7	0.41341993
49	0x3e42d436	0.19026265
50	0xbde1fde1	-0.11034752
51	0x3d89199a	0.06694336
52	0xbdd7c22c	-0.10535082
53	0xbe0c78b8	-0.13717926
54	0x3cbe3e04	0.02322293
55	0x3d5aa029	0.053375397
56	0x3ddc49a9	0.10756237
57	0x3d68310f	0.05668741
58	0x3d58d050	0.052933037
59	0xbde6c782	-0.11268522
60	0x3cc51b5b	0.024060896
61	0x3dfb63fe	0.12274931
62	0x3e04403b	0.12915127
63	0xbdb66ef7	-0.089078836
64	0xbd549acf	-0.05190545
65	0x3ba58c4e	0.005052126
66	0xbde6fcaf	-0.11278664
67	0x3e050788	0.12991154
68	0xbd402ccc	-0.04691772
69	0x3ce1ce95	0.027564326
70	0xbd6d0c50	-0.05787307
71	0x3c0f2697	0.008737228
72	0xbe04b489	-0.12959494
73	0xbdc1fb51	-0.09471763
74	0xbe0127fe	-0.12612912
75	0xbdae4d0a	-0.08510788
76	0x3dadf617	0.084942035
77	0x3da65104	0.08120921
78	0xbde09c8e	-0.109673604
79	0x3cc6ab30	0.02425155
80	0xbdf85640	-0.12125826
81	0xbc8dbbd8	-0.017301485
82	0xbe06b078	-0.13153255
83	0x3d8f5c9f	0.07000088
84	0x3cc4d49c	0.024027161
85	0x3df3e1eb	0.11908325
86	0x3d9f6978	0.077837884
87	0xbe027d0c	-0.12743014
88	0xbd1db346	-0.038501047
89	0x3de3b42e	0.11118351
90	0x3de6585e	0.112473235
91	0x3dc2e234	0.09515801
92	0x3dffd7f4	0.12492362
93	0x3aa14a83	0.0012305531
94	0x3d318e15	0.04334839
95	0x3d9cf865	0.07664565
96	0x3cd7fa06	0.026364338
97	0x3cbf5f8b	0.023360988
98	0x3df12ca9	0.117760964
99	0xbc8fd7c1	-0.017558934
100	0xbe8101ec	-0.2519678
101	0xbeb497fd	-0.35272208
102	0xbec4ab61	-0.38412002
103	0xbe311d2d	-0.17296286
104	0x3da9288e	0.08259688
105	0xbe1bcda2	-0.15215161
106	0xbd3a1b06	-0.045435928
107	0xbe1c799d	-0.15280767
108	0xbebbfd30	-0.36716604
109	0x3e3c49a8	0.18387473
110	0x3ebc85dc	0.36820877
111	0x3e00ebb5	0.12589915
112	0x3de60e3f	0.11233186
113	0x3e9ec97e	0.310131
114	0x3e92e1ed	0.28687993
115	0x3dfcf337	0.12351077
116	0x3e987e06	0.29783648
117	0xbe7262fc	-0.23670572
118	0xbe8c3b44	-0.27388966
119	0x3e9a0d38	0.3008821
120	0x3e136e96	0.14397654
121	0xbeb5558d	-0.35416833
122	0xbe954570	-0.2915454
123	0x3da71eed	0.081601955
124	0xbe36c743	-0.1784945
125	0x3d9e89d6	0.07741134
126	0x3e3fd7ac	0.18734616
127	0x3e516ec1	0.20452406
128	0xbdd2160e	-0.10258113
129	0x3ea55f04	0.32299054
130	0xbe2f763a	-0.17134944
131	0xbea9cb8f	-0.33163115
132	0x3e7a2d40	0.24431324
133	0xbba392ee	-0.0049918806
134	0x3e9381f7	0.28810093
135	0x3ebe52d2	0.37172562
136	0xbe6b0e47	-0.22954665
137	0x3e7ef855	0.24899419
138	0xbe83404a	-0.25634986
139	0x3e5c8de8	0.21538508
140	0xbe2a76ff	-0.16646956
141	0xbe9bd856	-0.3043849
142	0xbcb7cf24	-0.02243764
143	0x3e4c8b2f	0.1997497
144	0xbe690d0c	-0.22758883
145	0x3e18b1fe	0.14911649
146	0x3ddf5af6	0.10906021
147	0x3ec2b806	0.38031024
148	0x3eb40c63	0.351657
149	0x3e2da6de	0.16958186
150	0x3e250147	0.16113769
151	0x3ed3ad09	0.41342953
152	0xbe34a351	-0.17640425
153	0x3e40995b	0.188085
154	0x3e125957	0.14291893
155	0x3e8cfc9d	0.2753648
156	0x3e728f20	0.2368741
157	0xbe64e696	-0.22353587
158	0x3ecf61ed	0.405044
159	0x3e1ac727	0.15115033
160	0x3ec12219	0.37721327
161	0x3e99ca3f	0.30037114
162	0x3cd2365e	0.02566069
163	0x3ecdf320	0.40224552
164	0x3ca73142	0.02040923
165	0x3da460cc	0.08026275
166	0x3e9ed88c	0.31024587
167	0x3cd14f48	0.0255505
168	0xbe57f74c	-0.2109043
169	0x3e4d8786	0.2007123
170	0xbc1ece00	-0.009692669
171	0x3e35b7f9	0.17745961
172	0xbd87aa44	-0.066242725
173	0x3e9ed835	0.31024328
174	0x3d709170	0.05873245
175	0x3cc8b9f8	0.02450274
176	0x3e9b2a7a	0.30305845
177	0x3e270d89	0.16313757
178	0x3e49dc50	0.19712949
179	0x3edc21f9	0.4299467
180	0x3e933f47	0.28759214
181	0x3ee35843	0.44403276
182	0xbd9cb3ad	-0.07651458
183	0x3dbeaf04	0.09310725
184	0x3ea5d518	0.3238914
185	0x3e26e50d	0.16298313
186	0x3e9a9473	0.30191383
187	0x3ebf2dff	0.3733978
188	0x3dd5a750	0.10432303
189	0x3e3091aa	0.17243066
190	0x3e931b27	0.28731653
191	0xbdb7959b	-0.08964082
192	0xbca8efb0	-0.020622104
193	0x3db9bced	0.09069238
194	0x3e37b023	0.17938285
195	0x3e08df5e	0.13366458
196	0xbd33e337	-0.04391786
197	0x3ed60d4f	0.4180703
198	0x3e0c3dc5	0.13695438
199	0x3ed58385	0.41701904

lstm.bias_hh_l0 f4 [200]
0	0x3dc5d1b9	0.09659142
1	0xbdbb1037	-0.09133952
2	0xbe924101	-0.2856522
3	0x3edcee34	0.43150485
4	0x3d2cc0ee	0.04217618
5	0x3e6940d2	0.22778633
6	0xbd3001f0	-0.042970598
7	0xbe154a8a	-0.14579216
8	0x3ebee905	0.37287155
9	0x3e2421d2	0.16028526
10	0x3ea53efa	0.3227461
11	0x3e81c850	0.2534814
12	0x3e267f43	0.16259484
13	0x3e78ccd1	0.24296881
14	0xbb97c142	-0.0046311924
15	0x3e690453	0.22755556
16	0x3eb218b4	0.34784472
17	0x3dc7b2a5	0.097508706
18	0x3e9b13d1	0.30288556
19	0x3e1af531	0.15132596
20	0x3c0a29a0	0.008432776
21	0x3e882fd8	0.26599002
22	0xbcd46af3	-0.025929904
23	0x3e803399	0.25039366
24	0x3e0a1476	0.13484368
25	0x3e60d1ca	0.21955028
26	0x3e9c5287	0.30531713
27	0x3d34c929	0.044137154
28	0x3ea256a8	0.31706738
29	0x3e6c29ea	0.23062864
30	0x3cd22968	0.02565451
31	0x3e40db54	0.18833667
32	0x3ea1b8ba	0.31586248
33	0x3e4153f2	0.18879679
34	0x3d4cca7d	0.049997795
35	0x3eaf27b9	0.34209993
36	0x3e62daed	0.22153826
37	0x3e74941e	0.23884627
38	0x3dc36700	0.0954113
39	0x3e957dbc	0.2919749
40	0x3ec1b7d4	0.37835562
41	0x3e471827	0.19442807
42	0x3e5de94d	0.21671028
43	0x3e812e61	0.25230697
44	0x3e5ca6c1	0.21547987
45	0x3e02b6a9	0.12764992
46	0x3e4e3aea	0.20139661
47	0x3e8011cf	0.25013587
48	0x3f077a54	0.5292103
49	0x3ee0ff31	0.43944696
50	0xbd770cbb	-0.060314875
51	0xbcd8f238	-0.026482686
52	0xbcabe49a	-0.02098303
53	0xbdaca029	-0.084289856
54	0x3e020666	0.12697753
55	0xbe02e00f	-0.12780784
56	0xbd393f72	-0.04522652
57	0xbd801a35	-0.062549986
58	0xbb950f29	-0.0045489264
59	0x3cc4846c	0.023988925
60	0xbd781515	-0.06056698
61	0xbce4d9ec	-0.027935944
62	0xbe0f7389	-0.14008917
63	0xbd6066e1	-0.054785613
64	0xbcef370e	-0.029201057
65	0xbd43a418	-0.047763914
66	0xbdd8aab7	-0.10579436
67	0xbccdee62	-0.025138084
68	0xbd4f91e9	-0.05067626
69	0x3dd9f7d3	0.10642972
70	0x3c404250	0.01173456
71	0x3d53968a	0.051657237
72	0xbdf8a60e	-0.121410474
73	0x3ce36f99	0.027763175
74	0xbd64354a	-0.055714883
75	0x3e0e9293	0.13923101
76	0x3d6cdac8	0.057825834
77	0xbd8fd94b	-0.07023867
78	0x3e0ca7b3	0.13735847
79	0x3de6539b	0.11246415
80	0x3de68236	0.112553045
81	0x3d08c8be	0.033394568
82	0x3d1547d1	0.036445443
83	0xbd7d52fe	-0.061846726
84	0x3d6c895b	0.05774818
85	0xbd0de4fb	-0.0346422
86	0x3db777ab	0.08958372
87	0x3d96d4ae	0.07364784
88	0xbc58bdaf	-0.013228818
89	0xbd2afe28	-0.04174629
90	0x3dd42656	0.103588745
91	0xbdb4b645	-0.08823828
92	0x3db05da3	0.0861161
93	0x3dc414bc	0.09574267
94	0xbd87920f	-0.06619655
95	0xbe049d84	-0.12950712
96	0xbe06fc44	-0.13182169
97	0x3d4071fd	0.046983708
98	0xbdf3fb84	-0.11913207
99	0x3d9313e6	0.0718153
100	0xbeae6e92	-0.34068733
101	0xbe4e173c	-0.2012605
102	0xbe561691	-0.20907046
103	0xbe8002d1	-0.2500215
104	0x3e83a5fa	0.25712568
105	0xbebc2877	-0.36749622
106	0xbe168259	-0.14698161
107	0xbe180384	-0.14845091
108	0xbea68b2a	-0.3252805
109	0x3e9cca50	0.30623102
110	0x3ec0619c	0.3757447
111	0x3ec11b64	0.3771621
112	0x3dc68ad2	0.096944466
113	0x3ea9a83a	0.3313616
114	0x3e382626	0.17983302
115	0x3e9b6416	0.30349797
116	0x3e9e7b3d	0.30953398
117	0xbddfd11e	-0.10928558
118	0xbe9e2e89	-0.30894879
119	0x3e149697	0.1451057
120	0x3e56dd65	0.20982893
121	0xbece535a	-0.40297967
122	0xbe2c979d	-0.16854711
123	0x3e9b6d7a	0.3035696
124	0xbea19378	-0.31557822
125	0x3d95a2dc	0.073064536
126	0x3e5cee23	0.21575217
127	0x3eb79f87	0.35863897
128	0xbe6c4cc8	-0.23076165
129	0x3e8dad61	0.2767134
130	0xbe84987a	-0.2589758
131	0xbe835dbe	-0.25657457
132	0x3e671dc6	0.22569951
133	0x3d0fa91c	0.035073385
134	0x3e9000b4	0.28125536
135	0x3e515abe	0.20444772
136	0xbe5a607e	-0.21325871
137	0x3def6f2f	0.116911285
138	0xbd4462ca	-0.047945775
139	0x3e8d28fa	0.27570325
140	0xbecb954b	-0.3976234
141	0xbe3529a1	-0.17691661
142	0xbdb2b212	-0.087253705
143	0x3e6cf19e	0.23139045
144	0xbe0965aa	-0.13417688
145	0x3eb046bf	0.34428975
146	0x3e58c8d5	0.21170361
147	0x3e8d7b78	0.27633262
148	0x3ea22e17	0.3167579
149	0x3e8b1c97	0.2717025
150	0x3e09d5ab	0.13460414
151	0x3ed169aa	0.40900928
152	0xbe8ec310	-0.27883196
153	0x3d387019	0.04502878
154	0x3df23840	0.11827135
155	0x3e9cfddb	0.30662426
156	0xbb383401	-0.0028107169
157	0xbe6bc72c	-0.23025197
158	0x3e821752	0.25408417
159	0x3e2b529f	0.16730736
160	0x3e876d65	0.2645065
161	0x3e8a120b	0.2696689
162	0x3dd2248d	0.10260878
163	0x3ed64364	0.4184829
164	0xbd438d0b	-0.04774193
165	0x3cc2e7cd	0.023792172
166	0x3e7af584	0.2450772
167	0x3e2e7a51	0.17038848
168	0xbe94421f	-0.28956696
169	0x3e31ae79	0.17351712
170	0xbb650a84	-0.0034948895
171	0x3d1831c7	0.037156846
172	0xbb924709	-0.0044640345
173	0x3e073318	0.13203084
174	0x3dbc9748	0.09208542
175	0x3ddcc929	0.10780556
176	0x3ed062b7	0.40700313
177	0x3e8a4b18	0.27010417
178	0x3e84a59b	0.25907597
179	0x3eb2e5c9	0.34940937
180	0x3d8b4d49	0.0680185
181	0x3e643a19	0.22287787
182	0xbca6ca1f	-0.02036005
183	0xbceeeefb	-0.02916669
184	0x3e755505	0.23958214
185	0xbcfa63e4	-0.03056521
186	0x3ec12450	0.37723017
187	0x3e95e3e8	0.2927544
188	0x3db8e266	0.09027557
189	0x3eb358da	0.35028726
190	0x3f04132b	0.5159175
191	0x3d9eca71	0.077534564
192	0x3d199869	0.037498865
193	0x3dc2e9aa	0.09517224
194	0x3e726ea1	0.23675014
195	0x3e877388	0.2645533
196	0xbe5a51c7	-0.21320258
197	0x3edce2db	0.43141827
198	0x3d901eb0	0.07037103
199	0x3e695c7f	0.2278919

lstm.weight_ih_l1 f4 [200, 50]
0	0xbe86e862	-0.2634917
1	0xbf6868f6	-0.9078516
2	0xbd6a6a39	-0.057230208
3	0xbe6fc874	-0.2341631
4	0x3eb9dfbe	0.36303514
5	0xbf3a2e38	-0.72726774
6	0xbf061509	-0.5237585
7	0xbee7f8e7	-0.45307085
8	0xbea575b0	-0.3231635
9	0x3efb373f	0.49065587
10	0x3ec354f9	0.38150766
11	0x3ea10631	0.31450036
12	0x3ede538c	0.43423116
13	0x3f609dd8	0.8774085
14	0x3f141b55	0.57854205
15	0x3ea4476d	0.32085744
16	0x3f2851e6	0.6574997
17	0xbea9a95d	-0.33137026
18	0xbebed805	-0.37274185
19	0x3eea2063	0.45727834
20	0x3ed657c6	0.4186384
21	0xbea233ce	-0.3168015
22	0xbeb51fb1	-0.3537574
23	0x3f18c755	0.59679157
24	0xbf203204	-0.6257632
25	0x3ea6c139	0.32569292
26	0x3f924d35	1.1429812
27	0x3e6a77b3	0.22897224
28	0xbee90420	-0.4551096
29	0x3f055240	0.5207863
30	0xbf226e48	-0.63449526
31	0xbef06ac5	-0.4695646
32	0x3ec199f6	0.37812775
33	0xbebe10aa	-0.3712209
34	0x3f1095cb	0.56478566
35	0x3f00693c	0.50160575
36	0xbef477c7	-0.47747633
37	0x3f0adefd	0.54246503
38	0xbed705f0	-0.41996717
39	0x3dda9e1e	0.1067469
40	0xbf80002b	-1.0000051
41	0xbe46cd29	-0.194142
42	0xbed43a44	-0.41450703
43	0x3eba0ba7	0.36337015
44	0xbed3c413	-0.4136053
45	0x3f0c48eb	0.54798764
46	0x3ea55314	0.32289946
47	0x3f047234	0.5173676
48	0x3f3d1a60	0.7386837
49	0x3ef8271d	0.4846734
50	0xbe9b2bd8	-0.30306888
51	0xbf085d70	-0.53267574
52	0xbdb45741	-0.08805705
53	0xbe6b19ca	-0.22959056
54	0x3e9be6f2	0.30449635
55	0xbf32988b	-0.6976401
56	0xbee4613c	-0.44605434
57	0xbea16f92	-0.31530434
58	0xbf0fd0a6	-0.5617775
59	0x3f293ab6	0.6610521
60	0x3eb378cc	0.35053098
61	0x3ea303a0	0.31838703
62	0x3ee667a7	0.45000955
63	0x3f553c81	0.83295447
64	0x3f2d5b28	0.6771722
65	0x3eb0ea3f	0.34553716
66	0x3f1f3621	0.6219197
67	0xbec6798b	-0.38764605
68	0xbf09eb58	-0.5387473
69	0x3f08a5de	0.53378093
70	0x3e98d8f8	0.29853034
71	0xbf0c8662	-0.5489255
72	0xbf05f6dd	-0.5232981
73	0x3f14f11a	0.5818039
74	0xbf43a443	-0.7642252
75	0x3ecfd504	0.40592206
76	0x3f9d6b66	1.22984
77	0x3e7d555a	0.2473959
78	0xbed0b7f7	-0.40765354
79	0x3f24b38f	0.64336485
80	0xbf393568	-0.72347116
81	0xbea12167	-0.31470796
82	0x3f0e99c5	0.55703384
83	0xbedaddf6	-0.42747468
84	0x3ed000aa	0.40625507
85	0x3eb9cdd2	0.3628984
86	0xbeb59180	-0.3546257
87	0x3f0a5169	0.5403047
88	0xbeffebda	-0.49984628
89	0x3dda1e03	0.106502555
90	0xbf8f7b7e	-1.1209562
91	0xbe9f4291	-0.31105474
92	0xbf10901d	-0.564699
93	0x3efc171c	0.4923638
94	0xbf21b404	-0.6316531
95	0x3f1c78f8	0.61122084
96	0x3e8e8bfb	0.27841172
97	0x3edf3ef4	0.43602717
98	0x3f079727	0.52965015
99	0x3ef6ecf2	0.4822765
100	0xbe9bdded	-0.30442753
101	0xbf618015	-0.8808606
102	0xbec9bbd5	-0.39401117
103	0xbe9c5642	-0.3053456
104	0x3e21ecf0	0.1581304
105	0xbef7cfd6	-0.48400754
106	0xbefb35d9	-0.4906452
107	0xbe8a0626	-0.26957816
108	0xbed927a3	-0.42413053
109	0x3f54f506	0.83186376
110	0x3e9e177f	0.308773
111	0x3eb8118d	0.3595089
112	0x3ee422f1	0.44557908
113	0x3f53cf33	0.82738036
114	0x3f26ba53	0.6512806
115	0x3ef57c9e	0.47946638
116	0x3f349e52	0.7055408
117	0xbef7e78a	-0.48418838
118	0xbf1f3ff2	-0.6220695
119	0x3e902eeb	0.28160796
120	0x3ecc5e8e	0.3991589
121	0xbecf6678	-0.40507865
122	0xbf21397c	-0.6297834
123	0x3ebda32b	0.3703855
124	0xbf27fd63	-0.6562101
125	0x3f057721	0.521349
126	0x3f74a70e	0.95567405
127	0x3ed41046	0.41418666
128	0xbea930d3	-0.33045062
129	0x3f1e8ead	0.61936456
130	0xbf5a4a22	-0.8526937
131	0xbecc00db	-0.39844403
132	0x3eef5223	0.46742353
133	0xbedc6799	-0.4304779
134	0x3f09d3c2	0.5383874
135	0x3f2974aa	0.6619364
136	0xbef0c1fe	-0.47023004
137	0x3ef1f803	0.4725953
138	0xbed1dec9	-0.40990284
139	0x3e052dd5	0.13005765
140	0xbf51bc0f	-0.8192758
141	0xbe40d6cd	-0.1883194
142	0xbf09eee6	-0.53880155
143	0x3f107b02	0.56437695
144	0xbf0cde78	-0.5502696
145	0x3f13f8e7	0.5780167
146	0x3eeb43c5	0.45950142
147	0x3f157979	0.5838848
148	0x3f3c5186	0.73561895
149	0x3e97f9e9	0.29682854
150	0xbe75e44b	-0.24012868
151	0xbf1fcbcb	-0.6242034
152	0xbe92d1fc	-0.2867583
153	0xbed55c7a	-0.41672117
154	0x3ece41a7	0.40284464
155	0xbf354c83	-0.7081987
156	0xbeedaeb5	-0.46422353
157	0xbec7a520	-0.38993168
158	0xbf03f613	-0.51547354
159	0x3f221d04	0.63325524
160	0x3ece0125	0.40235248
161	0x3ea0beba	0.31395513
162	0x3ef5f7b4	0.48040545
163	0x3f247bab	0.642512
164	0x3f292b5e	0.660818
165	0x3ee8fa7b	0.455036
166	0x3f095abc	0.53654075
167	0xbee2831a	-0.44240648
168	0xbedcd498	-0.43130946
169	0x3edaeba5	0.42757908
170	0x3e190e5f	0.14946888
171	0xbe841096	-0.25793904
172	0xbee3fa3c	-0.4452685
173	0x3f084209	0.5322576
174	0xbf34abe3	-0.7057478
175	0x3f1320df	0.5747203
176	0x3f90dafd	1.131683
177	0x3ecad161	0.39612868
178	0xbeb09c66	-0.34494323
179	0x3ecc31f1	0.39881852
180	0xbf22a2fe	-0.63529956
181	0xbe94d7a5	-0.29070774
182	0x3ee78bb9	0.45223787
183	0xbef69770	-0.48162413
184	0x3ed49ab6	0.41524285
185	0x3f20ef38	0.6286502
186	0xbef92257	-0.48659012
187	0x3f1be5c4	0.6089747
188	0xbec6181d	-0.38690272
189	0x3e0ac187	0.13550387
190	0xbf71591e	-0.9427661
191	0xbeafbc29	-0.34323242
192	0xbf106ea4	-0.56418824
193	0x3ead9d41	0.33909038
194	0xbf17f649	-0.59360176
195	0x3ee84757	0.45366928
196	0x3f05bce2	0.5224134
197	0x3ede5b87	0.43429205
198	0x3ee83080	0.45349503
199	0x3ea9829c	0.3310746
200	0xbe69cdff	-0.22832488
201	0xbf634e8f	-0.88791746
202	0xbcf7c92d	-0.030247295
203	0xbe9c0c20	-0.30478
204	0x3e8b1165	0.27161708
205	0xbf2656ea	-0.6497637
206	0xbf08e60e	-0.53476036
207	0xbec77933	-0.38959655
208	0xbf00a6d2	-0.5025455
209	0x3f52398d	0.82119066
210	0x3ef10831	0.47076562
211	0x3edd7004	0.43249524
212	0x3eee4562	0.4653731
213	0x3f5e55a6	0.8684944
214	0x3f39f7e7	0.72643894
215	0x3ec89657	0.391772
216	0x3f547ce6	0.8300308
217	0xbf15492c	-0.58314776
218	0xbef3d33a	-0.4762209
219	0x3edc2c34	0.43002474
220	0x3e417d85	0.18895538
221	0xbe9fce62	-0.31212145
222	0xbf29af18	-0.66282797
223	0x3ed06217	0.40699837
224	0xbf06fb4e	-0.5272721
225	0x3f0639da	0.52432024
226	0x3f9476fe	1.1598814
227	0x3e282e92	0.16424015
228	0xbeee9237	-0.46595928
229	0x3f239b85	0.6390918
230	0xbf8860fa	-1.0654595
231	0xbeed9649	-0.4640372
232	0x3ee2d5dc	0.44303787
233	0xbed43b6b	-0.41451582
234	0x3ee30f15	0.44347444
235	0x3efefa1c	0.49800193
236	0xbebe89c4	-0.37214482
237	0x3ea0c713	0.31401882
238	0xbee31053	-0.44348392
239	0x3e705f5c	0.23473877
240	0xbf938b79	-1.1526939
241	0xbeb1d0a5	-0.34729496
242	0xbf031a36	-0.5121187
243	0x3eeb3345	0.45937553
244	0xbf01c2c7	-0.5068783
245	0x3ea41691	0.32048467
246	0x3e222739	0.15835275
247	0x3f1f3d37	0.6220278
248	0x3f431476	0.76203096
249	0x3f06bc1e	0.52630794
250	0xbeb536e9	-0.35393456
251	0xbf3caa36	-0.7369722
252	0x3afe577a	0.0019404732
253	0xbe9b9526	-0.3038723
254	0x3e15e015	0.14636262
255	0xbf025928	-0.5091729

lstm.weight_hh_l1 f4 [200, 50]
0	0x3db6a4cd	0.08918152
1	0x3d3a7d3c	0.04552959
2	0x3d8663d0	0.065620065
3	0x3e0e1f0a	0.13879028
4	0x3dfffd08	0.12499434
5	0x3dd336c5	0.10313181
6	0xbc624a26	-0.013811624
7	0x3c05b960	0.008161873
8	0x3d782921	0.0605861
9	0xbc1cbcb5	-0.009566476
10	0x3e097664	0.13424069
11	0x3e105487	0.14094745
12	0xbcfe1789	-0.031017082
13	0xbd2fd699	-0.042929266
14	0x3ca716fa	0.020396698
15	0x3dea3a5b	0.11436912
16	0xbcb57ffd	-0.022155756
17	0x3d3b91c4	0.04579331
18	0xbe0f201a	-0.1397709
19	0x3d887e39	0.066647
20	0xbdf520c0	-0.11969137
21	0x3e087698	0.1332649
22	0x3dedb8f2	0.11607541
23	0x3d251466	0.040302657
24	0xbde9b295	-0.11411015
25	0xbe01344b	-0.12617604
26	0xbd38ea4f	-0.04514533
27	0xbd26fabf	-0.040766474
28	0x3cb946c8	0.022616759
29	0xbd52e6a5	-0.05148949
30	0x3da5b1ad	0.080905296
31	0x3dc9d84d	0.09855709
32	0x3db3c271	0.08777321
33	0x3cf76f68	0.03020449
34	0xbd0e2b36	-0.034709178
35	0xbe07e271	-0.13269974
36	0x3db6c719	0.089246936
37	0xbdc8c222	-0.09802653
38	0x3ddf8744	0.10914472
39	0x3dcf3b0b	0.101186834
40	0x3c47a6ac	0.012185734
41	0x3d3a39a7	0.045465138
42	0x3c3c9b4e	0.011511637
43	0x3d7cfc2e	0.061763935
44	0x3d7066cb	0.05869178
45	0x3deaf9c5	0.11473421
46	0x3d88780e	0.066635236
47	0xbdf69356	-0.12039821
48	0xbbbc3a80	-0.0057442784
49	0x3da19dad	0.078914024
50	0xbdf98b85	-0.12184814
51	0x3ca74347	0.020417823
52	0x3cb64a54	0.02225224
53	0xbd5dfd61	-0.05419672
54	0x3bcebf5f	0.0063094343
55	0x3ce6a5a5	0.028155157
56	0x3dde21d5	0.10846297
57	0xbc81c895	-0.015842715
58	0x3e03fd29	0.12889542
59	0xbd91cd33	-0.07119217
60	0x3c8d2665	0.017230222
61	0x3e0056df	0.12533139
62	0xbdf9965e	-0.121868834
63	0xbe0c8235	-0.13721545
64	0x3a6781bc	0.00088312826
65	0xbd62f904	-0.05541326
66	0xbd4186ed	-0.047247816
67	0xbdf7ac8e	-0.12093459
68	0xbd9dfd5c	-0.0771434
69	0xbdd09fe7	-0.10186749
70	0x3c556f10	0.013026968
71	0xbd13fb17	-0.03612813
72	0xbdb2ee9c	-0.087369174
73	0xbd547f2d	-0.051879097
74	0xbdb18146	-0.08667235
75	0x3e00c32b	0.1257445
76	0xbbe4ec06	-0.006986144
77	0x3be2d0ed	0.0069218786
78	0x3e0246af	0.12722276
79	0x3d205251	0.039141003
80	0x3ddd276d	0.107985355
81	0xbd9c2482	-0.07624151
82	0xbd3add8b	-0.045621436
83	0x3caa9e06	0.020827305
84	0x3c754a7b	0.014971371
85	0x3dbfa89d	0.09358332
86	0x3c2eea51	0.010675983
87	0x3dcfea0f	0.10152065
88	0x3e0e0a71	0.1387117
89	0xbe079976	-0.13242134
90	0xbb9478f9	-0.0045310226
91	0x3e01fed4	0.12694865
92	0x3dc97b2c	0.09837946
93	0xbd73fb6b	-0.059565943
94	0x3cfe8727	0.031070305
95	0x3c132d20	0.008982927
96	0xbdbd0cbe	-0.09230946
97	0xbde2d067	-0.11074906
98	0xbcb1a894	-0.02168683
99	0x3c694fd4	0.014240224
100	0xbd4b2802	-0.0495987
101	0xbd8e19b6	-0.06938498
102	0xbc7ddd0e	-0.015494598
103	0xbd833f0e	-0.06408511
104	0xbdbd2515	-0.092355885
105	0x3da4156d	0.08011899
106	0x3dde10b3	0.10843029
107	0xbd8b9fa8	-0.068175614
108	0x3dabe262	0.083927885
109	0xbd005aa3	-0.031336438
110	0xbd2b8c3b	-0.04188178
111	0xbd84dd6e	-0.06487547
112	0x3d96536a	0.07340129
113	0x3e013425	0.12617548
114	0xbd1f01e0	-0.038820148
115	0xbe08f789	-0.13375677
116	0xbd8b3ad5	-0.06798331
117	0xbd9fe5cb	-0.078075014
118	0xbdfa90ca	-0.122346476
119	0xba89cb03	-0.0010512773
120	0x3de5685e	0.11201547
121	0x3dd94acd	0.1060997
122	0xbd3ede5b	-0.046598773
123	0xbd96f4ae	-0.07370888
124	0x3c7875ac	0.015164774
125	0xbe0414a3	-0.12898497
126	0xbd7cbe45	-0.061704893
127	0xbb577f0f	-0.003288213
128	0xbccecb6d	-0.025243485
129	0xbd838f8d	-0.064238645
130	0x3dd659e7	0.10466366
131	0xbdddd104	-0.10830882
132	0x3cb6320a	0.022240657
133	0x3c49acd7	0.012309275
134	0x3def3647	0.116802745
135	0x3c8c89c5	0.017155537
136	0xbe082956	-0.13297018
137	0x3d03f6e0	0.03221786
138	0x3dee05e1	0.11622215
139	0xbd81163d	-0.0630307
140	0x3b7b9983	0.003839106
141	0xbd1d9765	-0.03847446
142	0xbd4f285b	-0.050575595
143	0xbdb65281	-0.08902455
144	0x3d5a191a	0.053246595
145	0xbd4a2e14	-0.04936035
146	0x3ce6458d	0.028109336
147	0x3da134de	0.07871412
148	0x3c5bf935	0.013426115
149	0x3b6f57f0	0.003652092
150	0xbe0f8294	-0.14014655
151	0x3c101506	0.008794075
152	0x3cb2b782	0.021816019
153	0x3e0388d5	0.12845166
154	0xbdd5c517	-0.104379825
155	0x3c9edda3	0.019392794
156	0x3db90999	0.09035034
157	0x3dd09f32	0.10186614
158	0xbd687b4a	-0.056758203
159	0xbe03c240	-0.12867069
160	0x3e02c453	0.12770204
161	0xbd338a47	-0.043833043
162	0x3c9ece27	0.01938541
163	0xbd35b302	-0.04436017
164	0xbcab6e17	-0.020926518
165	0x3cb4e09b	0.022079756
166	0xbd00420c	-0.031312987
167	0x3dd6d646	0.10490088
168	0xbe0a6b8b	-0.13517587
169	0x3c77cf02	0.015125038
170	0xbd82de3e	-0.063900456
171	0x3cc425fd	0.023943895
172	0x3e03b436	0.12861714
173	0xbde501d9	-0.11181993
174	0x3d0f9185	0.035050888
175	0xbdfef519	-0.124490924
176	0x3d1881f7	0.03723332
177	0x3dff6a7c	0.12471482
178	0xbd9dff0a	-0.077146605
179	0xbd8af013	-0.06784072
180	0x3dda0a0a	0.10646446
181	0x3e04d06a	0.12970129
182	0x3e0789a1	0.13236095
183	0x3da0cb98	0.078513324
184	0x3df5f7cd	0.12010155
185	0x3cfca3ab	0.030839762
186	0xbe0ab021	-0.1354375
187	0xbe04f47c	-0.12983888
188	0xbdd62491	-0.10456193
189	0xbd22491b	-0.0396205
190	0xbce351e7	-0.027749015
191	0x3cf77d17	0.030211015
192	0xbe0c68be	-0.13711831
193	0xbe0a966f	-0.13533948
194	0xbd907c55	-0.070549645
195	0x3e0d1461	0.13777305
196	0xbd62d1c1	-0.05537582
197	0x3d347c64	0.04406394
198	0xbc6685dd	-0.014070001
199	0x3d4725d1	0.04862005
200	0xbdd620d0	-0.10455477
201	0x3c1feda0	0.009761244
202	0xbcab8a84	-0.020940073
203	0xbde2248f	-0.11042129
204	0xbccd51f9	-0.025063502
205	0xbdaad52b	-0.0834144
206	0xbda48b38	-0.08034366
207	0x3d24da22	0.04024709
208	0x3d001bdd	0.031276572
209	0x3cb3ab3f	0.021932242
210	0xbd22c609	-0.039739642
211	0xbdb252d8	-0.087072074
212	0xbd265982	-0.040612705
213	0xbe0d9c3a	-0.13829127
214	0xbda0b5e1	-0.07847191
215	0x3da9e77c	0.08296105
216	0xbcb13674	-0.02163241
217	0x3d6260c7	0.055268075
218	0x3d502cfb	0.050824147
219	0xbc869d34	-0.016432382
220	0x3db27a41	0.08714724
221	0xbdfedf32	-0.12444915
222	0x3d19744b	0.03746442
223	0xbd7d27e5	-0.061805625
224	0xbccbbed1	-0.024871262
225	0x3d96b6e3	0.073591016
226	0x3da2102f	0.07913243
227	0xbd2e95a4	-0.042623177
228	0xbc95de61	-0.018294515
229	0xbd99a746	-0.07502608
230	0x3d7ea76e	0.062171392
231	0xbd891fc1	-0.0669551
232	0x3dd7c908	0.105363905
233	0x3d793f9b	0.060851675
234	0x3d695111	0.056962077
235	0x3e01b7cf	0.12667774
236	0x3d8fd293	0.07022586
237	0xbcca98fa	-0.024731148
238	0xbd950144	-0.07275632
239	0xbd94a8ea	-0.0725878
240	0x3e010748	0.12600434
241	0xbd2989dd	-0.041391242
242	0x3e0560ef	0.13025258
243	0x3d95a1ce	0.073062524
244	0x3dee5e68	0.116391
245	0xbd284dc9	-0.041089807
246	0xbd65a818	-0.05606851
247	0x3d26ef66	0.040755652
248	0x3d742bb2	0.059611984
249	0xbd60d0a0	-0.05488646
250	0xbbc66e45	-0.0060556256
251	0xbd8147f5	-0.06312553
252	0x3b9affdd	0.0047302083
253	0xbdf75b14	-0.12077919
254	0x3e0dd484	0.138506
255	0xbd8a1480	-0.06742191

lstm.bias_ih_l1 f4 [200]
0	0x3ee7bad8	0.45259738
1	0x3ef1a775	0.47198072
2	0x3eb02c9c	0.34409034
3	0x3f088a83	0.5333635
4	0x3ed99dda	0.42503244
5	0x3eccdadc	0.40010726
6	0x3f13868b	0.5762717
7	0x3f00e96e	0.50356185
8	0x3f0598fb	0.52186555
9	0x3ed2d895	0.41180864
10	0x3eec97d6	0.46209592
11	0x3ec5dd4d	0.38645402
12	0x3f00d0cf	0.50318617
13	0x3eaa4846	0.33258265
14	0x3e1fcf31	0.15606381
15	0x3ee6ba71	0.45064119
16	0x3f04f296	0.51932657
17	0x3ee38b1c	0.4444207
18	0x3ecffb5c	0.4062146
19	0x3f08c622	0.53427327
20	0x3f027296	0.50956094
21	0x3f330182	0.69924176
22	0x3f12806f	0.57227224
23	0x3ecc8b8c	0.39950216
24	0x3eecdfac	0.46264398
25	0x3f0fdd95	0.5619748
26	0x3f32e872	0.69885933
27	0x3f0ba838	0.54553556
28	0x3ed7a773	0.4211994
29	0x3e987451	0.29776242
30	0x3edc36be	0.43010515
31	0x3f0e7434	0.5564606
32	0x3eecf026	0.4627697
33	0x3e8572fd	0.26064292
34	0x3f0a847b	0.541084
35	0x3eb96593	0.36210307
36	0x3f1aa233	0.60403746
37	0x3eb15689	0.34636334
38	0x3ea5db1f	0.3239374
39	0x3f16b302	0.58866894
40	0x3f081992	0.5316402
41	0x3ef09e5f	0.46995828
42	0x3ef9d1ef	0.4879298
43	0x3ecfc9d4	0.4058367
44	0x3ec13f76	0.3774373
45	0x3eeb4aea	0.45955592
46	0x3ef782dd	0.48342028
47	0x3ef8bca4	0.4858142
48	0x3f128c8c	0.5724571
49	0x3eb15e48	0.34642243
50	0xbe052048	-0.13000596
51	0x3d82749c	0.06369898
52	0x3d9bc69d	0.07606242
53	0xbdaafd5a	-0.08349104
54	0x3ddb845e	0.107186064
55	0x3d897369	0.06711466
56	0xbb09ac77	-0.0021007338
57	0xbd4c3aee	-0.049860887
58	0x3ca78e7a	0.02045368
59	0x3c55835b	0.013031806
60	0xbd57a97c	-0.052651867
61	0x3c40ba06	0.011763101
62	0x3baf07a9	0.0053414893
63	0xbcb999de	-0.022656377
64	0x3ddde6c7	0.10835033
65	0x3e05a05a	0.1304945
66	0xbd6429e7	-0.055704024
67	0x3e034d44	0.12822443
68	0xbd8f9832	-0.07011451
69	0xbe067f77	-0.13134561
70	0xbd87a366	-0.06622963
71	0xbdaba3ff	-0.08380889
72	0xbdd47236	-0.103733465
73	0xbb428d36	-0.002968622
74	0xbc16a674	-0.009194959
75	0x3cd89ed1	0.026442917
76	0x3a79a17c	0.0009522659
77	0xbdea60ba	-0.114442304
78	0x3db6ddd9	0.08929033
79	0xbda3f52a	-0.08005746
80	0xbce107a3	-0.027469462
81	0xbd63dfbb	-0.055633288
82	0x3d2c0248	0.041994363
83	0xbd05fb35	-0.032710273
84	0xbdeaf8a4	-0.11473206
85	0x3d227e1b	0.039671045
86	0x3da709b4	0.081561476
87	0xbdd98011	-0.1062013
88	0xbd0a7744	-0.033805147
89	0xbda779cc	-0.08177528
90	0x3d5926ab	0.053015392
91	0x3dbbb2aa	0.09164937
92	0x3d28c88a	0.041206874
93	0xbcbc7e11	-0.023009332
94	0xbdbf98ef	-0.09355342
95	0x3cee91e0	0.029122293
96	0x3c80e0af	0.015732137
97	0xbd4d9e4e	-0.0501998
98	0x3e0e21fa	0.13880149
99	0x3d6b5a61	0.05745924
100	0x3e102d6f	0.14079832
101	0xbd6670fa	-0.056260087
102	0xbe13be4d	-0.14428063
103	0xbdf7436b	-0.12073406
104	0x3d1b35bf	0.037893053
105	0xbdd02b8a	-0.101645544
106	0x3df85329	0.121252365
107	0xbdc78c93	-0.09743609
108	0xbd89d018	-0.06729144
109	0xbdc17302	-0.09445764
110	0xbd02d65e	-0.031942718
111	0xbc356577	-0.011071554
112	0xbdd27c8b	-0.10277661
113	0xbdb55470	-0.08853996
114	0x3e092738	0.13393867
115	0x3d83c055	0.06433169
116	0xbd71a154	-0.058991745
117	0x3d76e328	0.060275227
118	0xbd474758	-0.048652023
119	0x3c60c27b	0.013718243
120	0x3d706512	0.05869014
121	0x3d563d1b	0.05230437
122	0x3cc960d6	0.024582308
123	0x3c1dadc1	0.009623946
124	0xbcf30de7	-0.029669715
125	0xbccb00f2	-0.024780724
126	0xbddb2872	-0.10701074
127	0xbd39c8b9	-0.04535744
128	0xba8db21a	-0.0010810525
129	0xbc23b239	-0.009991222
130	0xbdaa6ab4	-0.08321133
131	0x3e0f6a05	0.14005287
132	0x3da06e75	0.07833568
133	0x3d1e9b07	0.038722064
134	0xbcaf6eb9	-0.021415101
135	0x3dfb528f	0.12271606
136	0x3d889638	0.06669277
137	0xbd7a81dd	-0.061159004
138	0xbd83bc92	-0.06432451
139	0xbdec5018	-0.11538714
140	0xbd903b34	-0.07042542
141	0xbdbb6486	-0.09150033
142	0x3ce50ecb	0.027961155
143	0xbd98c1b7	-0.07458823
144	0x3d331c1a	0.04372797
145	0x3c07f74c	0.008298706
146	0x3da7ff39	0.08202977
147	0x3c994c7b	0.018713227
148	0xbc3ae32e	-0.011406703
149	0xbe04cf08	-0.12969601
150	0x3ee3f2f1	0.44521287
151	0x3f0a5abc	0.540447
152	0x3f00d48a	0.5032431
153	0x3f0eab7b	0.5573041
154	0x3ee8962e	0.45427078
155	0x3ea81b7c	0.3283347
156	0x3f1c6f98	0.6110778
157	0x3f1d5d0a	0.6147009
158	0x3ec16e5d	0.37779513
159	0x3efb03fb	0.49026474
160	0x3ec3169f	0.38103196
161	0x3edbe6a2	0.42949396
162	0x3f1187a6	0.5684761
163	0x3ea093af	0.31362674
164	0x3e91398f	0.28364226
165	0x3ee3c1af	0.44483706
166	0x3f3115c4	0.69173837
167	0x3f1447b7	0.5792193
168	0x3f08462c	0.53232074
169	0x3f082900	0.5318756
170	0x3f0a7af6	0.54093874
171	0x3f2c1081	0.6721268
172	0x3f034f40	0.512928
173	0x3e9cbc54	0.30612433
174	0x3e97b521	0.29630378
175	0x3efa2759	0.48858145
176	0x3f2498c5	0.6429561
177	0x3ef12381	0.470974
178	0x3f042d0e	0.5163125
179	0x3ed8d858	0.42352557
180	0x3ef2c302	0.47414404
181	0x3f0937f4	0.53601
182	0x3ee01aeb	0.43770537
183	0x3ea4eada	0.32210428
184	0x3efaa4fd	0.48954
185	0x3f1b9ad0	0.607831
186	0x3f1eeec3	0.6208307
187	0x3e83761b	0.25676045
188	0x3eb6cd40	0.35703468
189	0x3ec293d7	0.38003418
190	0x3ecf9b16	0.4054801
191	0x3ece4a53	0.4029108
192	0x3f2fb3e8	0.6863389
193	0x3f0b2179	0.5434795
194	0x3eb87031	0.36023095
195	0x3f04fe35	0.5195039
196	0x3f230d23	0.6369192
197	0x3ea05fd6	0.31323117
198	0x3f03f060	0.5153866
199	0x3f1bed71	0.6090918

lstm.bias_hh_l1 f4 [200]
0	0x3ef885ac	0.48539484
1	0x3f1a6dff	0.6032409
2	0x3ea9f270	0.33192778
3	0x3ebc3853	0.36761722
4	0x3efd9570	0.49528074
5	0x3ef8bfdf	0.48583886
6	0x3f192edc	0.59837127
7	0x3f1586a7	0.5840859
8	0x3ec72e99	0.3890274
9	0x3ed7b937	0.42133495
10	0x3e858238	0.26075912
11	0x3eb4c64f	0.35307547
12	0x3f144281	0.57913977
13	0x3f0a93b5	0.54131633
14	0x3eccfcf8	0.4003675
15	0x3f00977e	0.5023116
16	0x3ef8a0af	0.48560092
17	0x3f09128e	0.5354394
18	0x3ea6c2eb	0.32570586
19	0x3eab65c8	0.3347609
20	0x3f008cd4	0.50214887
21	0x3f103c37	0.5634188
22	0x3f02d0bb	0.5109975
23	0x3e98e402	0.29861456
24	0x3eadc8ed	0.33942357
25	0x3eb898ab	0.36053976
26	0x3f2cd190	0.67507267
27	0x3f1558fd	0.5833891
28	0x3ed3d7ce	0.41375583
29	0x3f0c5740	0.5482063
30	0x3e8af809	0.2714236
31	0x3eb97a48	0.36226106
32	0x3ee96d4c	0.455912
33	0x3ebdef1b	0.37096485
34	0x3ebaaed5	0.3646151
35	0x3f082862	0.5318662
36	0x3ec41859	0.38299826
37	0x3ee901ad	0.4550909
38	0x3eeeddb8	0.46653533
39	0x3ee00f0e	0.43761486
40	0x3efe9a19	0.49726942
41	0x3f1d4fde	0.6144999
42	0x3f02390d	0.508683
43	0x3ef4cc90	0.4781232
44	0x3eed867d	0.4639167
45	0x3f0f3f82	0.5595628
46	0x3eeca6ce	0.46221012
47	0x3f126dca	0.57198775
48	0x3f0d10b1	0.55103594
49	0x3eca819a	0.39552003
50	0xbd495c24	-0.049160138
51	0xbdc1a276	-0.09454815
52	0xbcbd137a	-0.023080576
53	0x3dc01596	0.09379117
54	0x3e10730a	0.14106384
55	0xbd9fb0b5	-0.07797376
56	0x3db97b8f	0.0905677
57	0x3d3a30ba	0.045456626
58	0xbd948fcb	-0.07253989
59	0x3de3702f	0.11105382
60	0x3de1b2a5	0.11020402
61	0x3e0ef1fe	0.139595
62	0xbdd9fa55	-0.1064345
63	0xbd38223c	-0.044954523
64	0xbc40a268	-0.011757471
65	0x3dc0ad11	0.0940801
66	0xbd7b6dd4	-0.061384037
67	0x3da9d532	0.08292617
68	0x3c74d63b	0.014943655
69	0xbd8e61cb	-0.06952246
70	0x3db2d231	0.08731497
71	0xbe0077fb	-0.12545769
72	0xbd3915ba	-0.045186736
73	0x3cd33a9d	0.025784785
74	0x3bb47a14	0.005507717
75	0x3d95ea5f	0.07320093
76	0x3d8baa58	0.068196
77	0x3e0ab8e6	0.13547096
78	0xbc8e9ab0	-0.017407745
79	0xbdd38f81	-0.103301056
80	0xbe0d015f	-0.13770054
81	0xbde4399c	-0.111438006
82	0xbd9cfd38	-0.07665485
83	0x3dcf50d2	0.10122837
84	0x3d9de235	0.07709161
85	0x3d94dc0e	0.072685346
86	0xbdcf6e14	-0.101284176
87	0x3df68953	0.12037911
88	0xbdc92490	-0.09821427
89	0xbe10c9cd	-0.14139481
90	0x39b974d9	0.00035373008
91	0x3de2a6bf	0.110669605
92	0x3dac81b4	0.084231764
93	0x3df30692	0.118664876
94	0x3dd9bb47	0.106314234
95	0xbc2a3dc0	-0.010390699
96	0xbd2460f8	-0.04013154
97	0x3cd21631	0.025645347
98	0xbd992c65	-0.07479171
99	0xbdc3557b	-0.095377885
100	0x3d0cbaae	0.03435772
101	0x3d406a9a	0.046976663
102	0x3d89efb5	0.067351736
103	0x3c823087	0.01589228
104	0xbda95271	-0.082676776
105	0x3d8065ce	0.06269418
106	0x3dfcf745	0.123518504
107	0x3dd163f1	0.102241404
108	0x3db79be2	0.08965279
109	0xbd74dc22	-0.059780248
110	0xbdc30f93	-0.09524455
111	0xbd69e790	-0.0571056
112	0xbd62d55a	-0.05537925
113	0xbdfc72c9	-0.12326581
114	0xbd22c479	-0.039738152
115	0xbdca8bf5	-0.09889976
116	0x3df54ec2	0.119779125
117	0x3d9eb526	0.07749395
118	0xbdd9a0c4	-0.10626367
119	0x3da50f1c	0.080595225
120	0xbd492e0a	-0.049116172
121	0x3e0cd404	0.13752753
122	0xbd925330	-0.07144773
123	0x3a451af7	0.00075189717
124	0xbd5417ab	-0.051780384
125	0xbc124632	-0.008927869
126	0x3dc57091	0.09640611
127	0x3ccd0af1	0.025029631
128	0xbdd9d300	-0.10635948
129	0x3e0a93b7	0.13532911
130	0xbd9d1b5c	-0.07671234
131	0x3da3e83c	0.080032796
132	0xbdf882bd	-0.12134311
133	0xbb840578	-0.0040289722
134	0x3d6ecb39	0.058299277
135	0xbd3fa0ef	-0.046784338
136	0x3d810ec2	0.06301643
137	0xbdbbf1ac	-0.091769546
138	0xbd7c35c2	-0.061574705
139	0xbddcc74a	-0.10780199
140	0x3cfcc4f7	0.030855639
141	0xbc8a1911	-0.016857656
142	0x3d0834a3	0.033253323
143	0x3dffd6c0	0.12492132
144	0xbd014642	-0.031561144
145	0x3e129f33	0.14318542
146	0x3d3fe650	0.046850502
147	0x3df0e9d2	0.11763348
148	0xbd62fffb	-0.055419903
149	0x3d93fd8b	0.07226094
150	0x3ec38e8b	0.3819469
151	0x3f1add6f	0.6049413
152	0x3f153011	0.5827647
153	0x3f0430a0	0.51636696
154	0x3f032694	0.5123074
155	0x3e82740f	0.2547917
156	0x3ee4807e	0.44629282
157	0x3eb47fd4	0.35253775
158	0x3eb38791	0.35064366
159	0x3f0cddd4	0.5502598
160	0x3eb05788	0.3444178
161	0x3ea64ff0	0.32482862
162	0x3ec56fbb	0.38561806
163	0x3ee9363b	0.45549187
164	0x3e3e266d	0.18569346
165	0x3ed07e75	0.4072148
166	0x3efc4448	0.49270844
167	0x3ee56137	0.44800732
168	0x3f0343fd	0.51275617
169	0x3ec8b1c1	0.39198115
170	0x3efa25a9	0.48856857
171	0x3ee9e6e3	0.45683965
172	0x3eecd7c0	0.46258354
173	0x3eb3fd05	0.35153976
174	0x3edf360e	0.43595928
175	0x3ea0e54d	0.31424943
176	0x3f1f42ca	0.6221129
177	0x3f1250f3	0.5715477
178	0x3f000535	0.50007945
179	0x3ea7f33b	0.32802758
180	0x3ed681b2	0.41895825
181	0x3ec5c27f	0.3862495
182	0x3ed716c3	0.42009553
183	0x3e8e0689	0.2773936
184	0x3ea62039	0.3244646
185	0x3eec76d6	0.46184415
186	0x3f1a788e	0.603402
187	0x3ee310e4	0.44348824
188	0x3ec62b33	0.38704833
189	0x3f0bb316	0.5457014
190	0x3ee16a08	0.44026208
191	0x3f08323d	0.5320166
192	0x3ef2fff3	0.474609
193	0x3eda65f5	0.42655912
194	0x3effcba5	0.49960056
195	0x3ee1f1ab	0.4412969
196	0x3f0f7b95	0.56047946
197	0x3f1479c1	0.5799828
198	0x3eb50847	0.35357878
199	0x3ec85dfb	0.391342

fc.weight f4 [1, 50]
0	0xbf80fd68	-1.0077333
1	0x3f8acff1	1.0844709
2	0x3f5c73c6	0.86114156
3	0x3f5cf75b	0.86314934
4	0x3f8d1cc3	1.1024402
5	0xbf34c366	-0.70610654
6	0xbf72058b	-0.9453971
7	0x3f6b19f7	0.91836494
8	0xbf997e21	-1.1991616
9	0x3f99a06a	1.200208
10	0x3f61322f	0.879672
11	0x3f83c9c4	1.0295949
12	0x3f6f3340	0.93437576
13	0x3f437bcc	0.76360774
14	0xbf42d2f2	-0.76103127
15	0x3f707a16	0.9393629
16	0xbf88a4e8	-1.0675325
17	0x3f8835f4	1.0641465
18	0x3f5b517a	0.856712
19	0x3f6eecce	0.93330085
20	0x3f92fd78	1.1483603
21	0x3f90aa53	1.1301979
22	0xbf915da3	-1.1356701
23	0xbf37bf80	-0.7177658
24	0x3f3f7880	0.74793243
25	0xbf6f7ffe	-0.93554676
26	0x3f978eb6	1.1840427
27	0x3f8bae7d	1.0912625
28	0xbf92afd3	-1.1459907
29	0xbf67bcda	-0.9052254
30	0xbf31ea47	-0.69498104
31	0xbf802fb1	-1.0014554
32	0x3f799fde	0.9750956
33	0x3f5d1b64	0.8636992
34	0xbf82b03d	-1.0210034
35	0xbf9f5baf	-1.2449855
36	0xbf7b2df3	-0.9811699
37	0x3f4b8549	0.7950025
38	0xbf4e80d2	-0.80665314
39	0x3f8ff746	1.1247337
40	0x3f75659f	0.95858186
41	0xbf86897e	-1.0510709
42	0x3f995a7f	1.1980742
43	0xbf90c18a	-1.1309063
44	0xbf570a62	-0.8400022
45	0xbf96d3fe	-1.1783445
46	0x3f8bde81	1.0927278
47	0x3f7d4ade	0.98942363
48	0xbf81a342	-1.0127947
49	0xbf5524ab	-0.83259076
