back-end/modelo_lstm.pth (torch, 129733 bytes, 9 tensors)

lstm.weight_ih_l0 f4 [200, 3]
0.084341206 -0.100387365 0.1028293 0.10595776 0.11951732 0.2937951 -0.31479397 0.20852944
0.06914897 0.21829559 -0.18154834 0.09303201 -0.11293076 0.1343145 -0.14496095 0.17259677
-0.021560712 0.023889594 -0.1543792 0.142677 -0.11536583 -0.13012968 0.09692364 -0.17055234
0.34752485 0.34448612 0.2489821 0.21244222 -0.05234396 -0.3490321 0.32993844 -0.2107991
0.02058151 0.31777018 0.32070172 0.2684864 0.2878501 0.2768611 0.060157653 0.09482963
-0.19571064 0.504291 0.14369741 -0.10941426 0.21232307 0.18684614 0.30800864 0.20009176
0.32930237 -0.21938765 0.054105494 0.17796244 0.12697631 0.03953018 0.17454144 0.20686942
0.013666427 -0.08156747 -0.08077769 0.27377075 0.13501413 0.15315603 0.07798918 0.3314799
0.36098838 0.19404262 -0.28296396 0.0002948504 0.32544506 0.011613593 0.120901436 0.20927425
0.11216812 -0.05717422 0.41238344 -0.040467985 0.12081369 0.024078758 0.39015853 0.39923638
0.28970885 -0.23020709 -0.057053026 0.4068851 0.30203187 0.30287802 0.25734892 0.35355228
0.27858794 0.25443256 -0.15405677 0.14632396 -0.074353516 0.20785935 -0.15656689 0.007107985
0.16467798 0.27346247 0.14115493 -0.05260381 -0.0094710095 0.3441331 -0.14536804 0.09830357
-0.17573425 0.26070586 -0.0931112 0.010858067 -0.04454647 0.12752219 0.0657953 -0.035499204
0.11402761 -0.12446314 -0.09855443 0.11979936 -0.13316792 0.4299627 0.40076113 0.3082342
0.10796343 -0.11275069 0.58536905 0.40111476 0.30303833 0.26460066 0.014787372 0.25217324
0.21838543 0.047166444 0.1742494 0.17647375 -0.0075713187 -0.024055779 0.33724764 0.15002382
0.08861518 0.18761027 0.097593226 0.228704 0.08437098 0.44649905 -0.22058237 -0.06576687
0.33553734 -0.22352636 0.056383554 0.16327663 0.21774977 0.033970933 -0.13742694 -0.02804072
0.064770944 -0.09490375 0.11191189 -0.07920905 0.045838308 0.041966006 -0.12687372 -0.06333702
0.094784304 0.110717885 0.14007643 -0.057729047 0.11312995 0.026452847 -0.057823997 -0.08551903
0.07472599 0.103216305 0.134681 -0.13159196 0.00754373 0.12772456 0.0740125 0.019107612
0.022381984 -0.042251714 -0.072680406 -0.106196135 -0.09549569 -0.13545468 0.025075234 0.06299123
-0.026699658 -0.066621944 0.01504769 -0.11384146 0.13795657 -0.10282806 0.07043587 -0.059995484
0.12709324 0.027047032 -0.044444207 0.11775951 -0.033989277 -0.036820315 0.14093924 -0.05159651
0.01890406 -0.097889446 -0.02595172 0.09308751 0.085980535 -0.026693454 0.073994055 -0.064958364
-0.11669846 -0.08888506 0.056433488 0.09887371 0.054594655 0.012448056 0.08678917 0.059809703
0.080218896 -0.03931834 -0.05379189 0.0276718 0.037140463 0.09495143 0.031580888 -0.010000234
-0.12257586 -0.094274566 0.1305389 -0.08417151 0.112634525 0.11167768 0.08865652 0.08147446
0.07853363 -0.04472025 0.061198745 0.051854957 -0.02045159 0.12841439 -0.0050608926 0.10099237
0.032605257 -0.032416034 -0.018088518 -0.0007083874 0.065988734 -0.01178104 0.005512471 -0.011069415
0.0547346 0.028602893 0.104639955 -0.05537051 0.05729047 0.015538212 -0.017112868 0.051868375
00000000: 15bb ac3d e497 cdbd 2b98 d23d 6200 d93d
00000010: 7fc5 f43d 506c 963e ad2c a1be be88 553e
00000020: fa9d 8d3d e188 5f3e cfe7 39be 9187 be3d
00000030: 3e48 e7bd be89 093e a570 14be 35bd 303e
00000040: 17a0 b0bc 1cb4 c33c 9515 1ebe eb19 123e
00000050: ec44 ecbd b740 05be e77f c63d 46a5 2ebe
00000060: c7ee b13e 7c60 b03e 2af5 7e3e 748a 593e
00000070: 9f66 56bd 56b4 b2be b1ed a83e b8db 57be
00000080: 8e9a a83c c6b2 a23e 0433 a43e 0d77 893e
00000090: 1761 933e bdc0 8d3e df67 763d 0936 c23d
000000a0: 5f68 48be 3719 013f 6a25 133e 9514 e0bd
000000b0: 386b 593e 9854 3f3e 4fb3 9d3e dbe4 4c3e
000000c0: 529a a83e 28a7 60be b99d 5d3d c93b 363e
000000d0: 1406 023e 66ea 213d feba 323e 94d5 533e
000000e0: 26e9 5f3c d90c a7bd c66e a5bd ae2b 8c3e
000000f0: 2541 0a3e efd4 1c3e cbb8 9f3d bcb7 a93e
00000100: 78d3 b83e 1cb3 463e a7e0 90be 2796 9a39
00000110: bca0 a63e f146 3e3c 2c9b f73d fd4b 563e
00000120: 66b8 e53d 842f 6abd ec23 d33e c2c1 25bd
00000130: 2b6d f73d d140 c53c dcc2 c73e b668 cc3e
00000140: b854 943e 68bb 6bbe 6fb0 69bd 3e53 d03e
00000150: eca3 9a3e d412 9b3e 3dc3 833e ce04 b53e
00000160: 14a3 8e3e fc44 823e 0fc1 1dbe f3d5 153e
00000170: a846 98bd 15d9 543e 1253 20be 1aea e83b
00000180: 58a1 283e 4603 8c3e eb8a 103e 1877 57bd
00000190: 4b2c 1bbc 3732 b03e 5cdb 14be 6253 c93d
000001a0: aef3 33be 3d7b 853e 16b1 bebd 09e6 313c
000001b0: 5c76 36bd 2d95 023e b0bf 863d 9d67 11bd
000001c0: 4f87 e93d 88e6 febd e8d6 c9bd 5e59 f53d
000001d0: 2c5d 08be 1224 dc3e 9030 cd3e e0d0 9d3e
000001e0: ee1b dd3d d5e9 e6bd bfda 153f ea5e cd3e
000001f0: d727 9b3e bd79 873e bc46 723c da1c 813e
00000200: 6ea0 5f3e 9a31 413d 6f6e 323e 89b5 343e
00000210: d318 f8bb a010 c5bc b9ab ac3e d89f 193e
00000220: e07b b53d e81c 403e f5de c73d 6231 6a3e
00000230: b1ca ac3d 869b e43e 58e0 61be c8b0 86bd
00000240: 8dcb ab3e 18e4 64be 71f2 663d fd31 273e
00000250: ccf9 5e3e 1b25 0b3d a6b9 0cbe a7b5 e5bc
00000260: a1a6 843d e65c c2bd 1032 e53d 5b38 a2bd
00000270: f3c0 3b3d 8ce4 2b3d 2feb 01be d7b6 81bd
00000280: 461e c23d 0fc0 e23d 3270 0f3e 4b75 6cbd
00000290: adb0 e73d a4b3 d83c dbd8 6cbd 9a24 afbd
000002a0: f109 993d 1263 d33d d1e9 093e 0bc0 06be
000002b0: 6531 f73b 3aca 023e de93 973d 9187 9c3c
000002c0: 6c5a b73c 2210 2dbd 77d9 94bd 5c7d d9bd
000002d0: 3f93 c3bd a2b4 0abe 946a cd3c 8c01 813d
000002e0: 3eb9 dabc 1671 88bd 968a 763c b625 e9bd
000002f0: 7d44 0d3e 8597 d2bd ae40 903d d3bd 75bd
00000300: bb24 023e bd91 dd3c 210b 36bd e62b f13d
00000310: 5738 0bbd e6d0 16bd 6052 103e dd56 53bd
00000320: b0dc 9a3c 437a c8bd b498 d4bc aaa4 be3d
00000330: 9016 b03d 3bac dabc 328a 973d e408 85bd
00000340: 9aff eebd 5f09 b6bd cd26 673d 4d7e ca3d
00000350: a59e 5f3d eef2 4b3c 85be b13d 05fb 743d
00000360: ce49 a43d 450c 21bd e354 5cbd f9af e23c
00000370: 9920 183d e575 c23d f65a 013d 05d8 23bc
00000380: 0d09 fbbd 0613 c1bd fdab 053e 1d62 acbd
00000390: eeac e63d 44b7 e43d 8d91 b53d 15dc a63d
000003a0: 3dd6 a03d 952c 37bd 89ab 7a3d dd65 543d
000003b0: 188a a7bc 107f 033e d8d5 a5bb 16d5 ce3d
000003c0: 178d 053d adc6 04bd 5f2e 94bc 13b3 39ba
000003d0: 1a25 873d 4305 41bc f5a1 b43b 7e5c 35bc
000003e0: 6331 603d 9d50 ea3c 794d d63d 30cc 62bd
000003f0: 69a9 6a3d fc93 7e3c 4930 8cbc ef73 543d

lstm.weight_hh_l0 f4 [200, 50]
0.11666786 -0.071100086 0.1380069 0.047832023 -0.0013774602 -0.029329706 -0.11041018 -0.12186108
-0.05695673 0.0052216407 0.020663083 0.13784222 0.074347384 -0.033855233 -0.10790243 0.059588112
-0.0028069802 -0.099557534 0.08681949 0.023674712 -0.110794395 -0.095997326 0.05436362 0.05632269
-0.08472456 0.10836311 -0.08244794 -0.057393678 0.021650568 -0.033278614 -0.06612761 -0.13603745
-0.097592026 0.015836611 -0.11546275 0.02977663 0.04628294 -0.0990613 -0.026321096 0.1243481
0.0533405 -0.017537743 -0.05217387 -0.05962279 -0.017067654 -0.09412561 0.120363414 -0.019482955
-0.035642713 0.09742212 0.13857591 0.062036186 0.12350523 -0.038909417 0.112005815 0.06821688
-0.118554756 0.008530303 0.0022698438 -0.11039295 0.073898144 -0.055930085 -0.023212377 0.03316387
0.046497874 -0.07938017 0.061742675 0.12407797 -0.016327353 0.10943339 0.026203169 -0.06811041
0.1342563 0.029121181 -0.08710651 -0.058129493 0.108841136 0.011185218 -0.030263832 -0.13463266
0.06472494 -0.07501253 -0.056027614 0.08275139 0.1236929 -0.09070117 0.091162875 -0.09213556
-0.045934908 0.07044413 -0.028364966 0.1310215 -0.13096821 0.060649723 -0.084333114 0.095301904
-0.08228183 0.047429066 0.1028455 -0.13278696 -0.1353395 0.023840146 0.046610303 -0.061085436
0.08698746 0.06988589 0.03276046 0.08333373 0.005978362 0.020818993 0.10582956 -0.0820251
-0.13077362 0.050180934 0.13500978 -0.002801029 0.020100355 -0.08810151 -0.02431177 0.1026935
0.11842169 -0.019685108 -0.09442351 -0.06731532 0.031935375 0.10827922 -0.022188175 0.09945829
-0.025817558 0.06325104 0.029136607 -0.1394683 0.068178095 0.011309298 -0.11810069 0.016726162
-0.13636 0.056266047 0.103848845 -0.027233575 -0.080292515 0.059990462 -0.0130477715 -0.051475618
0.07192449 -0.09386807 0.025037471 -0.04368565 -0.028302655 -0.07058314 0.056347407 0.072809845
-0.08948589 -0.024454564 -0.112533525 0.08810135 -0.0080265645 0.14061779 -0.08570915 -0.10832383
-0.105999395 0.05756132 0.07809125 0.023386732 0.07468041 0.06557367 0.034448408 0.1022591
-0.08993125 -0.12193116 0.07247957 -0.020438205 0.02074613 0.07190443 -0.12528954 -0.10253135
-0.0107959835 0.13604897 0.010145809 -0.13396153 -0.04933491 0.06642684 0.13358562 0.06986734
-0.08393164 0.12514073 0.11966821 -0.030253027 -0.073412105 0.03767013 0.075217865 0.12830739
0.13758193 0.038539503 0.09580849 0.02208269 -0.0095282905 -0.08330473 0.10116188 0.04394158
-0.051832315 -0.040475205 0.07731883 0.0029515945 0.020629635 -0.057830233 -0.12866457 -0.017202051
-0.13728541 -0.12632333 0.029384414 0.024167797 0.10642046 -0.07861364 0.1347321 -0.099482924
0.12628199 0.03552096 0.04212374 0.079946555 -0.013613871 -0.049789794 0.10375066 0.13354538
0.05404258 -0.08006033 0.021067187 0.10052582 -0.07301097 0.07636723 0.08250403 0.014342017
-0.12442329 -0.02275623 -0.043667678 -0.041020367 0.13235605 -0.05150293 -0.113934785 -0.05862158
-0.103695855 0.008658733 -0.1255591 -0.025743937 0.06624111 0.096773215 -0.068013236 0.048881866
-0.11061859 0.042638857 0.054928657 -0.02554175 0.08667115 -0.09726047 -0.026898256 -0.060476042
00000000: 8fef ee3d ec9c 91bd ae51 0d3e 83eb 433d
00000010: e58b b4ba da44 f0bc bc1e e2bd 4d92 f9bd
00000020: 764b 69bd 4c1a ab3b a045 a93c 8326 0d3e
00000030: 7143 983d c9ab 0abd f3fb dcbd aa12 743d
00000040: 50f5 37bb d2e4 cbbd 6bce b13d 78f1 c13c
00000050: 2ce8 e2bd 3f9a c4bd 63ac 5e3d 9fb2 663d
00000060: 1284 adbd 7aed dd3d 77da a8bd a215 6bbd
00000070: 885c b13c 284f 08bd ea6d 87bd 674d 0bbe
00000080: 54de c7bd c8bb 813c bc77 ecbd 1fee f33c
00000090: 2e93 3d3d a7e0 cabd 579f d7bc 37aa fe3d
000000a0: 917b 5a3d 50ab 8fbc 45b4 55bd 0737 74bd
000000b0: 77d1 8bbc eec4 c0bd 1881 f63d b89a 9fbc
000000c0: 18fe 11bd 4085 c73d d8e6 0d3e a819 7e3d
000000d0: 4ff0 fc3d 7b5f 1fbd 4e63 e53d 4bb5 8b3d
000000e0: d6cc f2bd afc2 0b3c a9c1 143b b315 e2bd
000000f0: e957 973d f216 65bd e227 bebc d7d6 073d
00000100: 8e74 3e3d 1292 a2bd e3e5 7c3d 971c fe3d
00000110: f1c0 85bc 9d1e e03d 07a8 d63c 787d 8bbd
00000120: 7c7a 093e 8b8f ee3c e664 b2bd 3119 6ebd
00000130: 1ae8 de3d 3442 373c dbeb f7bc 25dd 09be
00000140: 828e 843d 2ba0 99bd 367d 65bd 9079 a93d
00000150: b452 fd3d 89c1 b9bd 9ab3 ba3d 92b1 bcbd
00000160: 3e26 3cbd 0345 903d a55d e8bc 802a 063e
00000170: 881c 06be d86b 783d d7b6 acbd a52d c33d
00000180: 6083 a8bd fb44 423d a9a0 d23d 4ef9 07be
00000190: 7096 0abe 694c c33c 72ea 3e3d b934 7abd
000001a0: 7b26 b23d 5520 8f3d d52f 063d e0aa aa3d
000001b0: 23e6 c33b 988c aa3c 2bbd d83d c7fc a7bd
000001c0: 85e9 05be 868a 4d3d 0140 0a3e 7891 37bb
000001d0: 80a9 a43c 916e b4bd 7a29 c7bc f850 d23d
000001e0: 1287 f23d aa42 a1bc 1d61 c1bd 9ddc 89bd
000001f0: abce 023d 7fc1 dd3d fac3 b5bc cab0 cb3d
00000200: 587f d3bc c389 813d e5af ee3c c7d0 0ebe
00000210: f5a0 8b3d a24a 393c c6de f1bd 4e05 893c
00000220: f5a1 0bbe 3a77 663d b4ae d43d f218 dfbc
00000230: 6770 a4bd 8fb8 753d 52c6 55bc 19d8 52bd
00000240: 264d 933d e73d c0bd 621b cd3c b9ef 32bd
00000250: f8da e7bc e58d 90bd 8acc 663d 541d 953d
00000260: 6144 b7bd f054 c8bc fa77 e6bd 7b6e b43d
00000270: da81 03bc 1cfe 0f3e 4788 afbd e2d8 ddbd
00000280: 3616 d9bd 6bc5 6b3d 4eee 9f3d 8895 bf3c
00000290: 0bf2 983d 7d4b 863d c619 0d3d 386d d13d
000002a0: e02d b8bd 0bb7 f9bd 2b70 943d 066e a7bc
000002b0: caf3 a93c a142 933d e74b 00be f5fb d1bd
000002c0: a3e1 30bc 6c50 0b3e 9b3a 263c 362d 09be
000002d0: 6713 4abd cc0a 883d abca 083e 9c16 8f3d
000002e0: 5ae4 abbd e424 003e 9b14 f53d 32d5 f7bc
000002f0: 1659 96bd ff4b 1a3d d30b 9a3d 0363 033e
00000300: 47e2 0c3e 99db 1d3d 3e37 c43d c2e6 b43c
00000310: 8c1c 1cbc ac9b aabd f62d cf3d 16fc 333d
00000320: 1f4e 54bd 54c9 25bd 5659 9e3d 8a6f 413b
00000330: 7bff a83c 65df 6cbd a5c0 03be 51eb 8cbc
00000340: 8c94 0cbe e75a 01be 95b7 f03c 8bfb c53c
00000350: f8f2 d93d 3000 a1bd 36f7 093e b4bd cbbd
00000360: 1150 013e 6d7e 113d f189 2c3d 05bb a33d
00000370: b70c 5fbc 62f0 4bbd 3a7b d43d 1fc0 083e
00000380: c15b 5d3d acf6 a3bd 1895 ac3c 7be0 cd3d
00000390: c786 95bd 6c66 9c3d dff7 a83d c7fa 6a3c
000003a0: a3d1 febd 466b babc e1dc 32bd f904 28bd
000003b0: 5888 073e bcf4 52bd a456 e9bd 2f1d 70bd
000003c0: 7e5e d4bd 5cdd 0d3c 9192 00be f3e4 d2bc
000003d0: 6ba9 873d 0931 c63d 864a 8bbd 5a38 483d
000003e0: 008c e2bd 15a6 2e3d dffc 603d ef3c d1bc
000003f0: a580 b13d 7f30 c7bd bb59 dcbc bab5 77bd

lstm.bias_ih_l0 f4 [200]
0.3762173 0.31498963 -0.14863619 0.46337134 0.06109826 0.05098597 -0.10693124 0.057131168
0.2305325 0.119966775 0.38665533 0.25387558 0.1209185 0.5136509 -0.058377013 0.22044635
0.4834343 0.3318197 0.17467558 0.44739395 0.16159594 0.25547802 0.13806751 -1.8886913e-05
0.2693972 0.2576603 0.20337856 0.051760975 0.1386234 0.37293178 -0.19476539 0.43953723
0.25312588 -0.09732683 0.038961675 0.19223075 0.09177303 -0.0341378 0.1395436 0.20455573
0.3116867 0.37409618 0.28087068 0.20345373 0.20875826 0.069669336 0.17383593 0.43538967
0.4661675 0.19026265 -0.11034752 0.06694336 -0.10535082 -0.13717926 0.02322293 0.053375397
0.10756237 0.05668741 0.052933037 -0.11268522 0.024060896 0.12274931 0.12915127 -0.089078836
-0.05190545 0.005052126 -0.11278664 0.12991154 -0.04691772 0.027564326 -0.05787307 0.008737228
-0.12959494 -0.09471763 -0.12612912 -0.08510788 0.084942035 0.08120921 -0.109673604 0.02425155
-0.12125826 -0.017301485 -0.13153255 0.07000088 0.024027161 0.11908325 0.077837884 -0.12743014
-0.038501047 0.11118351 0.112473235 0.09515801 0.12492362 0.0012305531 0.04334839 0.07664565
0.026364338 0.023360988 0.117760964 -0.017558934 -0.2519678 -0.35272208 -0.29592088 -0.17296286
0.053971484 -0.15215161 -0.045435928 -0.15280767 -0.36716604 0.18387473 0.36820877 0.12589915
0.05083082 0.310131 0.28687993 0.12351077 0.29783648 -0.23670572 -0.27388966 0.3008821
0.14397654 -0.35416833 -0.2915454 0.081601955 -0.1784945 0.07741134 0.18734616 0.20452406
-0.10258113 0.32299054 -0.17135498 -0.33163115 0.24431324 0.06752592 0.28810093 0.31082225
-0.22954665 0.24899419 -0.25634986 0.2469498 -0.16646956 -0.3043849 0.016056605 0.1997497
-0.22758883 0.14911649 0.10906021 0.38031024 0.351657 0.16958186 0.22651875 0.48809338
-0.2652175 0.35933045 0.05297932 0.34155267 0.20910558 -0.13280231 0.5295758 0.35806546
0.37721327 0.4234229 -0.006777849 0.40215704 -0.08253259 0.020542135 0.3090899 -0.011999258
-0.122049235 0.2007123 0.103118196 0.2595024 -0.02957337 0.31013787 -0.036066864 -0.05247536
0.23420487 0.16313757 0.18290126 0.49989712 0.23082125 0.44403276 -0.013656216 -0.00912462
0.3238735 0.05310264 0.26999635 0.3733978 0.043416988 0.2313811 0.34971875 0.024428695
-0.113167934 0.09069238 0.14491402 0.12745991 0.011370382 0.4822258 0.3260198 0.53484607
00000000: 8e9f c03e 5246 a13e 1634 18be 023f ed3e
00000010: 2b42 7a3d aad6 503d c4fe dabd 5f02 6a3d
00000020: b610 6c3e 24b1 f53d b0f7 c53e fbfb 813e
00000030: 1ea4 f73d a07e 033f bc1c 6fbd b0bc 613e
00000040: b384 f73e 46e4 a93e 28de 323e d210 e53e
00000050: 6879 253e 04ce 823e 9261 0d3e 566f 9eb7
00000060: 6eee 893e 0dec 833e 7842 503e 5103 543d
00000070: 4bf3 0d3e eaf0 be3e 9470 47be 060b e13e
00000080: b799 813e 4a53 c7bd 4796 1f3d 23d8 443e
00000090: 80f3 bb3d 14d4 0bbd 84e4 0e3e 0f77 513e
000000a0: 6695 9f3e 8989 bf3e 48ce 8f3e 2d56 503e
000000b0: bac4 553e ccae 8e3d 0c02 323e 65eb de3e
000000c0: 82ad ee3e 36d4 423e e1fd e1bd 9a19 893d
000000d0: 2cc2 d7bd b878 0cbe 043e be3c 29a0 5a3d
000000e0: a949 dc3d 0f31 683d 50d0 583d 82c7 e6bd
000000f0: 5b1b c53c fe63 fb3d 3b40 043e f76e b6bd
00000100: cf9a 54bd 4e8c a53b affc e6bd 8807 053e
00000110: cc2c 40bd 95ce e13c 500c 6dbd 9726 0f3c
00000120: 89b4 04be 51fb c1bd fe27 01be 0a4d aebd
00000130: 17f6 ad3d 0451 a63d 8e9c e0bd 30ab c63c
00000140: 4056 f8bd d8bb 8dbc 78b0 06be 9f5c 8f3d
00000150: 9cd4 c43c ebe1 f33d 7869 9f3d 0c7d 02be
00000160: 46b3 1dbd 2eb4 e33d 5e58 e63d 34e2 c23d
00000170: f4d7 ff3d 834a a13a 158e 313d 65f8 9c3d
00000180: 06fa d73c 8b5f bf3c a92c f13d c1d7 8fbc
00000190: ec01 81be fd97 b4be f182 97be 2d1d 31be
000001a0: 3411 5d3d a2cd 1bbe 061b 3abd 9d79 1cbe
000001b0: 30fd bbbe a849 3c3e dc85 bc3e b5eb 003e
000001c0: fa33 503d 7ec9 9e3e ede1 923e 37f3 fc3d
000001d0: 067e 983e fc62 72be 443b 8cbe 380d 9a3e
000001e0: 966e 133e 8d55 b5be 7045 95be ed1e a73d
000001f0: 43c7 36be d689 9e3d acd7 3f3e c16e 513e
00000200: 0e16 d2bd 045f a53e ae77 2fbe 8fcb a9be
00000210: 402d 7a3e 084b 8a3d f781 933e 1824 9f3e
00000220: 470e 6bbe 55f8 7e3e 4a40 83be 69e0 7c3e
00000230: ff76 2abe 56d8 9bbe 2489 833c 2f8b 4c3e
00000240: 0c0d 69be feb1 183e f65a df3d 06b8 c23e
00000250: 630c b43e dea6 2d3e 88f4 673e 60e7 f93e
00000260: 97ca 87be 29fa b73e d800 593d fedf ae3e
00000270: c61f 563e 54fd 07be 4892 073f 5b54 b73e
00000280: 1922 c13e e3ca d83e b818 debb 87e7 cd3e
00000290: d906 a9bd fb47 a83c 0841 9e3e 8998 44bc
000002a0: f3f4 f9bd 8687 4d3e a22f d33d 80dd 843e
000002b0: da43 f2bc 64ca 9e3e d9ba 13bd 67f0 56bd
000002c0: 67d3 6f3e 890d 273e 784a 3b3e 84f2 ff3e
000002d0: 685c 6c3e 4358 e33e 52be 5fbc 6e7f 15bc
000002e0: bfd2 a53e 2782 593d f63c 8a3e ff2d bf3e
000002f0: 03d6 313d 2bef 6c3e 560e b33e b01e c83c
00000300: 97c4 e7bd edbc b93d 5764 143e da84 023e
00000310: d74a 3a3c 4de6 f63e 11ec a63e aceb 083f

lstm.bias_hh_l0 f4 [200]
0.16106448 0.13106515 -0.37209883 0.47765476 -0.07535746 0.2900943 -0.15614058 -0.06834258
0.37287155 0.19022498 0.4120623 0.2534814 0.16259484 0.29325244 -0.07161526 0.22755556
0.4075681 0.09608443 0.3028732 0.28183198 0.008576021 0.26599002 0.011773339 0.23548818
0.100143015 0.19299573 0.30531713 0.16584787 0.31706738 0.23062864 -0.07062095 0.31055924
0.31586248 0.15578283 0.08226193 0.34118673 0.17943265 0.15366682 -0.017004147 0.2919749
0.37752515 0.19442807 0.2167103 0.25201797 0.18047562 0.11555839 0.2013964 0.30528638
0.5819574 0.43944696 -0.060314875 -0.026482686 -0.02098303 -0.084289856 0.12697753 -0.12780784
-0.04522652 -0.062549986 -0.0045489264 0.023988925 -0.06056698 -0.027935944 -0.14008917 -0.054785613
-0.029201057 -0.047763914 -0.10579436 -0.025138084 -0.05067626 0.10642972 0.01173456 0.051657237
-0.121410474 0.027763175 -0.055714883 0.13923101 0.057825834 -0.07023867 0.13735847 0.11246415
0.112553045 0.033394568 0.036445443 -0.061846726 0.05774818 -0.0346422 0.08958372 0.07364784
-0.013228818 -0.04174629 0.103588745 -0.08823828 0.0861161 0.09574267 -0.06619655 -0.12950712
-0.13182169 0.046983708 -0.11913207 0.0718153 -0.34068733 -0.2012605 -0.120871425 -0.2500215
0.22850035 -0.36749622 -0.14698161 -0.14845091 -0.3252805 0.30623102 0.3757447 0.3771621
0.035443388 0.3313616 0.17983302 0.30349797 0.30953398 -0.10928558 -0.30894879 0.1451057
0.20982893 -0.40297967 -0.16854711 0.3035696 -0.31557822 0.073064536 0.21575217 0.35863897
-0.23076165 0.2767134 -0.25897703 -0.25657457 0.22569951 0.10759121 0.28125536 0.14354344
-0.21325871 0.116911285 -0.047945775 0.30726832 -0.3976234 -0.17691661 -0.04875945 0.23139045
-0.13417688 0.34428975 0.21170361 0.27633262 0.3167579 0.2717025 0.1999852 0.48367313
-0.36764508 0.21627428 0.028331766 0.37281212 -0.030579556 -0.13951841 0.37861603 0.3742225
0.2645065 0.39272064 0.070170365 0.41839442 -0.15068363 -0.035928454 0.2439216 0.1328386
-0.20071255 0.17351712 0.10931598 0.1191995 0.032205258 0.13192587 -0.0027139091 0.030827532
0.3381493 0.27010417 0.2448479 0.4193598 0.011247144 0.22287787 0.04249823 -0.13139851
0.23955901 -0.14044565 0.34531268 0.2927544 0.029369494 0.40923768 0.5783208 0.19160403
-0.05504699 0.09517224 0.20228131 0.25834903 -0.15791456 0.4955738 0.25943658 0.34571877
00000000: 16ee 243e f135 063e bd83 bebe 2a8f f43e
00000010: 0355 9abd 3d87 943e 51e3 1fbe 32f7 8bbd
00000020: 05e9 be3e 56ca 423e d4f9 d23e 50c8 813e
00000030: 437f 263e 2f25 963e 05ab 92bd 5304 693e
00000040: c4ac d03e eac7 c43d 3212 9b3e 484c 903e
00000050: 7082 0c3c d82f 883e f6e4 403c d023 713e
00000060: c817 cd3d aca0 453e 8752 9c3e 06d4 293e
00000070: a856 a23e ea29 6c3e b7a1 90bd 9f01 9f3e
00000080: bab8 a13e 8985 1f3e f178 a83d 07b0 ae3e
00000090: 31bd 373e d65a 1d3e 484c 8bbc bc7d 953e
000000a0: fa4a c13e 2718 473e 4ee9 5d3e 8008 813e
000000b0: 9ace 383e e1a9 ec3d dc3a 4e3e 7f4e 9c3e
000000c0: 29fb 143f 31ff e03e bb0c 77bd 38f2 d8bc
000000d0: 9ae4 abbc 29a0 acbd 6606 023e 0fe0 02be
000000e0: 723f 39bd 351a 80bd 290f 95bb 6c84 c43c
000000f0: 1515 78bd ecd9 e4bc 8973 0fbe e166 60bd
00000100: 0e37 efbc 18a4 43bd b7aa d8bd 62ee cdbc
00000110: e991 4fbd d3f7 d93d 5042 403c 8a96 533d
00000120: 0ea6 f8bd 996f e33c 4a35 64bd 9392 0e3e
00000130: c8da 6c3d 4bd9 8fbd b3a7 0c3e 9b53 e63d
00000140: 3682 e63d bec8 083d d147 153d fe52 7dbd
00000150: 5b89 6c3d fbe4 0dbd ab77 b73d aed4 963d
00000160: afbd 58bc 28fe 2abd 5626 d43d 45b6 b4bd
00000170: a35d b03d bc14 c43d 0f92 87bd 849d 04be
00000180: 44fc 06be fd71 403d 84fb f3bd e613 933d
00000190: 926e aebe 3c17 4ebe 708b f7bd d102 80be
000001a0: fffb 693e 7728 bcbe 5982 16be 8403 18be
000001b0: 2a8b a6be 50ca 9c3e 9c61 c03e 641b c13e
000001c0: 162d 113d 3aa8 a93e 2626 383e 1664 9b3e
000001d0: 3d7b 9e3e 1ed1 dfbd 892e 9ebe 9796 143e
000001e0: 65dd 563e 5a53 cebe 9d97 2cbe 7a6d 9b3e
000001f0: 7893 a1be dca2 953d 23ee 5c3e 879f b73e
00000200: c84c 6cbe 61ad 8d3e a398 84be be5d 83be
00000210: c61d 673e c858 dc3d b400 903e 0dfd 123e
00000220: 7e60 5abe 2f6f ef3d ca62 44bd 4652 9d3e
00000230: 4b95 cbbe a129 35be fdb7 47bd 9ef1 6c3e
00000240: aa65 09be bf46 b03e d5c8 583e 787b 8d3e
00000250: 172e a23e 971c 8b3e ecc8 4c3e 01a4 f73e
00000260: fa3b bcbe 0177 5d3e 0518 e83c 3be1 be3e
00000270: fa81 fabc eadd 0ebe f6d9 c13e 179a bf3e
00000280: 656d 873e ae12 c93e 7bb5 8f3d cb37 d63e
00000290: cf4c 1abe b729 13bd 95c6 793e d806 083e
000002a0: 9787 4dbe 79ae 313e 0ee1 df3d de1e f43d
000002b0: a9e9 033d 9317 073e d7db 31bb 058a fc3c
000002c0: e821 ad3e 184b 8a3e 68b9 7a3e 54b6 d63e
000002d0: f145 383c 193a 643e a012 2e3d 558d 06be
000002e0: f54e 753e fcd0 0fbe d3cc b03e e8e3 953e
000002f0: 4b98 f03c 9a87 d13e d50c 143f d933 443e
00000300: f478 61bd aae9 c23d d522 4f3e 5346 843e
00000310: 5bb4 21be d9bb fd3e dfd4 843e 0d02 b13e

lstm.weight_ih_l1 f4 [200, 50]
-0.26080933 -0.4799136 0.0844418 -0.22990614 0.33239084 -0.5925421 -0.36683676 -0.32002324
-0.30177242 0.3464946 0.28827998 0.2471569 0.22130284 0.47571573 0.09138914 0.17197631
0.32546514 -0.17435166 -0.23067932 0.44271764 0.40729386 -0.24419843 -0.17879461 0.43977404
-0.41140348 0.16871636 0.5090966 0.20561923 -0.29809102 0.2842254 -0.16830735 -0.44963634
0.23738502 -0.234787 0.41284314 0.30636778 -0.3204577 0.3854482 -0.2629938 0.1943674
-0.46825695 -0.15738393 -0.25749612 0.2063517 -0.22535577 0.39096957 0.18031676 0.22343013
0.39789817 0.4801226 -0.30539766 -0.28810692 0.07755005 -0.22962466 0.20067956 -0.5297856
-0.2545287 -0.15646641 -0.5494842 0.32795784 0.28193513 0.26378268 0.18069196 0.5344063
0.15458797 0.16141021 0.3986699 -0.19605142 -0.36728758 0.51695585 0.28260085 -0.47169507
-0.34612152 0.39020962 -0.46494505 0.21436547 0.590217 0.2197553 -0.21605876 0.48151284
-0.2661324 -0.29026935 0.3842653 -0.22058292 0.21838388 0.33110687 -0.16303091 0.3487084
-0.3082772 0.20358382 -0.5141649 -0.27059236 -0.37309846 0.30076897 -0.3788712 0.41962615
0.16189368 0.2960857 0.3138193 0.47301522 -0.30519122 -0.5111482 -0.26195577 -0.3055538
0.11391745 -0.36123616 -0.34952545 -0.15635999 -0.4132266 0.59659696 0.24672645 0.33495054
0.24186674 0.57178724 0.3944465 0.3480032 0.42534798 -0.34302518 -0.5001115 0.28564283
0.40219772 -0.36355823 -0.4617774 0.22922237 -0.43260133 0.380201 0.50706136 0.41041064
-0.18928774 0.4644836 -0.45413318 -0.3893319 0.34432977 -0.32414865 0.40206602 0.5604598
-0.32906651 0.33142322 -0.26873222 0.20716904 -0.42303395 -0.17822437 -0.3976064 0.42321497
-0.3687876 0.43685463 0.37401867 0.31386793 0.44133854 0.30049133 -0.24405016 -0.389723
-0.13022965 -0.4219254 0.3464557 -0.55124956 -0.2834804 -0.23538491 -0.5128251 0.47161907
0.36992633 0.27482408 0.23796405 0.3213705 0.19606213 0.28265244 0.3690147 -0.26154807
-0.2637597 0.42073303 0.14501187 -0.21782213 -0.36922643 0.35139883 -0.45468473 0.39390838
0.5805781 0.383225 -0.16408487 0.25987494 -0.30257547 -0.28509018 0.28882247 -0.29803285
0.24047677 0.4782024 -0.30573165 0.42811525 -0.20609319 0.23662715 -0.45427588 -0.32213843
-0.38332838 0.15823196 -0.3701926 0.2728109 0.37853238 0.33843794 0.2835277 0.3310685
-0.22755969 -0.38246328 0.1490882 -0.3007951 0.12129247 -0.46565193 -0.31593955 -0.2231092
-0.45951915 0.32236007 0.2812868 0.38074213 0.1830292 0.57585007 0.24378133 0.18438691
0.35691065 -0.36425152 -0.29509723 0.4261453 0.17796853 -0.22916482 -0.40297908 0.1881026
-0.21086128 0.30546302 0.414058 0.14844924 -0.24706367 0.37911028 -0.42790067 -0.41483214
0.25292793 -0.20171694 0.23053764 0.4093948 -0.15324886 0.09511923 -0.22460902 0.32531202
-0.4407537 -0.32124624 -0.2932093 0.24047981 -0.23889998 0.10158901 0.046019565 0.23528805
0.29732206 0.5206333 -0.35531187 -0.49239603 0.1267159 -0.30541998 0.13462284 -0.39079008
00000000: cd88 85be 3cb7 f5be d3ef ac3d 846c 6bbe
00000010: 222f aa3e d7b0 17bf 07d2 bbbe 16da a3be
00000020: ea81 9abe bd67 b13e 6f99 933e b316 7d3e
00000030: 369d 623e 0391 f33e 3b2a bb3d 8f1a 303e
00000040: 5ea3 a63e 3e89 32be 3337 6cbe e3ab e23e
00000050: d288 d03e 270f 7abe ef15 37be 102a e13e
00000060: 7aa3 d2be fbc3 2c3e 2854 023f d98d 523e
00000070: 639f 98be fe85 913e c358 2cbe bc36 e6be
00000080: 0f15 733e 016c 70be 2d60 d33e 3ddc 9c3e
00000090: 0813 a4be 7759 c53e 20a7 86be 3f08 473e
000000a0: 60bf efbe 4129 21be 88d6 83be dc4d 533e
000000b0: aac3 66be 2a2d c83e f5a4 383e deca 643e
000000c0: 4fb9 cb3e a1d2 f53e 155d 9cbe c082 93be
000000d0: 90d2 9e3d ba22 6bbe f17e 4d3e 07a0 07bf
000000e0: 9651 82be bb38 20be ffaa 0cbf 17ea a73e
000000f0: cd59 903e 860e 873e 5007 393e dace 083f
00000100: 4f4c 1e3e b848 253e 761e cc3e b4c1 48be
00000110: 1e0d bcbe 3857 043f 0fb1 903e 0482 f1be
00000120: d736 b1be 8ec9 c73e 470d eebe 9f82 5b3e
00000130: 7618 173f 8907 613e 823e 5dbe da88 f63e
00000140: 8242 88be 2f9e 94be 6cbe c43e 7de0 61be
00000150: 06a0 5f3e d786 a93e 93f1 26be e889 b23e
00000160: 82d6 9dbe 4778 503e 50a0 03bf 158b 8abe
00000170: c306 bfbe 64fe 993e 68fb c1be 3dd9 d63e
00000180: 75c7 253e 8b98 973e ecac a03e 0d2f f23e
00000190: 0642 9cbe 9cda 02bf 111f 86be 8c71 9cbe
000001a0: 8d4d e93d f2f3 b8be 00f5 b2be d51c 20be
000001b0: 7092 d3be 94ba 183f dca5 7c3e a37e ab3e
000001c0: eaab 773e a660 123f e4f4 c93e 7a2d b23e
000001d0: 36c7 d93e ffa0 afbe 4f07 00bf c73f 923e
000001e0: dcec cd3e 4e24 babe 166e ecbe 45b9 6a3e
000001f0: ec7d ddbe b5a9 c23e c6ce 013f 5821 d23e
00000200: a5d4 41be cbd0 ed3e 2584 e8be 8356 c7be
00000210: fe4b b03e d0f6 a5be 99db cd3e 4b7a 0f3f
00000220: 687b a8be 4eb0 a93e 4597 89be 1f24 543e
00000230: e897 d8be 7380 36be 1193 cbbe a2af d83e
00000240: bad1 bcbe 69ab df3e 607f bf3e 4cb3 a03e
00000250: 20f7 e13e 00da 993e 49e8 79be c689 c7be
00000260: ec5a 05be 9b06 d8be a462 b13e b11e 0dbf
00000270: 5824 91be be08 71be 8148 03bf 0e78 f13e
00000280: fc66 bd3e beb5 8c3e d9ac 733e ad8a a43e
00000290: 83c4 483e d2b7 903e 7fef bc3e a1e9 85be
000002a0: 830b 87be 526a d73e fe7d 143e c40c 5fbe
000002b0: 3f0b bdbe 8cea b33e 70cc e8be 5cae c93e
000002c0: c4a0 143f 1136 c43e dd05 28be 540e 853e
000002d0: 2ceb 9abe 57f7 91be 8ae0 933e c397 98be
000002e0: 8b3f 763e f2d6 f43e dc88 9cbe ec31 db3e
000002f0: 180a 53be 634e 723e d996 e8be 54ef a4be
00000300: 9e43 c4be 8f07 223e e289 bdbe dfad 8b3e
00000310: ffce c13e bd47 ad3e 8b2a 913e cf81 a93e
00000320: 6805 69be 3ad2 c3be 94aa 183e d101 9abe
00000330: 3068 f83d ee69 eebe d4c2 a1be bd76 64be
00000340: 1846 ebbe 610c a53e d304 903e a2f0 c23e
00000350: 026c 3b3e e96a 133f d0a1 793e eccf 3c3e
00000360: febc b63e 2d7f babe fc16 97be b72f da3e
00000370: 623d 363e 2faa 6abe 4653 cebe f89d 403e
00000380: 05ec 57be a665 9c3e 69ff d33e 1403 183e
00000390: 42fe 7cbe be1a c23e cc15 dbbe e164 d4be
000003a0: c57f 813e e38e 4ebe 0f12 6c3e 329c d13e
000003b0: 45ed 1cbe dfcd c23d e8ff 65be 4c8f a63e
000003c0: 78aa e1be 637a a4be 881f 96be 5740 763e
000003d0: 32a2 74be e60d d03d 037f 3c3d 5aef 703e
000003e0: 993a 983e 3948 053f 70eb b5be 551b fcbe
000003f0: d0c1 013e 0260 9cbe 92da 093e a315 c8be

lstm.weight_hh_l1 f4 [200, 50]
0.08918152 0.04552959 0.065620065 0.13879028 0.12499434 0.10313181 -0.013811624 0.008161873
0.0605861 -0.009566476 0.13424069 0.14094745 -0.031017082 -0.042929266 0.020396698 0.11436912
-0.022155756 0.04579331 -0.1397709 0.066647 -0.11969137 0.1332649 0.11607541 0.040302657
-0.11411015 -0.12617604 -0.04514533 -0.040766474 0.022616759 -0.05148949 0.080905296 0.09855709
0.08777321 0.03020449 -0.034709178 -0.13269974 0.089246936 -0.09802653 0.10914472 0.101186834
0.012185734 0.045465138 0.011511637 0.061763935 0.05869178 0.11473421 0.066635236 -0.12039821
-0.0057442784 0.078914024 -0.12184814 0.020417823 0.02225224 -0.05419672 0.0063094343 0.028155157
0.10846297 -0.015842715 0.12889542 -0.07119217 0.017230222 0.12533139 -0.121868834 -0.13721545
0.00088312826 -0.05541326 -0.047247816 -0.12093459 -0.0771434 -0.10186749 0.013026968 -0.03612813
-0.087369174 -0.051879097 -0.08667235 0.1257445 -0.006986144 0.0069218786 0.12722276 0.039141003
0.107985355 -0.07624151 -0.045621436 0.020827305 0.014971371 0.09358332 0.010675983 0.10152065
0.1387117 -0.13242134 -0.0045310226 0.12694865 0.09837946 -0.059565943 0.031070305 0.008982927
-0.09230946 -0.11074906 -0.02168683 0.014240224 -0.0495987 -0.06938498 -0.015494598 -0.06408511
-0.092355885 0.08011899 0.10843029 -0.068175614 0.083927885 -0.031336438 -0.04188178 -0.06487547
0.07340129 0.12617548 -0.038820148 -0.13375677 -0.06798331 -0.078075014 -0.122346476 -0.0010512773
0.11201547 0.1060997 -0.046598773 -0.07370888 0.015164774 -0.12898497 -0.061704893 -0.003288213
-0.025243485 -0.064238645 0.10466366 -0.10830882 0.022240657 0.012309275 0.116802745 0.017155537
-0.13297018 0.03221786 0.11622215 -0.0630307 0.003839106 -0.03847446 -0.050575595 -0.08902455
0.053246595 -0.04936035 0.028109336 0.07871412 0.013426115 0.003652092 -0.14014655 0.008794075
0.021816019 0.12845166 -0.104379825 0.019392794 0.09035034 0.10186614 -0.056758203 -0.12867069
0.12770204 -0.043833043 0.01938541 -0.04436017 -0.020926518 0.022079756 -0.031312987 0.10490088
-0.13517587 0.015125038 -0.063900456 0.023943895 0.12861714 -0.11181993 0.035050888 -0.124490924
0.03723332 0.12471482 -0.077146605 -0.06784072 0.10646446 0.12970129 0.13236095 0.078513324
0.12010155 0.030839762 -0.1354375 -0.12983888 -0.10456193 -0.0396205 -0.027749015 0.030211015
-0.13711831 -0.13533948 -0.070549645 0.13777305 -0.05537582 0.04406394 -0.014070001 0.04862005
-0.10455477 0.009761244 -0.020940073 -0.11042129 -0.025063502 -0.0834144 -0.08034366 0.04024709
0.031276572 0.021932242 -0.039739642 -0.087072074 -0.040612705 -0.13829127 -0.07847191 0.08296105
-0.02163241 0.055268075 0.050824147 -0.016432382 0.08714724 -0.12444915 0.03746442 -0.061805625
-0.024871262 0.073591016 0.07913243 -0.042623177 -0.018294515 -0.07502608 0.062171392 -0.0669551
0.105363905 0.060851675 0.056962077 0.12667774 0.07022586 -0.024731148 -0.07275632 -0.0725878
0.12600434 -0.041391242 0.13025258 0.073062524 0.116391 -0.041089807 -0.05606851 0.040755652
0.059611984 -0.05488646 -0.0060556256 -0.06312553 0.0047302083 -0.12077919 0.138506 -0.06742191
00000000: cda4 b63d 3c7d 3a3d d063 863d 0a1f 0e3e
00000010: 08fd ff3d c536 d33d 264a 62bc 60b9 053c
00000020: 2129 783d b5bc 1cbc 6476 093e 8754 103e
00000030: 8917 febc 99d6 2fbd fa16 a73c 5b3a ea3d
00000040: fd7f b5bc c491 3b3d 1a20 0fbe 397e 883d
00000050: c020 f5bd 9876 083e f2b8 ed3d 6614 253d
00000060: 95b2 e9bd 4b34 01be 4fea 38bd bffa 26bd
00000070: c846 b93c a5e6 52bd adb1 a53d 4dd8 c93d
00000080: 71c2 b33d 686f f73c 362b 0ebd 71e2 07be
00000090: 19c7 b63d 22c2 c8bd 4487 df3d 0b3b cf3d
000000a0: aca6 473c a739 3a3d 4e9b 3c3c 2efc 7c3d
000000b0: cb66 703d c5f9 ea3d 0e78 883d 5693 f6bd
000000c0: 803a bcbb ad9d a13d 858b f9bd 4743 a73c
000000d0: 544a b63c 61fd 5dbd 5fbf ce3b a5a5 e63c
000000e0: d521 de3d 95c8 81bc 29fd 033e 33cd 91bd
000000f0: 6526 8d3c df56 003e 5e96 f9bd 3582 0cbe
00000100: bc81 673a 04f9 62bd ed86 41bd 8eac f7bd
00000110: 5cfd 9dbd e79f d0bd 106f 553c 17fb 13bd
00000120: 9cee b2bd 2d7f 54bd 4681 b1bd 2bc3 003e
00000130: 06ec e4bb edd0 e23b af46 023e 5152 203d
00000140: 6d27 dd3d 8224 9cbd 8bdd 3abd 069e aa3c
00000150: 7b4a 753c 9da8 bf3d 51ea 2e3c 0fea cf3d
00000160: 710a 0e3e 7699 07be f978 94bb d4fe 013e
00000170: 2c7b c93d 6bfb 73bd 2787 fe3c 202d 133c
00000180: be0c bdbd 67d0 e2bd 94a8 b1bc d44f 693c
00000190: 0228 4bbd b619 8ebd 0edd 7dbc 0e3f 83bd
000001a0: 1525 bdbd 6d15 a43d b310 de3d a89f 8bbd
000001b0: 62e2 ab3d a35a 00bd 3b8c 2bbd 6edd 84bd
000001c0: 6a53 963d 2534 013e e001 1fbd 89f7 08be
000001d0: d53a 8bbd cbe5 9fbd ca90 fabd 03cb 89ba
000001e0: 5e68 e53d cd4a d93d 5bde 3ebd aef4 96bd
000001f0: ac75 783c a314 04be 45be 7cbd 0f7f 57bb
00000200: 6dcb cebc 8d8f 83bd e759 d63d 04d1 ddbd
00000210: 0a32 b63c d7ac 493c 4736 ef3d c589 8c3c
00000220: 5629 08be e0f6 033d e105 ee3d 3d16 81bd
00000230: 8399 7b3b 6597 1dbd 5b28 4fbd 8152 b6bd
00000240: 1a19 5a3d 142e 4abd 8d45 e63c de34 a13d
00000250: 35f9 5b3c f057 6f3b 9482 0fbe 0615 103c
00000260: 82b7 b23c d588 033e 17c5 d5bd a3dd 9e3c
00000270: 9909 b93d 329f d03d 4a7b 68bd 40c2 03be
00000280: 53c4 023e 478a 33bd 27ce 9e3c 02b3 35bd
00000290: 176e abbc 9be0 b43c 0c42 00bd 46d6 d63d
000002a0: 8b6b 0abe 02cf 773c 3ede 82bd fd25 c43c
000002b0: 36b4 033e d901 e5bd 8591 0f3d 19f5 febd
000002c0: f781 183d 7c6a ff3d 0aff 9dbd 13f0 8abd
000002d0: 0a0a da3d 6ad0 043e a189 073e 98cb a03d
000002e0: cdf7 f53d aba3 fc3c 21b0 0abe 7cf4 04be
000002f0: 9124 d6bd 1b49 22bd e751 e3bc 177d f73c
00000300: be68 0cbe 6f96 0abe 557c 90bd 6114 0d3e
00000310: c1d1 62bd 647c 343d dd85 66bc d125 473d
00000320: d020 d6bd a0ed 1f3c 848a abbc 8f24 e2bd
00000330: f951 cdbc 2bd5 aabd 388b a4bd 22da 243d
00000340: dd1b 003d 3fab b33c 09c6 22bd d852 b2bd
00000350: 8259 26bd 3a9c 0dbe e1b5 a0bd 7ce7 a93d
00000360: 7436 b1bc c760 623d fb2c 503d 349d 86bc
00000370: 417a b23d 32df febd 4b74 193d e527 7dbd
00000380: d1be cbbc e3b6 963d 2f10 a23d a495 2ebd
00000390: 61de 95bc 46a7 99bd 6ea7 7e3d c11f 89bd
000003a0: 08c9 d73d 9b3f 793d 1151 693d cfb7 013e
000003b0: 93d2 8f3d fa98 cabc 4401 95bd eaa8 94bd
000003c0: 4807 013e dd89 29bd ef60 053e cea1 953d
000003d0: 685e ee3d c94d 28bd 18a8 65bd 66ef 263d
000003e0: b22b 743d a0d0 60bd 456e c6bb f547 81bd
000003f0: ddff 9a3b 145b f7bd 84d4 0d3e 8014 8abd

lstm.bias_ih_l1 f4 [200]
0.29539448 0.2799881 0.20255491 0.3520976 0.20558295 0.27311215 0.28852317 0.32673207
0.3080058 0.1939128 0.35405892 0.2919138 0.3201682 0.16245304 0.13021195 0.30823207
0.25437465 0.24192713 0.2518074 0.4340227 0.2735486 0.47907647 0.29154712 0.30739644
0.32325634 0.38679424 0.44972688 0.2649732 0.1637101 0.13490103 0.36382532 0.36865905
0.37497926 0.17946507 0.37933514 0.15315288 0.33981448 0.26053384 0.2044248 0.3405381
0.36710623 0.23865327 0.21053876 0.14948466 0.22529748 0.15649407 0.19600421 0.32252225
0.42066854 0.18439026 -0.13000596 0.06369898 0.07606242 -0.08349104 0.107186064 0.06711466
-0.0021007338 -0.049860887 0.02045368 0.013031806 -0.052651867 0.011763101 0.0053414893 -0.022656377
0.10835033 0.1304945 -0.055704024 0.12822443 -0.07011451 -0.13134561 -0.06622963 -0.08380889
-0.103733465 -0.002968622 -0.009194959 0.026442917 0.0009522659 -0.114442304 0.08929033 -0.08005746
-0.027469462 -0.055633288 0.041994363 -0.032710273 -0.11473206 0.039671045 0.081561476 -0.1062013
-0.033805147 -0.08177528 0.053015392 0.09164937 0.041206874 -0.023009332 -0.09355342 0.029122293
0.015732137 -0.0501998 0.13880149 0.05745924 0.13768789 -0.05410405 -0.1354651 -0.11951909
0.041498452 -0.10183023 0.12323936 -0.09862778 -0.06841619 -0.09494985 -0.028725386 -0.013755571
-0.09684905 -0.08994299 0.14006281 0.070324875 -0.05891309 0.060096025 -0.04988647 0.014615598
0.0639158 0.05604655 0.026623463 0.008688575 -0.030641187 -0.02727799 -0.10093167 -0.048119158
-0.0041176924 -0.013991585 -0.08833302 0.14015889 0.07652377 0.039458346 -0.020996861 0.12261189
0.073927775 -0.060636934 -0.071744375 -0.117146336 -0.0660475 -0.09149641 0.02690215 -0.074117
0.044395633 0.011977619 0.07877965 0.022262093 -0.008069925 -0.12853533 0.28689447 0.3394109
0.3626745 0.36570376 0.2546083 0.19831796 0.32255566 0.42678076 0.19790259 0.3167189
0.28740805 0.33641383 0.41038778 0.1318193 0.26876205 0.3120144 0.41092163 0.36470696
0.36555386 0.411339 0.28731585 0.4478787 0.2544414 0.21668062 0.16487226 0.34127277
0.38497078 0.19821861 0.24970353 0.26163736 0.40208784 0.3301808 0.36088285 0.21812253
0.3408612 0.40529785 0.36511126 0.17708614 0.23371288 0.1132393 0.22858208 0.18214495
0.39822644 0.2928245 0.1954773 0.2546699 0.37581635 0.15015778 0.37458965 0.44229198
00000000: f23d 973e 9a5a 8f3e 8e6a 4f3e 2346 b43e
00000010: 5684 523e 5bd5 8b3e 4fb9 933e 6d49 a73e
00000020: f0b2 9d3e 1491 463e 3647 b53e ba75 953e
00000030: 16ed a33e 175a 263e 4856 053e 98d0 9d3e
00000040: 653d 823e bfbb 773e e6ec 803e 3938 de3e
00000050: 900e 8c3e 8349 f53e aa45 953e 1163 9d3e
00000060: db81 a53e e509 c63e 9a42 e63e 91aa 873e
00000070: 9fa3 273e 7f23 0a3e 5047 ba3e e1c0 bc3e
00000080: 48fd bf3e b1c5 373e 3738 c23e 1cd4 1c3e
00000090: 2afc ad3e b164 853e bc54 513e 035b ae3e
000000a0: 59f5 bb3e 8661 743e 7997 573e 8212 193e
000000b0: 62b4 663e fb3f 203e 54b5 483e a321 a53e
000000c0: de61 d73e cdd0 3c3e 4820 05be 9c74 823d
000000d0: 9dc6 9b3d 5afd aabd 5e84 db3d 6973 893d
000000e0: 77ac 09bb ee3a 4cbd 7a8e a73c 5b83 553c
000000f0: 7ca9 57bd 06ba 403c a907 af3b de99 b9bc
00000100: c7e6 dd3d 5aa0 053e e729 64bd 444d 033e
00000110: 3298 8fbd 777f 06be 66a3 87bd ffa3 abbd
00000120: 3672 d4bd 368d 42bb 74a6 16bc d19e d83c
00000130: 7ca1 793a ba60 eabd d9dd b63d 2af5 a3bd
00000140: a307 e1bc bbdf 63bd 4802 2c3d 35fb 05bd
00000150: a4f8 eabd 1b7e 223d b409 a73d 1180 d9bd
00000160: 4477 0abd cc79 a7bd ab26 593d aab2 bb3d
00000170: 8ac8 283d 117e bcbc ef98 bfbd e091 ee3c
00000180: afe0 803c 4e9e 4dbd fa21 0e3e 615a 6b3d
00000190: 0efe 0c3e 359c 5dbd 5db7 0abe 6dc6 f4bd
000001a0: 48fa 293d 5e8c d0bd eb64 fc3d 5dfd c9bd
000001b0: ca1d 8cbd 1175 c2bd 8051 ebbc 0c5f 61bc
000001c0: cb58 c6bd 0834 b8bd a06c 0f3e 7d06 903d
000001d0: da4e 71bd 4027 763d c155 4cbd 4376 6f3c
000001e0: 49e6 823d 1191 653d 7319 da3c 865a 0e3c
000001f0: 3a03 fbbc 1776 dfbc 43b5 cebd 9818 45bd
00000200: b5ed 86bb f63c 65bc f1e7 b4bd d085 0f3e
00000210: 7fb8 9c3d 139f 213d 9c01 acbc f11b fb3d
00000220: 7267 973d 6f5e 78bd b7ee 92bd 6bea efbd
00000230: e943 87bd 7862 bbbd e661 dc3c a7ca 97bd
00000240: 32d8 353d c63d 443c 3a57 a13d fe5e b63c
00000250: b837 04bc c49e 03be d5e3 923e 44c7 ad3e
00000260: 79b0 b93e 863d bb3e 055c 823e dd13 4b3e
00000270: 0426 a53e 0283 da3e faa6 4a3e fb28 a23e
00000280: 2627 933e 6f3e ac3e 591e d23e a3fb 063e
00000290: 2e9b 893e 5ac0 9f3e 5264 d23e dfba ba3e
000002a0: e029 bb3e 079b d23e 101b 933e 5b50 e53e
000002b0: 2546 823e 86e1 5d3e 46d4 283e 4ebb ae3e
000002c0: e41a c53e d2f9 4a3e 48b2 7f3e 55f5 853e
000002d0: 75de cd3e 750d a93e a3c5 b83e 835b 5f3e
000002e0: 5c85 ae3e 3383 cf3e ddef ba3e 1256 353e
000002f0: 6e52 6f3e 02ea e73d 6c11 6a3e 3584 3a3e
00000300: 56e4 cb3e 18ed 953e 342b 483e 1864 823e
00000310: 006b c03e f6c2 193e 37ca bf3e 1874 e23e

lstm.bias_hh_l1 f4 [200]
0.32819176 0.41124845 0.19039246 0.18635046 0.2758313 0.35884374 0.31062287 0.4072567
0.1751683 0.20343915 0.15272208 0.25853527 0.39612198 0.37118632 0.37451574 0.35990247
0.22064966 0.33294538 0.17129868 0.23450887 0.26613665 0.34325418 0.23027208 0.206509
0.20003588 0.18535864 0.42594028 0.3028269 0.15626658 0.38534516 0.20514393 0.17445943
0.36812156 0.289787 0.20286702 0.3229157 0.11877476 0.3692614 0.34702277 0.18948391
0.33273566 0.3831946 0.23129237 0.22177118 0.311777 0.25650004 0.17479408 0.40869594
0.399248 0.23348801 -0.049160138 -0.09454815 -0.023080576 0.09379117 0.14106384 -0.07797376
0.0905677 0.045456626 -0.07253989 0.11105382 0.11020402 0.139595 -0.1064345 -0.044954523
-0.011757471 0.0940801 -0.061384037 0.08292617 0.014943655 -0.06952246 0.08731497 -0.12545769
-0.045186736 0.025784785 0.005507717 0.07320093 0.068196 0.13547096 -0.017407745 -0.103301056
-0.13770054 -0.111438006 -0.07665485 0.10122837 0.07709161 0.072685346 -0.101284176 0.12037911
-0.09821427 -0.14139481 0.00035373008 0.110669605 0.084231764 0.118664876 0.106314234 -0.010390699
-0.04013154 0.025645347 -0.07479171 -0.095377885 0.031247161 0.049132697 0.07616736 0.017107263
-0.07907148 0.06250964 0.12550549 0.101049714 0.08852804 -0.060272336 -0.09202722 -0.059789594
-0.049451783 -0.12466884 -0.033614073 -0.092906564 0.11985778 0.0773148 -0.10749825 0.08149255
-0.043890547 0.14126971 -0.06940656 -0.00018347126 -0.05275197 -0.01142512 0.10248518 0.022267897
-0.10939597 0.13132876 -0.081834026 0.080138855 -0.12315502 -0.0032927003 0.058717445 -0.04688859
0.07025128 -0.09124745 -0.068994604 -0.10956118 0.035233606 -0.01685372 0.03219421 0.12539254
-0.030893518 0.14686422 0.043600317 0.121182375 -0.05208309 0.07342163 0.22362857 0.4039052
0.44219667 0.32476646 0.3126452 0.12477515 0.1577704 0.16461791 0.17075115 0.3767148
0.25079396 0.23174846 0.22752981 0.27368417 0.17081295 0.27439213 0.21189162 0.23349543
0.34598944 0.27144513 0.23494564 0.23259099 0.20409678 0.26209605 0.30452752 0.16694081
0.36412743 0.29879215 0.23347041 0.16613948 0.34690204 0.18042015 0.343273 0.17341207
0.17578559 0.25931108 0.34768257 0.36381376 0.26372668 0.27890688 0.26336408 0.31125087
0.18649668 0.1759036 0.33484715 0.17646272 0.29937658 0.41690823 0.21278141 0.22454211
00000000: c008 a83e 288f d23e 3ef6 423e a8d2 3e3e
00000010: c339 8d3e 5eba b73e f609 9f3e f383 d03e
00000020: 525f 333e 5a52 503e 2d63 1c3e bc5e 843e
00000030: 80d0 ca3e 220c be3e 87c0 bf3e 2345 b83e
00000040: fcf1 613e d177 aa3e ec68 2f3e 1823 703e
00000050: 1043 883e 03bf af3e 72cc 6b3e 1877 533e
00000060: 35d6 4c3e a8ce 3d3e d814 da3e 210c 9b3e
00000070: 5904 203e f64b c53e 4011 523e 7ea5 323e
00000080: 6e7a bc3e f65e 943e 5fbc 4f3e 3555 a53e
00000090: 2e40 f33d d50f bd3e f8ac b13e 1208 423e
000000a0: 545c aa3e 1532 c43e e8d7 6c3e fc17 633e
000000b0: 3ca1 9f3e f953 833e 38fd 323e 9840 d13e
000000c0: 3c6a cc3e 7b17 6f3e 245c 49bd 76a2 c1bd
000000d0: 7a13 bdbc 9615 c03d 0a73 103e b5b0 9fbd
000000e0: 8f7b b93d ba30 3a3d cb8f 94bd 2f70 e33d
000000f0: a5b2 e13d fef1 0e3e 55fa d9bd 3c22 38bd
00000100: 68a2 40bc 11ad c03d d46d 7bbd 32d5 a93d
00000110: 3bd6 743c cb61 8ebd 31d2 b23d fb77 00be
00000120: ba15 39bd 9d3a d33c 147a b43b 5fea 953d
00000130: 58aa 8b3d e6b8 0a3e b09a 8ebc 818f d3bd
00000140: 5f01 0dbe 9c39 e4bd 38fd 9cbd d250 cf3d
00000150: 35e2 9d3d 0edc 943d 146e cfbd 5389 f63d
00000160: 9024 c9bd cdc9 10be d974 b939 bfa6 e23d
00000170: b481 ac3d 9206 f33d 47bb d93d c03d 2abc
00000180: f860 24bd 3116 d23c 652c 99bd 7b55 c3bd
00000190: 0cfa ff3c 5e3f 493d a2fd 9b3d 8824 8c3c
000001a0: 3af0 a1bd 0e05 803d 8384 003e 27f3 ce3d
000001b0: 304e b53d 20e0 76bd c478 bcbd efe5 74bd
000001c0: f48d 4abd 6052 ffbd e9ae 09bd cc45 bebd
000001d0: ff77 f53d 3957 9e3d 0b28 dcbd 91e5 a63d
000001e0: 93c6 33bd 02a9 103e 0725 8ebd 3162 40b9
000001f0: 7312 58bd 6d30 3bbc c0e3 d13d 2a6b b63c
00000200: ff0a e0bd 0c7b 063e 9998 a7bd d71f a43d
00000210: b338 fcbd 58ca 57bb b481 703d 400e 40bd
00000220: e7df 8f3d f1df babd 0b4d 8dbd 9d61 e0bd
00000230: 1d51 103d d010 8abc 13de 033d e766 003e
00000240: 6714 fdbc 9363 163e 3f96 323d 772e f83d
00000250: 1455 55bd 145e 963d e3fe 643e aacc ce3e
00000260: 9a67 e23e ca47 a63e 0813 a03e 1d8a ff3d
00000270: 908e 213e 9991 283e 64d9 2e3e c3e0 c03e
00000280: 1168 803e 784f 6d3e 93fd 683e 5520 8c3e
00000290: 97e9 2e3e 207d 8c3e 1efa 583e 6d19 6f3e
000002a0: 8725 b13e dbfa 8a3e 9795 703e 552c 6e3e
000002b0: bffe 503e 7431 863e 08eb 9b3e 88f2 2a3e
000002c0: e96e ba3e 49fb 983e de12 6f3e 7820 2a3e
000002d0: 259d b13e 0fc0 383e 7bc1 af3e ef92 313e
000002e0: 2301 343e 6cc4 843e 7303 b23e cc45 ba3e
000002f0: 2f07 873e e2cc 8e3e a8d7 863e 465c 9f3e
00000300: fcf8 3e3e 1320 343e 1671 ab3e a5b2 343e
00000310: e347 993e ff74 d53e 5fe3 593e 5eee 653e

fc.weight f4 [1, 50]
-0.55346364 0.5618882 0.44015846 0.41604775 0.48305672 -0.40963057 -0.37189218 0.5212656
-0.57288206 0.57485723 0.5284655 0.5474049 0.4939684 0.40899783 -0.5496089 0.5064631
-0.5094834 0.48669624 0.55211335 0.49651054 0.5320691 0.5671052 -0.5279389 -0.39644468
0.48298782 -0.44980088 0.586241 0.4869287 -0.5434649 -0.48220053 -0.4607189 -0.49931943
0.5533459 0.45419535 -0.4980438 -0.54870504 -0.5417324 0.4743679 -0.5042575 0.43925992
0.52062654 -0.4704566 0.52971256 -0.50155115 -0.5058153 -0.5546047 0.5369566 0.45033363
-0.44421744 -0.4427405
00000000: cbaf 0dbf e8d7 0f3f 735c e13e 3604 d53e
00000010: 3653 f73e 19bb d1be a768 bebe aa71 053f
00000020: 66a8 12bf d829 133f 8449 073f ba22 0c3f
00000030: 6de9 fc3e 2a68 d13e 2bb3 0cbf 91a7 013f
00000040: 816d 02bf 4030 f93e 4d57 0d3f a136 fe3e
00000050: ae35 083f ce2d 113f 0127 07bf ccfa cabe
00000060: 2e4a f73e 4d4c e6be e413 163f b84e f93e
00000070: 8420 0bbf fde2 f6be 59e3 ebbe cca6 ffbe
00000080: 14a8 0d3f 4b8c e83e 99ff febe ef77 0cbf
00000090: f9ae 0abf 59e0 f23e 0517 01bf ade6 e03e
000000a0: c847 053f b0df f0be 3e9b 073f a865 00bf
000000b0: 1d7d 01bf 93fa 0dbf fd75 093f 2192 e63e
000000c0: 7870 e3be e2ae e2be
