back-end/modelo_lstm.pth (torch, 129733 bytes, 9 tensors)

lstm.weight_ih_l0 f4 [200, 3]
000000 70 e6 9e 3c 09 a4 34 be a6 33 23 3d 25 35 8c 3c
       0.01939699 -0.176407 0.039844178 0.017115185
000010 1b e1 5f bd b4 e4 60 3e f0 aa 76 be 88 a2 9f 3e
       -0.054658037 0.21962243 -0.24088645 0.3117869
000020 77 2d 25 3e 92 80 2c 3e fe 50 7b be a1 70 35 3d
       0.16130625 0.1684592 -0.24542615 0.044296864
000030 c7 3f 03 bc 7f 89 7e 3e b4 2a 2c bd 9d f4 28 3e
       -0.008010811 0.24857138 -0.042032912 0.16499563
000040 8c 63 b7 bc ec b0 88 bc 4c 2a 91 bd b3 ee 72 3e
       -0.022386335 -0.016685925 -0.070881456 0.23723869
000050 13 81 0a bd 48 b1 02 be 81 b6 c2 3d d6 32 49 be
       -0.0338145 -0.1276294 0.09507466 -0.19648299
000060 c7 ee b1 3e 7c 60 b0 3e 2a f5 7e 3e e1 01 6b 3e
       0.34752485 0.34448612 0.2489821 0.22949935
000070 a1 c6 82 bd af eb c6 be d2 52 a2 3e 71 28 81 be
       -0.06385542 -0.38851687 0.31703812 -0.25226167
000080 0b a3 9a 3b c6 b2 a2 3e 04 33 a4 3e 0d 77 89 3e
       0.0047191433 0.31777018 0.32070172 0.2684864
000090 17 61 93 3e bd c0 8d 3e df 67 76 3d 22 41 e4 3d
       0.2878501 0.2768611 0.060157653 0.111452356
0000a0 9a 28 51 be 48 9f 07 3f 76 64 13 3e 6d e0 e1 bd
       -0.20425645 0.5297742 0.14393792 -0.11029134
0000b0 94 17 7a 3e 98 54 3f 3e 4f b3 9d 3e db e4 4c 3e
       0.24423057 0.18684614 0.30800864 0.20009176
0000c0 69 fc ba 3e 94 8c 5c be 92 57 c2 3d f4 d7 4c 3e
       0.365207 -0.21538001 0.09489359 0.20004255
0000d0 1f e2 ff 3d fd 5e ba 3d ad 03 33 3e 54 90 54 3e
       0.12494301 0.09100149 0.17481871 0.20758182
0000e0 bb c6 61 3c 40 06 42 be be 7a 48 be 71 33 32 3e
       0.013780291 -0.18947697 -0.19578072 0.17402436
0000f0 27 78 06 3e de e9 13 3e e9 24 9b 3d bc b7 a9 3e
       0.13131772 0.14444682 0.075753994 0.3314799
000100 78 d3 b8 3e 1c b3 46 3e f3 24 9a be c5 7d e0 bb
       0.36098838 0.19404262 -0.30106315 -0.0068509304
000110 7d d7 bf 3e c1 e0 4c 3d 02 22 27 3e c5 a2 82 3e
       0.37469092 0.05001903 0.16321567 0.25514808
000120 88 a3 d6 3d 0b 64 6c bd 7c aa d8 3e ae 86 dc 3c
       0.1048041 -0.057712596 0.4231757 0.026919689
000130 95 e1 4c 3e 66 b5 b2 3d dc c2 c7 3e b6 68 cc 3e
       0.20007928 0.08726005 0.39015853 0.39923638
000140 b8 54 94 3e 10 b3 a4 be 14 d6 19 be d9 97 ae 3e
       0.28970885 -0.32167864 -0.1502307 0.34100226
000150 ec a3 9a 3e d4 12 9b 3e 3d c3 83 3e ce 04 b5 3e
       0.30203187 0.30287802 0.25734892 0.35355228
000160 14 a3 8e 3e fc 44 82 3e 4d 06 fe bd c5 5e 4b 3e
       0.27858794 0.25443256 -0.124035455 0.1986037
000170 c1 f7 2b bd 91 8c d1 3d 90 43 8d be 2d ab bf bd
       -0.041984323 0.10231889 -0.2759061 -0.09358821
000180 58 a1 28 3e 46 03 8c 3e eb 8a 10 3e bc 71 6f bd
       0.16467798 0.27346247 0.14115493 -0.058458075
000190 e9 4e 83 bc 65 38 b6 3e 5c 01 ef bd 2a a4 e5 3d
       -0.016028838 0.355899 -0.11670181 0.112129524
0001a0 d8 84 18 be 4b f8 9b 3e b6 0b e5 bd 82 f3 17 3c
       -0.14894426 0.3046287 -0.11183874 0.009274365
0001b0 be af 0d 3d 5e 5d 2e 3e ed b1 33 3e 6d fd 72 3d
       0.03459143 0.17027804 0.17548342 0.059323717
0001c0 c1 89 5d 3e fe 2c 0e bd 99 98 3b ba f5 cc 68 3e
       0.2163458 -0.034710877 -0.0007156223 0.22734435
0001d0 3e c8 27 bd 12 24 dc 3e 90 30 cd 3e e0 d0 9d 3e
       -0.04096245 0.4299627 0.40076113 0.3082342
0001e0 9a ee 10 3e bf ff e5 bd 18 81 22 3f ea 5e cd 3e
       0.1415352 -0.1123042 0.6347823 0.40111476
0001f0 d7 27 9b 3e bd 79 87 3e 96 02 72 3c 6d 17 81 3e
       0.30303833 0.26460066 0.014771124 0.25213185
000200 33 9f 5f 3e 62 8a 75 3d 3a 7c 24 3e 64 8d 46 3e
       0.21838073 0.059946425 0.16063014 0.19389874
000210 6d 57 3c bc 98 f7 e4 bc 4e 60 b5 3e 0a 63 24 3e
       -0.011495453 -0.027950093 0.35425037 0.16053405
000220 40 15 e9 3d e8 da 65 3e 3a f0 c7 3d 63 47 6a 3e
       0.11381006 0.22446787 0.097626165 0.22878794
000230 6e d1 ac 3d 42 b3 f4 3e 91 b0 65 be cd 97 c6 bc
       0.08438383 0.47793013 -0.22430636 -0.024242306
000240 d0 c5 be 3e dc 46 5c be bb 9a ce 3d 11 33 27 3e
       0.37260294 -0.21511406 0.10088106 0.16328074
000250 9f fc 5e 3e d4 26 0b 3d a6 b9 0c be a7 b5 e5 bc
       0.21776055 0.033972576 -0.13742694 -0.02804072
000260 a1 a6 84 3d e6 5c c2 bd 10 32 e5 3d 5b 38 a2 bd
       0.064770944 -0.09490375 0.11191189 -0.07920905
000270 f3 c0 3b 3d 8c e4 2b 3d 2f eb 01 be d7 b6 81 bd
       0.045838308 0.041966006 -0.12687372 -0.06333702
000280 46 1e c2 3d 0f c0 e2 3d 32 70 0f 3e 4b 75 6c bd
       0.094784304 0.110717885 0.14007643 -0.057729047
000290 ad b0 e7 3d a4 b3 d8 3c db d8 6c bd 9a 24 af bd
       0.11312995 0.026452847 -0.057823997 -0.08551903
0002a0 f1 09 99 3d 12 63 d3 3d d1 e9 09 3e 0b c0 06 be
       0.07472599 0.103216305 0.134681 -0.13159196
0002b0 65 31 f7 3b 3a ca 02 3e de 93 97 3d 91 87 9c 3c
       0.00754373 0.12772456 0.0740125 0.019107612
0002c0 6c 5a b7 3c 22 10 2d bd 77 d9 94 bd 5c 7d d9 bd
       0.022381984 -0.042251714 -0.072680406 -0.106196135
0002d0 3f 93 c3 bd a2 b4 0a be 94 6a cd 3c 8c 01 81 3d
       -0.09549569 -0.13545468 0.025075234 0.06299123
0002e0 3e b9 da bc 16 71 88 bd 96 8a 76 3c b6 25 e9 bd
       -0.026699658 -0.066621944 0.01504769 -0.11384146
0002f0 7d 44 0d 3e 85 97 d2 bd ae 40 90 3d d3 bd 75 bd
       0.13795657 -0.10282806 0.07043587 -0.059995484
000300 bb 24 02 3e bd 91 dd 3c 21 0b 36 bd e6 2b f1 3d
       0.12709324 0.027047032 -0.044444207 0.11775951
000310 57 38 0b bd e6 d0 16 bd 60 52 10 3e dd 56 53 bd
       -0.033989277 -0.036820315 0.14093924 -0.05159651
000320 b0 dc 9a 3c 43 7a c8 bd b4 98 d4 bc aa a4 be 3d
       0.01890406 -0.097889446 -0.02595172 0.09308751
000330 90 16 b0 3d 3b ac da bc 32 8a 97 3d e4 08 85 bd
       0.085980535 -0.026693454 0.073994055 -0.064958364
000340 9a ff ee bd 5f 09 b6 bd cd 26 67 3d 4d 7e ca 3d
       -0.11669846 -0.08888506 0.056433488 0.09887371
000350 a5 9e 5f 3d ee f2 4b 3c 85 be b1 3d 05 fb 74 3d
       0.054594655 0.012448056 0.08678917 0.059809703
000360 ce 49 a4 3d 45 0c 21 bd e3 54 5c bd f9 af e2 3c
       0.080218896 -0.03931834 -0.05379189 0.0276718
000370 99 20 18 3d e5 75 c2 3d f6 5a 01 3d 05 d8 23 bc
       0.037140463 0.09495143 0.031580888 -0.010000234
000380 0d 09 fb bd 06 13 c1 bd fd ab 05 3e 1d 62 ac bd
       -0.12257586 -0.094274566 0.1305389 -0.08417151
000390 ee ac e6 3d 44 b7 e4 3d 8d 91 b5 3d 15 dc a6 3d
       0.112634525 0.11167768 0.08865652 0.08147446
0003a0 3d d6 a0 3d 95 2c 37 bd 89 ab 7a 3d dd 65 54 3d
       0.07853363 -0.04472025 0.061198745 0.051854957
0003b0 18 8a a7 bc 10 7f 03 3e d8 d5 a5 bb 16 d5 ce 3d
       -0.02045159 0.12841439 -0.0050608926 0.10099237
0003c0 17 8d 05 3d ad c6 04 bd 5f 2e 94 bc 13 b3 39 ba
       0.032605257 -0.032416034 -0.018088518 -0.0007083874
0003d0 1a 25 87 3d 43 05 41 bc f5 a1 b4 3b 7e 5c 35 bc
       0.065988734 -0.01178104 0.005512471 -0.011069415
0003e0 63 31 60 3d 9d 50 ea 3c 79 4d d6 3d 30 cc 62 bd
       0.0547346 0.028602893 0.104639955 -0.05537051
0003f0 69 a9 6a 3d fc 93 7e 3c 49 30 8c bc ef 73 54 3d
       0.05729047 0.015538212 -0.017112868 0.051868375

lstm.weight_hh_l0 f4 [200, 50]
000000 8f ef ee 3d ec 9c 91 bd ae 51 0d 3e 83 eb 43 3d
       0.11666786 -0.071100086 0.1380069 0.047832023
000010 e5 8b b4 ba da 44 f0 bc bc 1e e2 bd 4d 92 f9 bd
       -0.0013774602 -0.029329706 -0.11041018 -0.12186108
000020 76 4b 69 bd 4c 1a ab 3b a0 45 a9 3c 83 26 0d 3e
       -0.05695673 0.0052216407 0.020663083 0.13784222
000030 71 43 98 3d c9 ab 0a bd f3 fb dc bd aa 12 74 3d
       0.074347384 -0.033855233 -0.10790243 0.059588112
000040 50 f5 37 bb d2 e4 cb bd 6b ce b1 3d 78 f1 c1 3c
       -0.0028069802 -0.099557534 0.08681949 0.023674712
000050 2c e8 e2 bd 3f 9a c4 bd 63 ac 5e 3d 9f b2 66 3d
       -0.110794395 -0.095997326 0.05436362 0.05632269
000060 12 84 ad bd 7a ed dd 3d 77 da a8 bd a2 15 6b bd
       -0.08472456 0.10836311 -0.08244794 -0.057393678
000070 88 5c b1 3c 28 4f 08 bd ea 6d 87 bd 67 4d 0b be
       0.021650568 -0.033278614 -0.06612761 -0.13603745
000080 54 de c7 bd c8 bb 81 3c bc 77 ec bd 1f ee f3 3c
       -0.097592026 0.015836611 -0.11546275 0.02977663
000090 2e 93 3d 3d a7 e0 ca bd 57 9f d7 bc 37 aa fe 3d
       0.04628294 -0.0990613 -0.026321096 0.1243481
0000a0 91 7b 5a 3d 50 ab 8f bc 45 b4 55 bd 07 37 74 bd
       0.0533405 -0.017537743 -0.05217387 -0.05962279
0000b0 77 d1 8b bc ee c4 c0 bd 18 81 f6 3d b8 9a 9f bc
       -0.017067654 -0.09412561 0.120363414 -0.019482955
0000c0 18 fe 11 bd 40 85 c7 3d d8 e6 0d 3e a8 19 7e 3d
       -0.035642713 0.09742212 0.13857591 0.062036186
0000d0 4f f0 fc 3d 7b 5f 1f bd 4e 63 e5 3d 4b b5 8b 3d
       0.12350523 -0.038909417 0.112005815 0.06821688
0000e0 d6 cc f2 bd af c2 0b 3c a9 c1 14 3b b3 15 e2 bd
       -0.118554756 0.008530303 0.0022698438 -0.11039295
0000f0 e9 57 97 3d f2 16 65 bd e2 27 be bc d7 d6 07 3d
       0.073898144 -0.055930085 -0.023212377 0.03316387
000100 8e 74 3e 3d 12 92 a2 bd e3 e5 7c 3d 97 1c fe 3d
       0.046497874 -0.07938017 0.061742675 0.12407797
000110 f1 c0 85 bc 9d 1e e0 3d 07 a8 d6 3c 78 7d 8b bd
       -0.016327353 0.10943339 0.026203169 -0.06811041
000120 7c 7a 09 3e 8b 8f ee 3c e6 64 b2 bd 31 19 6e bd
       0.1342563 0.029121181 -0.08710651 -0.058129493
000130 1a e8 de 3d 34 42 37 3c db eb f7 bc 25 dd 09 be
       0.108841136 0.011185218 -0.030263832 -0.13463266
000140 82 8e 84 3d 2b a0 99 bd 36 7d 65 bd 90 79 a9 3d
       0.06472494 -0.07501253 -0.056027614 0.08275139
000150 b4 52 fd 3d 89 c1 b9 bd 9a b3 ba 3d 92 b1 bc bd
       0.1236929 -0.09070117 0.091162875 -0.09213556
000160 3e 26 3c bd 03 45 90 3d a5 5d e8 bc 80 2a 06 3e
       -0.045934908 0.07044413 -0.028364966 0.1310215
000170 88 1c 06 be d8 6b 78 3d d7 b6 ac bd a5 2d c3 3d
       -0.13096821 0.060649723 -0.084333114 0.095301904
000180 60 83 a8 bd fb 44 42 3d a9 a0 d2 3d 4e f9 07 be
       -0.08228183 0.047429066 0.1028455 -0.13278696
000190 70 96 0a be 69 4c c3 3c 72 ea 3e 3d b9 34 7a bd
       -0.1353395 0.023840146 0.046610303 -0.061085436
0001a0 7b 26 b2 3d 55 20 8f 3d d5 2f 06 3d e0 aa aa 3d
       0.08698746 0.06988589 0.03276046 0.08333373
0001b0 23 e6 c3 3b 98 8c aa 3c 2b bd d8 3d c7 fc a7 bd
       0.005978362 0.020818993 0.10582956 -0.0820251
0001c0 85 e9 05 be 86 8a 4d 3d 01 40 0a 3e 78 91 37 bb
       -0.13077362 0.050180934 0.13500978 -0.002801029
0001d0 80 a9 a4 3c 91 6e b4 bd 7a 29 c7 bc f8 50 d2 3d
       0.020100355 -0.08810151 -0.02431177 0.1026935
0001e0 12 87 f2 3d aa 42 a1 bc 1d 61 c1 bd 9d dc 89 bd
       0.11842169 -0.019685108 -0.09442351 -0.06731532
0001f0 ab ce 02 3d 7f c1 dd 3d fa c3 b5 bc ca b0 cb 3d
       0.031935375 0.10827922 -0.022188175 0.09945829
000200 58 7f d3 bc c3 89 81 3d e5 af ee 3c c7 d0 0e be
       -0.025817558 0.06325104 0.029136607 -0.1394683
000210 f5 a0 8b 3d a2 4a 39 3c c6 de f1 bd 4e 05 89 3c
       0.068178095 0.011309298 -0.11810069 0.016726162
000220 f5 a1 0b be 3a 77 66 3d b4 ae d4 3d f2 18 df bc
       -0.13636 0.056266047 0.103848845 -0.027233575
000230 67 70 a4 bd 8f b8 75 3d 52 c6 55 bc 19 d8 52 bd
       -0.080292515 0.059990462 -0.0130477715 -0.051475618
000240 26 4d 93 3d e7 3d c0 bd 62 1b cd 3c b9 ef 32 bd
       0.07192449 -0.09386807 0.025037471 -0.04368565
000250 f8 da e7 bc e5 8d 90 bd 8a cc 66 3d 54 1d 95 3d
       -0.028302655 -0.07058314 0.056347407 0.072809845
000260 61 44 b7 bd f0 54 c8 bc fa 77 e6 bd 7b 6e b4 3d
       -0.08948589 -0.024454564 -0.112533525 0.08810135
000270 da 81 03 bc 1c fe 0f 3e 47 88 af bd e2 d8 dd bd
       -0.0080265645 0.14061779 -0.08570915 -0.10832383
000280 36 16 d9 bd 6b c5 6b 3d 4e ee 9f 3d 88 95 bf 3c
       -0.105999395 0.05756132 0.07809125 0.023386732
000290 0b f2 98 3d 7d 4b 86 3d c6 19 0d 3d 38 6d d1 3d
       0.07468041 0.06557367 0.034448408 0.1022591
0002a0 e0 2d b8 bd 0b b7 f9 bd 2b 70 94 3d 06 6e a7 bc
       -0.08993125 -0.12193116 0.07247957 -0.020438205
0002b0 ca f3 a9 3c a1 42 93 3d e7 4b 00 be f5 fb d1 bd
       0.02074613 0.07190443 -0.12528954 -0.10253135
0002c0 a3 e1 30 bc 6c 50 0b 3e 9b 3a 26 3c 36 2d 09 be
       -0.0107959835 0.13604897 0.010145809 -0.13396153
0002d0 67 13 4a bd cc 0a 88 3d ab ca 08 3e 9c 16 8f 3d
       -0.04933491 0.06642684 0.13358562 0.06986734
0002e0 5a e4 ab bd e4 24 00 3e 9b 14 f5 3d 32 d5 f7 bc
       -0.08393164 0.12514073 0.11966821 -0.030253027
0002f0 16 59 96 bd ff 4b 1a 3d d3 0b 9a 3d 03 63 03 3e
       -0.073412105 0.03767013 0.075217865 0.12830739
000300 47 e2 0c 3e 99 db 1d 3d 3e 37 c4 3d c2 e6 b4 3c
       0.13758193 0.038539503 0.09580849 0.02208269
000310 8c 1c 1c bc ac 9b aa bd f6 2d cf 3d 16 fc 33 3d
       -0.0095282905 -0.08330473 0.10116188 0.04394158
000320 1f 4e 54 bd 54 c9 25 bd 56 59 9e 3d 8a 6f 41 3b
       -0.051832315 -0.040475205 0.07731883 0.0029515945
000330 7b ff a8 3c 65 df 6c bd a5 c0 03 be 51 eb 8c bc
       0.020629635 -0.057830233 -0.12866457 -0.017202051
000340 8c 94 0c be e7 5a 01 be 95 b7 f0 3c 8b fb c5 3c
       -0.13728541 -0.12632333 0.029384414 0.024167797
000350 f8 f2 d9 3d 30 00 a1 bd 36 f7 09 3e b4 bd cb bd
       0.10642046 -0.07861364 0.1347321 -0.099482924
000360 11 50 01 3e 6d 7e 11 3d f1 89 2c 3d 05 bb a3 3d
       0.12628199 0.03552096 0.04212374 0.079946555
000370 b7 0c 5f bc 62 f0 4b bd 3a 7b d4 3d 1f c0 08 3e
       -0.013613871 -0.049789794 0.10375066 0.13354538
000380 c1 5b 5d 3d ac f6 a3 bd 18 95 ac 3c 7b e0 cd 3d
       0.05404258 -0.08006033 0.021067187 0.10052582
000390 c7 86 95 bd 6c 66 9c 3d df f7 a8 3d c7 fa 6a 3c
       -0.07301097 0.07636723 0.08250403 0.014342017
0003a0 a3 d1 fe bd 46 6b ba bc e1 dc 32 bd f9 04 28 bd
       -0.12442329 -0.02275623 -0.043667678 -0.041020367
0003b0 58 88 07 3e bc f4 52 bd a4 56 e9 bd 2f 1d 70 bd
       0.13235605 -0.05150293 -0.113934785 -0.05862158
0003c0 7e 5e d4 bd 5c dd 0d 3c 91 92 00 be f3 e4 d2 bc
       -0.103695855 0.008658733 -0.1255591 -0.025743937
0003d0 6b a9 87 3d 09 31 c6 3d 86 4a 8b bd 5a 38 48 3d
       0.06624111 0.096773215 -0.068013236 0.048881866
0003e0 00 8c e2 bd 15 a6 2e 3d df fc 60 3d ef 3c d1 bc
       -0.11061859 0.042638857 0.054928657 -0.02554175
0003f0 a5 80 b1 3d 7f 30 c7 bd bb 59 dc bc ba b5 77 bd
       0.08667115 -0.09726047 -0.026898256 -0.060476042

lstm.bias_ih_l0 f4 [200]
000000 bd aa 9f 3e 06 86 c5 3d 5b 77 7d bd 5e a6 d5 3e
       0.3118495 0.096447036 -0.061881404 0.4172849
000010 d1 cc 36 3e c4 a9 8b bb fa 09 f8 3a 90 6d 22 bc
       0.17851569 -0.004262181 0.0018923872 -0.009913817
000020 b6 10 6c 3e c2 70 c5 3d f9 5e 9f 3e fb fb 81 3e
       0.2305325 0.096406475 0.31127146 0.25387558
000030 1e a4 f7 3d f4 a3 ee 3e d2 b0 93 b8 b0 bc 61 3e
       0.1209185 0.4660946 -7.0424416e-05 0.22044635
000040 fa c4 da 3e 76 df a9 3e d0 e1 32 3e 2c 45 a6 3e
       0.42728406 0.331783 0.17468953 0.3247465
000050 ef 53 25 3e 04 ce 82 3e a7 48 da 3d a9 b6 69 3c
       0.161453 0.25547802 0.106583886 0.014264741
000060 2c 87 9b 3e 86 82 91 3e 78 42 50 3e 3e 5a 65 bd
       0.30376565 0.28419894 0.20337856 -0.055994265
000070 4b f3 0d 3e ea f0 be 3e 37 43 e9 bd 2e 4f a4 3e
       0.1386234 0.37293178 -0.11389773 0.3209166
000080 b7 99 81 3e 87 74 86 bd 3f c4 28 3c 8d fd 49 3e
       0.25312588 -0.065651946 0.010300695 0.19725628
000090 1e c2 07 3e 1b 17 51 3d 18 4f 80 3e 0f 77 51 3e
       0.13257644 0.051047426 0.25060344 0.20455573
0000a0 9f 27 a1 3e 89 89 bf 3e 48 ce 8f 3e a4 01 50 3e
       0.3147554 0.37409618 0.28087068 0.20313126
0000b0 00 76 78 3e 5c 8f 9e 3d 1a 02 32 3e 18 05 c5 3e
       0.24263763 0.077421874 0.17383614 0.3848045
0000c0 db bb d5 3e 36 d4 42 3e e1 fd e1 bd 9a 19 89 3d
       0.41744885 0.19026265 -0.11034752 0.06694336
0000d0 2c c2 d7 bd b8 78 0c be 04 3e be 3c 29 a0 5a 3d
       -0.10535082 -0.13717926 0.02322293 0.053375397
0000e0 a9 49 dc 3d 0f 31 68 3d 50 d0 58 3d 82 c7 e6 bd
       0.10756237 0.05668741 0.052933037 -0.11268522
0000f0 5b 1b c5 3c fe 63 fb 3d 3b 40 04 3e f7 6e b6 bd
       0.024060896 0.12274931 0.12915127 -0.089078836
000100 cf 9a 54 bd 4e 8c a5 3b af fc e6 bd 88 07 05 3e
       -0.05190545 0.005052126 -0.11278664 0.12991154
000110 cc 2c 40 bd 95 ce e1 3c 50 0c 6d bd 97 26 0f 3c
       -0.04691772 0.027564326 -0.05787307 0.008737228
000120 89 b4 04 be 51 fb c1 bd fe 27 01 be 0a 4d ae bd
       -0.12959494 -0.09471763 -0.12612912 -0.08510788
000130 17 f6 ad 3d 04 51 a6 3d 8e 9c e0 bd 30 ab c6 3c
       0.084942035 0.08120921 -0.109673604 0.02425155
000140 40 56 f8 bd d8 bb 8d bc 78 b0 06 be 9f 5c 8f 3d
       -0.12125826 -0.017301485 -0.13153255 0.07000088
000150 9c d4 c4 3c eb e1 f3 3d 78 69 9f 3d 0c 7d 02 be
       0.024027161 0.11908325 0.077837884 -0.12743014
000160 46 b3 1d bd 2e b4 e3 3d 5e 58 e6 3d 34 e2 c2 3d
       -0.038501047 0.11118351 0.112473235 0.09515801
000170 f4 d7 ff 3d 83 4a a1 3a 15 8e 31 3d 65 f8 9c 3d
       0.12492362 0.0012305531 0.04334839 0.07664565
000180 06 fa d7 3c 8b 5f bf 3c a9 2c f1 3d c1 d7 8f bc
       0.026364338 0.023360988 0.117760964 -0.017558934
000190 ec 01 81 be fd 97 b4 be 79 46 c0 be 2d 1d 31 be
       -0.2519678 -0.35272208 -0.37553766 -0.17296286
0001a0 8c eb 9c 3d a2 cd 1b be 06 1b 3a bd 9d 79 1c be
       0.076621145 -0.15215161 -0.045435928 -0.15280767
0001b0 30 fd bb be a8 49 3c 3e dc 85 bc 3e b5 eb 00 3e
       -0.36716604 0.18387473 0.36820877 0.12589915
0001c0 e7 ed e5 3d 7e c9 9e 3e ed e1 92 3e 37 f3 fc 3d
       0.11227017 0.310131 0.28687993 0.12351077
0001d0 06 7e 98 3e fc 62 72 be 44 3b 8c be 38 0d 9a 3e
       0.29783648 -0.23670572 -0.27388966 0.3008821
0001e0 96 6e 13 3e 8d 55 b5 be 70 45 95 be ed 1e a7 3d
       0.14397654 -0.35416833 -0.2915454 0.081601955
0001f0 43 c7 36 be d6 89 9e 3d ac d7 3f 3e c1 6e 51 3e
       -0.1784945 0.07741134 0.18734616 0.20452406
000200 0e 16 d2 bd 04 5f a5 3e 3a 76 2f be 8f cb a9 be
       -0.10258113 0.32299054 -0.17134944 -0.33163115
000210 40 2d 7a 3e 1a ad 5d ba f7 81 93 3e d0 43 b9 3e
       0.24431324 -0.0008456275 0.28810093 0.3618455
000220 47 0e 6b be 55 f8 7e 3e 4a 40 83 be 7d ad 5e 3e
       -0.22954665 0.24899419 -0.25634986 0.21745868
000230 ff 76 2a be 56 d8 9b be be a7 b7 bc 2f 8b 4c 3e
       -0.16646956 -0.3043849 -0.022418853 0.1997497
000240 0c 0d 69 be fe b1 18 3e f6 5a df 3d 06 b8 c2 3e
       -0.22758883 0.14911649 0.10906021 0.38031024
000250 63 0c b4 3e de a6 2d 3e da 1c 25 3e d4 cf d5 3e
       0.351657 0.16958186 0.16124287 0.41760123
000260 2c 97 34 be 06 aa 40 3e 58 5d 12 3e fc 60 92 3e
       -0.17635792 0.18814859 0.1429342 0.28589618
000270 00 4e 70 3e ed 64 42 be 20 15 d8 3e 1d 3f 2a 3e
       0.23467255 -0.18983813 0.42203617 0.16625638
000280 19 22 c1 3e d6 87 a3 3e c3 22 c6 3c 20 f3 cd 3e
       0.37721327 0.31939572 0.024186498 0.40224552
000290 e3 ad a4 3c d6 3d 97 3d 8c d8 9e 3e 6a b1 b9 3c
       0.020102447 0.07384841 0.31024587 0.022667605
0002a0 78 61 40 be 86 87 4d 3e 1d b1 03 bc 98 06 43 3e
       -0.18787181 0.2007123 -0.008037833 0.19045484
0002b0 61 91 76 bd e2 d8 9e 3e f6 c2 6f 3d b8 52 c7 3c
       -0.060197238 0.31024843 0.05853554 0.024331436
0002c0 84 96 94 3e 89 0d 27 3e f8 ef 48 3e 0f 28 e0 3e
       0.29021084 0.16313757 0.19622791 0.43780562
0002d0 39 d6 8d 3e 43 58 e3 3e bc 1e 92 bd 26 9b be 3d
       0.277025 0.44403276 -0.07134768 0.09306936
0002e0 18 d5 a5 3e 59 17 27 3e 72 c0 99 3e ff 2d bf 3e
       0.3238914 0.163175 0.30029637 0.3733978
0002f0 e5 79 cf 3d 57 8a 36 3e d2 a0 97 3e e4 8b 97 bd
       0.101306714 0.1782621 0.29614884 -0.07399729
000300 2d cf a8 bc ed bc b9 3d e8 8a 35 3e 03 4d 07 3e
       -0.020606602 0.09069238 0.1772877 0.13212971
000310 db 55 1b bd 4a 0c d8 3e 45 2f 10 3e d7 f8 d5 3e
       -0.037923675 0.42196876 0.14080532 0.41791412

lstm.bias_hh_l0 f4 [200]
000000 d9 08 c6 3d 76 27 b3 bd a4 18 92 be 86 f6 dc 3e
       0.09669656 -0.08747761 -0.28534424 0.43156832
000010 32 47 2c 3d 5d 7b 70 3e 7e cf 41 bd fc a2 0a be
       0.042060085 0.2348456 -0.04731702 -0.13538736
000020 05 e9 be 3e 27 aa 2a 3e 1d 61 ac 3e 50 c8 81 3e
       0.37287155 0.1666647 0.33667842 0.2534814
000030 43 7f 26 3e b7 97 7b 3e 91 0c 5a bc 53 04 69 3e
       0.16259484 0.24569593 -0.01330866 0.22755556
000040 0b ed b3 3e d1 b4 c4 3d d1 13 9b 3e 52 01 23 3e
       0.35141787 0.096048005 0.30288556 0.15918472
000050 a0 29 0a 3c d8 2f 88 3e 79 77 a1 bc 25 c4 7f 3e
       0.008432776 0.26599002 -0.01971029 0.24977167
000060 6c bd 09 3e 8d cd 60 3e 87 52 9c 3e 7a f2 6d 3d
       0.13451165 0.21953411 0.30531713 0.05809257
000070 a8 56 a2 3e ea 29 6c 3e 69 e1 27 3c 86 8b 44 3e
       0.31706738 0.23062864 0.010246613 0.19193849
000080 ba b8 a1 3e e4 f4 3f 3e bd 8c 5b 3d cb 42 b1 3e
       0.31586248 0.18745762 0.053601015 0.34621271
000090 95 85 61 3e a4 95 74 3e 58 a0 c0 3d bc 7d 95 3e
       0.22023614 0.23885208 0.09405583 0.2919749
0000a0 33 dd c2 3e 27 18 47 3e 4d e9 5d 3e 3d de 80 3e
       0.38059387 0.19442807 0.21671028 0.25169554
0000b0 e0 7f 5b 3e 67 8a fc 3d ea 3a 4e 3e 32 68 82 3e
       0.21435499 0.12331086 0.20139661 0.2547012
0000c0 5f 82 08 3f 31 ff e0 3e bb 0c 77 bd 38 f2 d8 bc
       0.5332393 0.43944696 -0.060314875 -0.026482686
0000d0 9a e4 ab bc 29 a0 ac bd 66 06 02 3e 0f e0 02 be
       -0.02098303 -0.084289856 0.12697753 -0.12780784
0000e0 72 3f 39 bd 35 1a 80 bd 29 0f 95 bb 6c 84 c4 3c
       -0.04522652 -0.062549986 -0.0045489264 0.023988925
0000f0 15 15 78 bd ec d9 e4 bc 89 73 0f be e1 66 60 bd
       -0.06056698 -0.027935944 -0.14008917 -0.054785613
000100 0e 37 ef bc 18 a4 43 bd b7 aa d8 bd 62 ee cd bc
       -0.029201057 -0.047763914 -0.10579436 -0.025138084
000110 e9 91 4f bd d3 f7 d9 3d 50 42 40 3c 8a 96 53 3d
       -0.05067626 0.10642972 0.01173456 0.051657237
000120 0e a6 f8 bd 99 6f e3 3c 4a 35 64 bd 93 92 0e 3e
       -0.121410474 0.027763175 -0.055714883 0.13923101
000130 c8 da 6c 3d 4b d9 8f bd b3 a7 0c 3e 9b 53 e6 3d
       0.057825834 -0.07023867 0.13735847 0.11246415
000140 36 82 e6 3d be c8 08 3d d1 47 15 3d fe 52 7d bd
       0.112553045 0.033394568 0.036445443 -0.061846726
000150 5b 89 6c 3d fb e4 0d bd ab 77 b7 3d ae d4 96 3d
       0.05774818 -0.0346422 0.08958372 0.07364784
000160 af bd 58 bc 28 fe 2a bd 56 26 d4 3d 45 b6 b4 bd
       -0.013228818 -0.04174629 0.103588745 -0.08823828
000170 a3 5d b0 3d bc 14 c4 3d 0f 92 87 bd 84 9d 04 be
       0.0861161 0.09574267 -0.06619655 -0.12950712
000180 44 fc 06 be fd 71 40 3d 84 fb f3 bd e6 13 93 3d
       -0.13182169 0.046983708 -0.11913207 0.0718153
000190 92 6e ae be 3c 17 4e be cb 4c 4d be d1 02 80 be
       -0.34068733 -0.2012605 -0.20048825 -0.2500215
0001a0 b9 96 80 3e 77 28 bc be 59 82 16 be 84 03 18 be
       0.25114992 -0.36749622 -0.14698161 -0.14845091
0001b0 2a 8b a6 be 50 ca 9c 3e 9c 61 c0 3e 64 1b c1 3e
       -0.3252805 0.30623102 0.3757447 0.3771621
0001c0 7a 6a c6 3d 3a a8 a9 3e 26 26 38 3e 16 64 9b 3e
       0.096882775 0.3313616 0.17983302 0.30349797
0001d0 3d 7b 9e 3e 1e d1 df bd 89 2e 9e be 97 96 14 3e
       0.30953398 -0.10928558 -0.30894879 0.1451057
0001e0 65 dd 56 3e 5a 53 ce be 9d 97 2c be 7a 6d 9b 3e
       0.20982893 -0.40297967 -0.16854711 0.3035696
0001f0 78 93 a1 be dc a2 95 3d 23 ee 5c 3e 87 9f b7 3e
       -0.31557822 0.073064536 0.21575217 0.35863897
000200 c8 4c 6c be 61 ad 8d 3e 7a 98 84 be be 5d 83 be
       -0.23076165 0.2767134 -0.2589758 -0.25657457
000210 c6 1d 67 3e c9 a4 20 3d b4 00 90 3e b2 3c 47 3e
       0.22569951 0.03921965 0.28125536 0.19456747
000220 7e 60 5a be 2f 6f ef 3d ca 62 44 bd cb 38 8e 3e
       -0.21325871 0.116911285 -0.047945775 0.27777705
000230 4b 95 cb be a1 29 35 be 39 a8 b2 bd 9e f1 6c 3e
       -0.3976234 -0.17691661 -0.08723492 0.23139045
000240 aa 65 09 be bf 46 b0 3e d5 c8 58 3e 78 7b 8d 3e
       -0.13417688 0.34428975 0.21170361 0.27633262
000250 17 2e a2 3e 97 1c 8b 3e 3e f1 09 3e 75 8c d3 3e
       0.3167579 0.2717025 0.13470933 0.41318098
000260 fc bc 8e be b8 b2 38 3d 33 40 f2 3d 3a 62 a2 3e
       -0.2787856 0.045092314 0.11828651 0.31715566
000270 2e 3e a4 bb 83 45 49 be 85 ca 8a 3e 95 ca 3a 3e
       -0.005012295 -0.19655423 0.27107635 0.18241341
000280 65 6d 87 3e a2 cf 93 3e ac 1f cf 3d 64 43 d6 3e
       0.2645065 0.2886935 0.10113463 0.4184829
000290 c3 ce 44 bd eb 5b 8e 3c 84 f5 7a 3e 90 86 2b 3e
       -0.048048746 0.017377814 0.2450772 0.1675055
0002a0 49 77 88 be 79 ae 31 3e d9 2d f1 ba 20 6c 4d 3d
       -0.26653507 0.17351712 -0.0018400504 0.050151944
0002b0 d5 48 cf 3a 83 34 07 3e 07 30 bc 3d 5d 6f dc 3d
       0.0015814552 0.13203625 0.09188848 0.10763428
0002c0 c1 ce c9 3e 18 4b 8a 3e 76 2f 84 3e df eb b6 3e
       0.39415553 0.27010417 0.2581746 0.3572683
0002d0 1f 52 6b 3d 19 3a 64 3e d8 ec 78 bc 66 3e ef bc
       0.057451364 0.22287787 -0.015193187 -0.029204559
0002e0 f2 54 75 3e 7b d1 f8 bc 4f 50 c0 3e e8 e3 95 3e
       0.23958185 -0.030373326 0.3756127 0.2927544
0002f0 fb b4 b2 3d 34 55 b6 3e 00 56 06 3f 28 d4 be 3d
       0.087259255 0.3561188 0.52474976 0.09317809
000300 a3 a8 19 3d aa e9 c2 3d 66 49 70 3e 5a aa 86 3e
       0.03751434 0.09517224 0.234655 0.26301843
000310 73 2e 54 be d6 e1 de 3e b8 01 98 3d 1d 47 6a 3e
       -0.20720844 0.43531674 0.07422203 0.2287869

lstm.weight_ih_l1 f4 [200, 50]
000000 62 e8 86 be 01 f1 5d bf 7f 0b 9f bd 74 c8 6f be
       -0.2634917 -0.8669587 -0.077658646 -0.2341631
000010 e8 5f a5 3e 51 48 3f bf 5b 39 0a bf 17 f7 f1 be
       0.32299733 -0.7471972 -0.5399377 -0.47258827
000020 b0 75 a5 be 46 32 00 3f 12 4e c3 3e 2f 06 a1 3e
       -0.3231635 0.5007671 0.381455 0.3145003
000030 05 80 da 3e 04 df 56 3f 88 61 02 3f da 04 ad 3e
       0.42675796 0.83934045 0.5093007 0.33792764
000040 65 e6 20 3f f6 f1 b1 be 12 41 c8 be 63 20 ea 3e
       0.62851554 -0.34754914 -0.39112145 0.45727834
000050 c6 57 d6 3e 33 2a a2 be 0f 65 b2 be a7 eb 1c 3f
       0.4186384 -0.3167282 -0.34842727 0.61297077
000060 39 ac 1e bf d2 09 af 3e 87 7d 87 3f b3 77 6a 3e
       -0.6198154 0.3418718 1.0585183 0.22897224
000070 b9 4c f1 be b7 2b 04 3f 2b 08 1b bf c5 6a f0 be
       -0.47128847 0.51629204 -0.6055934 -0.4695646
000080 8c f6 ca 3e 1a ef c0 be f7 c5 14 3f 96 d4 ec 3e
       0.39641225 -0.3768242 0.5811457 0.4625594
000090 60 c0 fc be 4f 03 0f 3f 89 4e df be 36 29 a2 3d
       -0.4936552 0.55864424 -0.43614605 0.079180166
0000a0 70 f0 6c bf 27 cd 46 be dd 82 dc be 40 54 c2 3e
       -0.9255438 -0.19414197 -0.4306859 0.37954903
0000b0 9a 50 d3 be 3d 6d 10 3f 26 92 af 3e 53 b7 fc 3e
       -0.41272432 0.56416684 0.3429119 0.49358615
0000c0 15 12 35 3f 1d 27 f8 3e d8 2b 9b be 61 2c 03 bf
       0.70730716 0.4846734 -0.30306888 -0.5123959
0000d0 bd 36 d5 bd ca 19 6b be 37 45 87 3e 28 25 36 bf
       -0.10410831 -0.22959056 0.26419994 -0.71150446
0000e0 90 82 e9 be f9 d1 a8 be a6 d0 0f bf 2f 17 25 3f
       -0.45607424 -0.32972696 -0.5617775 0.644885
0000f0 8a 74 b3 3e a1 03 a3 3e cb d9 e3 3e 59 fa 4d 3f
       0.3504985 0.31838706 0.445021 0.80460125
000100 43 97 1f 3f 39 91 b6 3e 91 35 1b 3f df 9a cb be
       0.6234018 0.3565767 0.6062861 -0.39766595
000110 8e 4f 0d bf de a5 08 3f f8 d8 98 3e c2 81 0c bf
       -0.55199516 0.53378093 0.29853034 -0.54885495
000120 77 b9 04 bf bb 81 17 3f e4 ce 41 bf 58 f6 d4 3e
       -0.51845497 0.5918233 -0.75706315 0.41594195
000130 0f dc 94 3f 5a 55 7d 3e 4b d9 d5 be 72 11 24 3f
       1.1629657 0.2473959 -0.41767344 0.6408912
000140 c5 03 34 bf 67 21 a1 be ac d4 11 3f 56 2a de be
       -0.7031825 -0.31470796 0.56965137 -0.43391675
000150 e2 3c d5 3e 66 2b af 3e d4 b2 ba be 0a e2 0c 3f
       0.41648012 0.34212798 -0.3646456 0.5503241
000160 95 86 02 bf 90 e0 b0 3d 07 03 87 bf 91 42 9f be
       -0.50986606 0.08636582 -1.0547799 -0.31105474
000170 be 20 13 bf 38 9c 00 3f cf 8b 21 bf 98 09 1f 3f
       -0.57471836 0.5023837 -0.63103956 0.62124014
000180 ae e6 99 3e c3 33 d9 3e cc 68 03 3f f2 ec f6 3e
       0.30058807 0.42422304 0.5133178 0.4822765
000190 ed dd 9b be bc 25 56 bf 47 f1 cd be 42 56 9c be
       -0.30442753 -0.8365133 -0.40223143 -0.3053456
0001a0 34 1a 01 3e bb 67 fa be eb a6 fa be c7 2c 8d be
       0.12607652 -0.48907265 -0.48955473 -0.27573225
0001b0 a3 27 d9 be 53 7b 51 3f 66 0f 9e 3e 87 11 b8 3e
       -0.42413053 0.818288 0.30871123 0.35950872
0001c0 85 ab d1 3e 2c 63 4c 3f 87 d2 17 3f 35 c0 f5 3e
       0.40951172 0.79838824 0.59305614 0.47998205
0001d0 0e 13 2c 3f 9c 58 f7 be 49 ee 1f bf eb 2e 90 3e
       0.67216575 -0.4830979 -0.6247297 0.28160796
0001e0 8e 5e cc 3e d0 55 cf be 8f f5 1e bf 3d 14 bd 3e
       0.3991589 -0.40495157 -0.6209344 0.36929503
0001f0 27 d4 1f bf af 2f 05 3f 8c 60 60 3f 46 10 d4 3e
       -0.62433094 0.52025884 0.8764732 0.41418666
000200 e5 a1 a8 be f2 20 1d 3f 1f 01 50 bf db 00 cc be
       -0.32936016 0.61378396 -0.8125171 -0.39844403
000210 1f e2 f0 3e 07 f3 d6 be ae a2 09 3f 4d cf 24 3f
       0.47047517 -0.4198229 0.53763855 0.64378816
000220 10 33 f0 be 15 69 f1 3e db 4f d1 be ce bf f0 3d
       -0.46913958 0.47150484 -0.40881237 0.11755334
000230 11 fa 3c bf c6 d6 40 be 74 a7 09 bf 90 33 10 3f
       -0.7381907 -0.1883193 -0.5377114 0.5632868
000240 6c 8c 06 bf 74 b1 13 3f 0e 7d f3 3e cf f8 0e 3f
       -0.52558017 0.57692647 0.47556347 0.558484
000250 73 1c 33 3f e9 f9 97 3e 4b e4 75 be 1e 2a 19 bf
       0.69965285 0.29682854 -0.24012868 -0.5982989
000260 18 72 97 be 7a 5c d5 be 2a 8a c2 3e f5 6c 37 bf
       -0.29579234 -0.41672117 0.37996036 -0.7165063
000270 58 ff f0 be ef cb cb be 13 f6 03 bf 25 85 23 3f
       -0.47069812 -0.39804026 -0.51547354 0.6387504
000280 13 fe cd 3e bc be a0 3e a4 37 f3 3e d7 80 1c 3f
       0.40232906 0.3139552 0.47503388 0.61134094
000290 a0 23 1e 3f c8 96 ec 3e 33 2b 05 3f bd d3 e5 be
       0.6177311 0.46208787 0.5201904 -0.44888106
0002a0 30 af e0 be a5 eb da 3e 5f 0e 19 3e 94 0d 84 be
       -0.43883657 0.42757908 0.14946888 -0.2579161
0002b0 1a e7 e3 be 56 ea 09 3f 78 cc 32 bf 2c c9 14 3f
       -0.44512254 0.53873193 -0.69843245 0.58119464
0002c0 4f dc 89 3f 61 d1 ca 3e 09 ed b3 be b7 d1 ca 3e
       1.0770358 0.39612868 -0.3514178 0.39613125
0002d0 82 d5 1f bf a5 d7 94 be ad 7c eb 3e 4c 91 f7 be
       -0.6243516 -0.29070774 0.45993558 -0.4835304
0002e0 09 f9 d7 3e f5 7b 1b 3f fa 72 fc be 11 8e 1d 3f
       0.42182186 0.6073602 -0.4930647 0.615449
0002f0 c0 68 c9 be 2b 22 fc 3d 6a 00 66 bf 2a bc af be
       -0.3933773 0.123112045 -0.8984438 -0.34323245
000300 f1 16 12 bf e4 ed b0 3e de 57 17 bf f9 97 eb 3e
       -0.57066256 0.34556496 -0.5911845 0.46014383
000310 95 47 09 3f 29 37 d8 3e a6 de de 3e 9c 82 a9 3e
       0.5362485 0.42229584 0.43529242 0.3310746
000320 ff cd 69 be 97 b1 57 bf 5c 57 5a bd 20 0c 9c be
       -0.22832488 -0.84255356 -0.05330597 -0.30478
000330 cc f3 4f 3e ba 35 2a bf 38 ad 09 bf ca 2e d1 be
       0.20307845 -0.6648823 -0.53779936 -0.4085601
000340 d2 a6 00 bf 09 fb 3d 3f d0 fb f0 3e 02 70 dd 3e
       -0.5025455 0.74211174 0.47067118 0.43249518
000350 e7 a5 de 3e a3 a7 53 3f eb 08 21 3f d6 91 cb 3e
       0.43485948 0.8267767 0.6290423 0.39759701
000360 84 02 4b 3f 56 10 16 bf 19 03 fb be 34 2c dc 3e
       0.79300714 -0.58618677 -0.490258 0.43002474
000370 85 7d 41 3e 49 b4 9f be 78 2d 26 bf 6d f0 d1 3e
       0.18895538 -0.31192234 -0.6491313 0.41003743
000380 81 01 00 bf 04 01 07 3f 11 1a 84 3f 92 2e 28 3e
       -0.50002295 0.52735925 1.0320455 0.16424015
000390 8d 20 f0 be b3 ff 21 3f d4 36 80 bf 49 96 ed be
       -0.46899834 0.6328079 -1.0016732 -0.4640372
0003a0 37 77 e8 3e e0 03 d5 be 12 ee e4 3e a6 c4 f5 3e
       0.45403454 -0.4160452 0.44712883 0.48001593
0003b0 1a 18 c0 be 69 55 a2 3e a8 9e e4 be 51 f7 54 3e
       -0.37518388 0.31705788 -0.44652295 0.20797469
0003c0 b9 cb 81 bf a3 d0 b1 be 5f e1 03 bf 9b c1 ec 3e
       -1.0140296 -0.3472949 -0.51515764 0.4624146
0003d0 2e 51 fa be e7 a4 a5 3e 01 a9 40 3e f5 de 18 3f
       -0.4889006 0.32352373 0.1881447 0.59715205
0003e0 f7 57 39 3f 1e bc 06 3f e9 36 b5 be 8c 5a 32 bf
       0.7239985 0.52630794 -0.35393456 -0.69669414
0003f0 46 70 45 bb 26 95 9b be 78 98 02 3e a4 44 03 bf
       -0.0030126735 -0.3038723 0.12753475 -0.5127661

lstm.weight_hh_l1 f4 [200, 50]
000000 cd a4 b6 3d 3c 7d 3a 3d d0 63 86 3d 0a 1f 0e 3e
       0.08918152 0.04552959 0.065620065 0.13879028
000010 08 fd ff 3d c5 36 d3 3d 26 4a 62 bc 60 b9 05 3c
       0.12499434 0.10313181 -0.013811624 0.008161873
000020 21 29 78 3d b5 bc 1c bc 64 76 09 3e 87 54 10 3e
       0.0605861 -0.009566476 0.13424069 0.14094745
000030 89 17 fe bc 99 d6 2f bd fa 16 a7 3c 5b 3a ea 3d
       -0.031017082 -0.042929266 0.020396698 0.11436912
000040 fd 7f b5 bc c4 91 3b 3d 1a 20 0f be 39 7e 88 3d
       -0.022155756 0.04579331 -0.1397709 0.066647
000050 c0 20 f5 bd 98 76 08 3e f2 b8 ed 3d 66 14 25 3d
       -0.11969137 0.1332649 0.11607541 0.040302657
000060 95 b2 e9 bd 4b 34 01 be 4f ea 38 bd bf fa 26 bd
       -0.11411015 -0.12617604 -0.04514533 -0.040766474
000070 c8 46 b9 3c a5 e6 52 bd ad b1 a5 3d 4d d8 c9 3d
       0.022616759 -0.05148949 0.080905296 0.09855709
000080 71 c2 b3 3d 68 6f f7 3c 36 2b 0e bd 71 e2 07 be
       0.08777321 0.03020449 -0.034709178 -0.13269974
000090 19 c7 b6 3d 22 c2 c8 bd 44 87 df 3d 0b 3b cf 3d
       0.089246936 -0.09802653 0.10914472 0.101186834
0000a0 ac a6 47 3c a7 39 3a 3d 4e 9b 3c 3c 2e fc 7c 3d
       0.012185734 0.045465138 0.011511637 0.061763935
0000b0 cb 66 70 3d c5 f9 ea 3d 0e 78 88 3d 56 93 f6 bd
       0.05869178 0.11473421 0.066635236 -0.12039821
0000c0 80 3a bc bb ad 9d a1 3d 85 8b f9 bd 47 43 a7 3c
       -0.0057442784 0.078914024 -0.12184814 0.020417823
0000d0 54 4a b6 3c 61 fd 5d bd 5f bf ce 3b a5 a5 e6 3c
       0.02225224 -0.05419672 0.0063094343 0.028155157
0000e0 d5 21 de 3d 95 c8 81 bc 29 fd 03 3e 33 cd 91 bd
       0.10846297 -0.015842715 0.12889542 -0.07119217
0000f0 65 26 8d 3c df 56 00 3e 5e 96 f9 bd 35 82 0c be
       0.017230222 0.12533139 -0.121868834 -0.13721545
000100 bc 81 67 3a 04 f9 62 bd ed 86 41 bd 8e ac f7 bd
       0.00088312826 -0.05541326 -0.047247816 -0.12093459
000110 5c fd 9d bd e7 9f d0 bd 10 6f 55 3c 17 fb 13 bd
       -0.0771434 -0.10186749 0.013026968 -0.03612813
000120 9c ee b2 bd 2d 7f 54 bd 46 81 b1 bd 2b c3 00 3e
       -0.087369174 -0.051879097 -0.08667235 0.1257445
000130 06 ec e4 bb ed d0 e2 3b af 46 02 3e 51 52 20 3d
       -0.006986144 0.0069218786 0.12722276 0.039141003
000140 6d 27 dd 3d 82 24 9c bd 8b dd 3a bd 06 9e aa 3c
       0.107985355 -0.07624151 -0.045621436 0.020827305
000150 7b 4a 75 3c 9d a8 bf 3d 51 ea 2e 3c 0f ea cf 3d
       0.014971371 0.09358332 0.010675983 0.10152065
000160 71 0a 0e 3e 76 99 07 be f9 78 94 bb d4 fe 01 3e
       0.1387117 -0.13242134 -0.0045310226 0.12694865
000170 2c 7b c9 3d 6b fb 73 bd 27 87 fe 3c 20 2d 13 3c
       0.09837946 -0.059565943 0.031070305 0.008982927
000180 be 0c bd bd 67 d0 e2 bd 94 a8 b1 bc d4 4f 69 3c
       -0.09230946 -0.11074906 -0.02168683 0.014240224
000190 02 28 4b bd b6 19 8e bd 0e dd 7d bc 0e 3f 83 bd
       -0.0495987 -0.06938498 -0.015494598 -0.06408511
0001a0 15 25 bd bd 6d 15 a4 3d b3 10 de 3d a8 9f 8b bd
       -0.092355885 0.08011899 0.10843029 -0.068175614
0001b0 62 e2 ab 3d a3 5a 00 bd 3b 8c 2b bd 6e dd 84 bd
       0.083927885 -0.031336438 -0.04188178 -0.06487547
0001c0 6a 53 96 3d 25 34 01 3e e0 01 1f bd 89 f7 08 be
       0.07340129 0.12617548 -0.038820148 -0.13375677
0001d0 d5 3a 8b bd cb e5 9f bd ca 90 fa bd 03 cb 89 ba
       -0.06798331 -0.078075014 -0.122346476 -0.0010512773
0001e0 5e 68 e5 3d cd 4a d9 3d 5b de 3e bd ae f4 96 bd
       0.11201547 0.1060997 -0.046598773 -0.07370888
0001f0 ac 75 78 3c a3 14 04 be 45 be 7c bd 0f 7f 57 bb
       0.015164774 -0.12898497 -0.061704893 -0.003288213
000200 6d cb ce bc 8d 8f 83 bd e7 59 d6 3d 04 d1 dd bd
       -0.025243485 -0.064238645 0.10466366 -0.10830882
000210 0a 32 b6 3c d7 ac 49 3c 47 36 ef 3d c5 89 8c 3c
       0.022240657 0.012309275 0.116802745 0.017155537
000220 56 29 08 be e0 f6 03 3d e1 05 ee 3d 3d 16 81 bd
       -0.13297018 0.03221786 0.11622215 -0.0630307
000230 83 99 7b 3b 65 97 1d bd 5b 28 4f bd 81 52 b6 bd
       0.003839106 -0.03847446 -0.050575595 -0.08902455
000240 1a 19 5a 3d 14 2e 4a bd 8d 45 e6 3c de 34 a1 3d
       0.053246595 -0.04936035 0.028109336 0.07871412
000250 35 f9 5b 3c f0 57 6f 3b 94 82 0f be 06 15 10 3c
       0.013426115 0.003652092 -0.14014655 0.008794075
000260 82 b7 b2 3c d5 88 03 3e 17 c5 d5 bd a3 dd 9e 3c
       0.021816019 0.12845166 -0.104379825 0.019392794
000270 99 09 b9 3d 32 9f d0 3d 4a 7b 68 bd 40 c2 03 be
       0.09035034 0.10186614 -0.056758203 -0.12867069
000280 53 c4 02 3e 47 8a 33 bd 27 ce 9e 3c 02 b3 35 bd
       0.12770204 -0.043833043 0.01938541 -0.04436017
000290 17 6e ab bc 9b e0 b4 3c 0c 42 00 bd 46 d6 d6 3d
       -0.020926518 0.022079756 -0.031312987 0.10490088
0002a0 8b 6b 0a be 02 cf 77 3c 3e de 82 bd fd 25 c4 3c
       -0.13517587 0.015125038 -0.063900456 0.023943895
0002b0 36 b4 03 3e d9 01 e5 bd 85 91 0f 3d 19 f5 fe bd
       0.12861714 -0.11181993 0.035050888 -0.124490924
0002c0 f7 81 18 3d 7c 6a ff 3d 0a ff 9d bd 13 f0 8a bd
       0.03723332 0.12471482 -0.077146605 -0.06784072
0002d0 0a 0a da 3d 6a d0 04 3e a1 89 07 3e 98 cb a0 3d
       0.10646446 0.12970129 0.13236095 0.078513324
0002e0 cd f7 f5 3d ab a3 fc 3c 21 b0 0a be 7c f4 04 be
       0.12010155 0.030839762 -0.1354375 -0.12983888
0002f0 91 24 d6 bd 1b 49 22 bd e7 51 e3 bc 17 7d f7 3c
       -0.10456193 -0.0396205 -0.027749015 0.030211015
000300 be 68 0c be 6f 96 0a be 55 7c 90 bd 61 14 0d 3e
       -0.13711831 -0.13533948 -0.070549645 0.13777305
000310 c1 d1 62 bd 64 7c 34 3d dd 85 66 bc d1 25 47 3d
       -0.05537582 0.04406394 -0.014070001 0.04862005
000320 d0 20 d6 bd a0 ed 1f 3c 84 8a ab bc 8f 24 e2 bd
       -0.10455477 0.009761244 -0.020940073 -0.11042129
000330 f9 51 cd bc 2b d5 aa bd 38 8b a4 bd 22 da 24 3d
       -0.025063502 -0.0834144 -0.08034366 0.04024709
000340 dd 1b 00 3d 3f ab b3 3c 09 c6 22 bd d8 52 b2 bd
       0.031276572 0.021932242 -0.039739642 -0.087072074
000350 82 59 26 bd 3a 9c 0d be e1 b5 a0 bd 7c e7 a9 3d
       -0.040612705 -0.13829127 -0.07847191 0.08296105
000360 74 36 b1 bc c7 60 62 3d fb 2c 50 3d 34 9d 86 bc
       -0.02163241 0.055268075 0.050824147 -0.016432382
000370 41 7a b2 3d 32 df fe bd 4b 74 19 3d e5 27 7d bd
       0.08714724 -0.12444915 0.03746442 -0.061805625
000380 d1 be cb bc e3 b6 96 3d 2f 10 a2 3d a4 95 2e bd
       -0.024871262 0.073591016 0.07913243 -0.042623177
000390 61 de 95 bc 46 a7 99 bd 6e a7 7e 3d c1 1f 89 bd
       -0.018294515 -0.07502608 0.062171392 -0.0669551
0003a0 08 c9 d7 3d 9b 3f 79 3d 11 51 69 3d cf b7 01 3e
       0.105363905 0.060851675 0.056962077 0.12667774
0003b0 93 d2 8f 3d fa 98 ca bc 44 01 95 bd ea a8 94 bd
       0.07022586 -0.024731148 -0.07275632 -0.0725878
0003c0 48 07 01 3e dd 89 29 bd ef 60 05 3e ce a1 95 3d
       0.12600434 -0.041391242 0.13025258 0.073062524
0003d0 68 5e ee 3d c9 4d 28 bd 18 a8 65 bd 66 ef 26 3d
       0.116391 -0.041089807 -0.05606851 0.040755652
0003e0 b2 2b 74 3d a0 d0 60 bd 45 6e c6 bb f5 47 81 bd
       0.059611984 -0.05488646 -0.0060556256 -0.06312553
0003f0 dd ff 9a 3b 14 5b f7 bd 84 d4 0d 3e 80 14 8a bd
       0.0047302083 -0.12077919 0.138506 -0.06742191

lstm.bias_ih_l1 f4 [200]
000000 13 0d f0 3e 5f c3 f6 3e d7 92 af 3e e2 31 0a 3f
       0.46884975 0.4819593 0.34291717 0.53982365
000010 9a 22 db 3e 26 c4 cd 3e 46 39 15 3f d0 bf 02 3f
       0.42799836 0.40188712 0.5829052 0.5107393
000020 ff 18 0a 3f b8 f7 d8 3e 8b 38 ee 3e b7 76 d2 3e
       0.5394439 0.42376494 0.46527514 0.41106197
000030 e7 73 00 3f c4 dd ac 3e 6d f7 21 3e b6 b3 e8 3e
       0.5017685 0.33762944 0.15817042 0.4544961
000040 67 fe 0a 3f 84 94 ee 3e 2c 2c d2 3e 99 12 0c 3f
       0.5429444 0.46597683 0.41049325 0.5471588
000050 52 98 05 3f a1 06 39 3f 00 99 17 3f 6f 26 cf 3e
       0.5218555 0.7227574 0.59217834 0.4045901
000060 b2 c8 ed 3e e6 4a 11 3f e9 93 35 3f cc af 0e 3f
       0.4644218 0.5675491 0.7092882 0.55736995
000070 a6 72 e1 3e 79 46 9b 3e 5f b0 db 3e 52 67 10 3f
       0.44032782 0.30327204 0.42907998 0.56407654
000080 29 c3 f4 3e 17 f9 88 3e 2c 87 0d 3f 41 25 c5 3e
       0.47805145 0.2675254 0.5528438 0.38504985
000090 22 19 1c 3f b6 8a b4 3e e9 56 a7 3e 83 33 1b 3f
       0.6097585 0.35262078 0.32683495 0.60625476
0000a0 ff 80 09 3f c6 ce f1 3e d6 85 01 3f 24 83 dd 3e
       0.5371246 0.47228068 0.5059484 0.43264115
0000b0 86 32 c3 3e 5a 54 f0 3e fc 12 fd 3e 98 c9 fc 3e
       0.38124484 0.46939355 0.49428546 0.49372554
0000c0 e0 50 1a 3f da f5 b3 3e 48 20 05 be 9c 74 82 3d
       0.60279655 0.35148507 -0.13000596 0.06369898
0000d0 9d c6 9b 3d 5a fd aa bd 5e 84 db 3d 69 73 89 3d
       0.07606242 -0.08349104 0.107186064 0.06711466
0000e0 77 ac 09 bb ee 3a 4c bd 7a 8e a7 3c 5b 83 55 3c
       -0.0021007338 -0.049860887 0.02045368 0.013031806
0000f0 7c a9 57 bd 06 ba 40 3c a9 07 af 3b de 99 b9 bc
       -0.052651867 0.011763101 0.0053414893 -0.022656377
000100 c7 e6 dd 3d 5a a0 05 3e e7 29 64 bd 44 4d 03 3e
       0.10835033 0.1304945 -0.055704024 0.12822443
000110 32 98 8f bd 77 7f 06 be 66 a3 87 bd ff a3 ab bd
       -0.07011451 -0.13134561 -0.06622963 -0.08380889
000120 36 72 d4 bd 36 8d 42 bb 74 a6 16 bc d1 9e d8 3c
       -0.103733465 -0.002968622 -0.009194959 0.026442917
000130 7c a1 79 3a ba 60 ea bd d9 dd b6 3d 2a f5 a3 bd
       0.0009522659 -0.114442304 0.08929033 -0.08005746
000140 a3 07 e1 bc bb df 63 bd 48 02 2c 3d 35 fb 05 bd
       -0.027469462 -0.055633288 0.041994363 -0.032710273
000150 a4 f8 ea bd 1b 7e 22 3d b4 09 a7 3d 11 80 d9 bd
       -0.11473206 0.039671045 0.081561476 -0.1062013
000160 44 77 0a bd cc 79 a7 bd ab 26 59 3d aa b2 bb 3d
       -0.033805147 -0.08177528 0.053015392 0.09164937
000170 8a c8 28 3d 11 7e bc bc ef 98 bf bd e0 91 ee 3c
       0.041206874 -0.023009332 -0.09355342 0.029122293
000180 af e0 80 3c 4e 9e 4d bd fa 21 0e 3e 61 5a 6b 3d
       0.015732137 -0.0501998 0.13880149 0.05745924
000190 4f 9b 0e 3e c7 b1 61 bd 1c 17 12 be 2d f9 f4 bd
       0.13926433 -0.055101182 -0.14266628 -0.11961589
0001a0 da 42 23 3d cd 92 d1 bd 87 cf f4 3d 5c 89 c5 bd
       0.039858676 -0.10233078 0.11953645 -0.0964534
0001b0 d0 8e 8d bd 40 c4 be bd 6a 79 ef bc 5e 2d 11 bc
       -0.06912005 -0.093147755 -0.0292327 -0.008860914
0001c0 fe cc cc bd 9c 01 b3 bd a6 eb 07 3e 38 77 89 3d
       -0.10000037 -0.08740541 0.13273486 0.06712192
0001d0 5e 2b 77 bd 92 06 7b 3d 33 9b 43 bd 4a 66 7e 3c
       -0.060344093 0.061285563 -0.04775543 0.015527317
0001e0 91 8f 76 3d a8 07 61 3d ad 5a b8 3c 90 2f f0 3b
       0.06019551 0.054938942 0.022504175 0.0073298886
0001f0 f8 24 f0 bc 54 0d da bc 92 47 d7 bd ed aa 33 bd
       -0.029314503 -0.026617683 -0.10511698 -0.04386418
000200 94 52 54 bb 9d 42 39 bc 4a 95 b1 bd 77 1c 0e 3e
       -0.0032397853 -0.011307386 -0.08671053 0.13878046
000210 b7 90 a4 3d 95 64 2a 3d fc a4 c2 bc 4f 03 f8 3d
       0.08035415 0.04159983 -0.023760311 0.12110006
000220 4d ad 86 3d e2 1b 6e bd 98 ab 86 bd de 29 e9 bd
       0.06576023 -0.05813206 -0.06575698 -0.11384939
000230 5c 35 8d bd 95 f4 be bd 9d a4 f3 3c af ff 9b bd
       -0.06894943 -0.09323994 0.02974158 -0.07617127
000240 7a 9a 2f 3d 05 99 f0 3b 97 42 ab 3d f5 47 a4 3c
       0.04287193 0.00734246 0.083623104 0.020053843
000250 8c 17 59 bc dd b0 05 be b3 16 ec 3e df 69 0c 3f
       -0.013250243 -0.13055749 0.46111068 0.54849046
000260 d2 df 00 3f e0 12 10 3f 30 24 ed 3e 57 d2 a8 3e
       0.5034152 0.562788 0.4631667 0.32972977
000270 87 e5 1d 3f c6 d3 1e 3f 39 81 cf 3e 68 17 03 3f
       0.61678356 0.6204189 0.40528277 0.5120759
000280 80 6d c5 3e af 4b e9 3e 74 49 12 3f b1 9b a2 3e
       0.38560104 0.45565554 0.5714333 0.31759408
000290 e5 06 93 3e 20 54 e6 3e 8e b6 35 3f 67 1c 19 3f
       0.28716198 0.44986057 0.7098168 0.59808964
0002a0 4f fb 08 3f 59 cc 0a 3f cd 3d 0c 3f 86 46 32 3f
       0.53508466 0.5421806 0.547818 0.6963886
0002b0 cf 28 0a 3f 68 15 a0 3e 63 24 99 3e 8f 71 fe 3e
       0.5396852 0.31266332 0.29910573 0.49696013
0002c0 fa f6 26 3f 46 c0 f7 3e 9d e7 07 3f 6f 33 dc 3e
       0.65220606 0.4838888 0.5308779 0.4300799
0002d0 d2 4e f2 3e 84 79 0a 3f 7a b3 e8 3e e2 aa a7 3e
       0.4732576 0.5409167 0.4544943 0.3274756
0002e0 7f ed 00 3f 3b fd 20 3f 69 68 20 3f d9 3a 87 3e
       0.5036239 0.628864 0.6265932 0.26412085
0002f0 61 7f b8 3e 7f 70 c9 3e 72 02 d2 3e fa 39 d1 3e
       0.36034682 0.3934364 0.4101749 0.40864545
000300 15 de 33 3f 99 44 12 3f 5f a1 b9 3e 4e 22 0a 3f
       0.70260745 0.5713592 0.3625593 0.53958595
000310 4b 32 27 3f 87 e2 a4 3e d9 dc 0c 3f ef 26 1d 3f
       0.65311116 0.32204077 0.55024487 0.6138753

lstm.bias_hh_l1 f4 [200]
000000 f3 6b 00 3f fc fb 1c 3f ab 58 a9 3e 01 87 bf 3e
       0.5016472 0.61322 0.3307546 0.37407687
000010 30 1a ff 3e 29 a9 f9 3e 97 e1 1a 3f 09 5d 17 3f
       0.49824667 0.4876187 0.6050047 0.59126335
000020 9d 2e d0 3e 5a d8 dd 3e ed 22 87 3e b9 5f c1 3e
       0.40660563 0.43329126 0.26393834 0.37768343
000030 99 e5 13 3f 78 de 0b 3f 16 11 ce 3e 25 94 01 3f
       0.57772213 0.54636335 0.4024741 0.50616676
000040 30 5c 02 3f 3b 97 0e 3f bb f3 a8 3e b9 fe b1 3e
       0.50921917 0.5569951 0.32998452 0.3476465
000050 93 b2 03 3f 56 41 16 3f 4c e9 07 3f e5 7e 9b 3e
       0.5144436 0.58693445 0.5309036 0.3037025
000060 f3 b1 ae 3e 4c 73 bb 3e 07 7d 2f 3f 91 60 18 3f
       0.3412014 0.36611402 0.6855015 0.5952235
000070 01 a3 dd 3e 5b c0 0d 3f aa 71 8a 3e 83 60 bd 3e
       0.43288425 0.55371636 0.27039844 0.36987695
000080 4f 40 f1 3e 35 75 c1 3e 49 b4 c0 3e 37 08 0e 3f
       0.47119376 0.37784734 0.37637547 0.55481285
000090 35 06 c7 3e da 35 ec 3e 82 59 f0 3e 0b 10 e9 3e
       0.38871923 0.46134835 0.4694329 0.45520052
0000a0 77 b4 00 3f 12 e8 1d 3f f1 d5 06 3f f1 42 01 3f
       0.5027537 0.61682236 0.526702 0.5049277
0000b0 8d 79 ef 3e 32 c4 11 3f ed 36 f2 3e 4d 74 14 3f
       0.46772423 0.56939995 0.4730753 0.5798996
0000c0 05 d5 14 3f 2c 19 cd 3e 24 5c 49 bd 76 a2 c1 bd
       0.5813754 0.40058267 -0.049160138 -0.09454815
0000d0 7a 13 bd bc 96 15 c0 3d 0a 73 10 3e b5 b0 9f bd
       -0.023080576 0.09379117 0.14106384 -0.07797376
0000e0 8f 7b b9 3d ba 30 3a 3d cb 8f 94 bd 2f 70 e3 3d
       0.0905677 0.045456626 -0.07253989 0.11105382
0000f0 a5 b2 e1 3d fe f1 0e 3e 55 fa d9 bd 3c 22 38 bd
       0.11020402 0.139595 -0.1064345 -0.044954523
000100 68 a2 40 bc 11 ad c0 3d d4 6d 7b bd 32 d5 a9 3d
       -0.011757471 0.0940801 -0.061384037 0.08292617
000110 3b d6 74 3c cb 61 8e bd 31 d2 b2 3d fb 77 00 be
       0.014943655 -0.06952246 0.08731497 -0.12545769
000120 ba 15 39 bd 9d 3a d3 3c 14 7a b4 3b 5f ea 95 3d
       -0.045186736 0.025784785 0.005507717 0.07320093
000130 58 aa 8b 3d e6 b8 0a 3e b0 9a 8e bc 81 8f d3 bd
       0.068196 0.13547096 -0.017407745 -0.103301056
000140 5f 01 0d be 9c 39 e4 bd 38 fd 9c bd d2 50 cf 3d
       -0.13770054 -0.111438006 -0.07665485 0.10122837
000150 35 e2 9d 3d 0e dc 94 3d 14 6e cf bd 53 89 f6 3d
       0.07709161 0.072685346 -0.101284176 0.12037911
000160 90 24 c9 bd cd c9 10 be d9 74 b9 39 bf a6 e2 3d
       -0.09821427 -0.14139481 0.00035373008 0.110669605
000170 b4 81 ac 3d 92 06 f3 3d 47 bb d9 3d c0 3d 2a bc
       0.084231764 0.118664876 0.106314234 -0.010390699
000180 f8 60 24 bd 31 16 d2 3c 65 2c 99 bd 7b 55 c3 bd
       -0.04013154 0.025645347 -0.07479171 -0.095377885
000190 27 72 06 3d cd 29 45 3d 13 3e 8d 3d 8d 59 8b 3c
       0.032823708 0.048135567 0.06896605 0.017010475
0001a0 e7 4b a5 bd 1c fd 7d 3d a3 73 f9 3d 28 67 d3 3d
       -0.08071118 0.062008962 0.12180259 0.1032241
0001b0 2a dd b3 3d a2 7e 6f bd b3 82 bd bd 8d d9 60 bd
       0.08782418 -0.058470376 -0.092534445 -0.054894973
0001c0 4b 76 57 bd f5 1f fa bd a9 b2 27 bd 11 d5 c4 bd
       -0.052603047 -0.122131266 -0.040941868 -0.09610952
0001d0 c4 89 f2 3d da c6 a0 3d b3 ca d7 bd 99 c3 a8 3d
       0.11842683 0.07850428 -0.10536709 0.08240432
0001e0 8b 03 43 bd 9e 86 0f 3e bb 94 96 bd 24 22 ca ba
       -0.0476108 0.14016196 -0.07352587 -0.0015421552
0001f0 3c a3 52 bd e7 5e 30 bc 71 51 c9 3d 84 46 d9 3c
       -0.051425204 -0.010764814 0.09829987 0.026522882
000200 c9 3e de bd b6 3a 09 3e f2 45 a4 bd 1b 4d a1 3d
       -0.10851819 0.13401303 -0.080211535 0.07876035
000210 7b 60 f4 bd 55 e4 96 ba 0a 30 65 3d 6f 3f 46 bd
       -0.11932465 -0.001151214 0.055954017 -0.04840034
000220 a1 4b 7e 3d b1 be b5 bd ec 09 81 bd 10 a1 d9 bd
       0.062083844 -0.08874262 -0.063007206 -0.10626423
000230 28 6e 04 3d 63 59 98 bc 8a 7f 0f 3d c8 98 fc 3d
       0.032331616 -0.01859731 0.03503374 0.12333828
000240 e2 c7 04 bd 90 a4 11 3e 04 6d 46 3d b4 a8 f3 3d
       -0.032417186 0.14222932 0.04844381 0.11897412
000250 0b 8d 6a bd e6 39 92 3d 4d b2 cb 3e 92 ec 1c 3f
       -0.057263415 0.071399495 0.3978447 0.6129848
000260 5c 3b 15 3f 05 98 05 3f 98 6d 05 3f ea 2a 83 3e
       0.582937 0.5218509 0.5212035 0.25618678
000270 53 6c e7 3e 4c 6d b7 3e 6e 9a c1 3e 46 73 12 3f
       0.45199832 0.35825574 0.37813133 0.57207143
000280 69 ae b2 3e fd b4 b3 3e 51 f3 c6 3e 3d 3e eb 3e
       0.3489869 0.3509902 0.3885751 0.45945922
000290 18 c1 41 3e e6 10 d3 3e ef c2 02 3f 97 0a ef 3e
       0.18921316 0.4122383 0.51078695 0.46687767
0002a0 20 f9 03 3f 7f f8 cd 3e 5c ab fd 3e eb 52 f6 3e
       0.5155201 0.4022865 0.495448 0.48110136
0002b0 df 8a fa 3e 19 56 b7 3e 50 a5 e0 3e 83 2f a5 3e
       0.48934075 0.35807875 0.43876123 0.3226281
0002c0 ff a0 21 3f 53 9f 15 3f c4 bf 03 3f 52 4e ab 3e
       0.63136286 0.58446234 0.51464486 0.3345819
0002d0 82 0d d6 3e a2 45 c8 3e 52 af df 3e 91 c6 90 3e
       0.4180718 0.39115626 0.43688446 0.28276494
0002e0 39 56 ad 3e be 3b f7 3e 34 f2 1b 3f a2 d5 e6 3e
       0.33854845 0.48287767 0.6091645 0.45084864
0002f0 54 dd c7 3e 6e 21 0f 3f 64 d1 e3 3e 13 aa 09 3f
       0.39036047 0.55910385 0.4449569 0.5377514
000300 58 54 fb 3e 36 ac e8 3e 6a 7e 00 3f d6 39 ec 3e
       0.49087787 0.45443887 0.5019289 0.46137875
000310 bd a0 13 3f 19 bb 16 3f 28 e1 c6 3e 08 d1 ca 3e
       0.5766714 0.5887924 0.38843656 0.39612603
