back-end/modelo_lstm.pth (torch, 129733 bytes, 9 tensors)

lstm.weight_ih_l0 f4 [200, 3]
0	0x3da072b9	0.078343816
1	0xbde19ec0	-0.11016607
2	0x3dc7ed91	0.09762109
3	0x3c1a7d50	0.009429291
4	0xbd47e2ae	-0.048800163
5	0x3e5b722b	0.2143027
6	0xbe98f7a0	-0.29876423
7	0x3e6b4dbe	0.22978875
8	0x3da31c86	0.07964425
9	0x3e5e2b09	0.21696104
10	0xbe3ee709	-0.1864282
11	0x3dbd1ac5	0.092336215
12	0xbdcba496	-0.09943502
13	0x3e1bbed1	0.1520951
14	0xbe08d6bf	-0.13363169
15	0x3e2a6587	0.16640292
16	0xbcd6a446	-0.026201379
17	0xba144ee8	-0.000565751
18	0xbe18e0cb	-0.14929502
19	0x3e1c581c	0.15267986
20	0xbde4f578	-0.11179632
21	0xbe08152b	-0.13289325
22	0x3dba128e	0.0908557
23	0xbe37b179	-0.17938794
24	0x3eb1eec7	0.34752485
25	0x3eb0607c	0.34448612
26	0x3e7ef52a	0.2489821
27	0x3e5a06de	0.21291682
28	0xbd6cfd15	-0.057858545
29	0xbebf7769	-0.3739579
30	0x3eacc0e3	0.3374091
31	0xbe5ab466	-0.21357879
32	0x3d008801	0.031379703
33	0x3ea2b2c6	0.31777018
34	0x3ea43304	0.32070172
35	0x3e89770d	0.2684864
36	0x3e936117	0.2878501
37	0x3e8dc0bd	0.2768611
38	0x3d7667df	0.060157653
39	0x3dcdca4e	0.10048352
40	0xbe4b2740	-0.19839191
41	0x3f03106b	0.51196927
42	0x3e1622c3	0.14661698
43	0xbdd56299	-0.10419197
44	0x3e64c3b1	0.22340275
45	0x3e3f5498	0.18684614
46	0x3e9db34f	0.30800864
47	0x3e4ce4db	0.20009176
48	0x3eb315a6	0.34977454
49	0xbe5a8158	-0.21338403
50	0x3d9e95e3	0.077434324
51	0x3e456374	0.1927622
52	0x3e0a5aed	0.13511248
53	0x3d7740b4	0.06036444
54	0x3e32d474	0.17463857
55	0x3e54170d	0.20711918
56	0x3c609096	0.013706347
57	0xbdc500eb	-0.09619316
58	0xbdc87034	-0.09787026
59	0x3e85e9a4	0.26154816
60	0x3e06e482	0.13173106
61	0x3e1504b3	0.14552574
62	0x3d9be4b3	0.0761198
63	0x3ea9b7bc	0.3314799
64	0x3eb8d378	0.36098838
65	0x3e46b31c	0.19404262
66	0xbe927f39	-0.28612688
67	0xbb9251d9	-0.0044653234
68	0x3eabbdd0	0.33543253
69	0x3d09e6cb	0.033667367
70	0x3e101615	0.14070924
71	0x3e709f6c	0.23498315
72	0x3dd9e116	0.10638635
73	0xbd767b71	-0.060176317
74	0x3ed846cb	0.4224151
75	0xbc99f6d7	-0.01879446
76	0x3e13ffd3	0.14453058
77	0x3d339303	0.043841373
78	0x3ec7c2dc	0.39015853
79	0x3ecc68b6	0.39923638
80	0x3e9454b8	0.28970885
81	0xbe7926d7	-0.24331222
82	0xbd937c51	-0.07201446
83	0x3ecc413f	0.3989353
84	0x3e9aa3ec	0.30203187
85	0x3e9b12d4	0.30287802
86	0x3e83c33d	0.25734892
87	0x3eb504ce	0.35355228
88	0x3e8ea314	0.27858794
89	0x3e8244fc	0.25443256
90	0xbe23f865	-0.16012724
91	0x3e1883c5	0.14894016
92	0xbda7b52a	-0.08188851
93	0x3e46ad7c	0.19402117
94	0xbe31dc61	-0.17369224
95	0xbb7b53a1	-0.0038349407
96	0x3e28a158	0.16467798
97	0x3e8c0346	0.27346247
98	0x3e108aeb	0.14115493
99	0xbd5bb1ab	-0.053636234
100	0xbc396e5b	-0.011317815
101	0x3eb7d5fe	0.3590545
102	0xbe0d8e86	-0.138239
103	0x3dcd8da8	0.100367844
104	0xbe2ee733	-0.17080383
105	0x3e891c58	0.26779437
106	0xbdccf678	-0.10007948
107	0xbc59a8d3	-0.01328488
108	0xbca4b690	-0.020106584
109	0x3e1a9c0e	0.15098593
110	0x3db90e8b	0.09035977
111	0xbc8d7216	-0.017266314
112	0x3e09c20b	0.13452928
113	0xbddbc787	-0.10731416
114	0xbdb703dc	-0.08936283
115	0x3e07fa84	0.13279158
116	0xbe004402	-0.12525943
117	0x3edc2412	0.4299627
118	0x3ecd3090	0.40076113
119	0x3e9dd0e0	0.3082342
120	0x3df66444	0.12030843
121	0xbdeacd87	-0.114649825
122	0x3f1f576d	0.62242776
123	0x3ecd5eea	0.40111476
124	0x3e9b27d7	0.30303833
125	0x3e8779bd	0.26460066
126	0x3c722b66	0.014780855
127	0x3e811abb	0.25215706
128	0x3e5f9fc3	0.21838288
129	0x3d488aca	0.048960485
130	0x3e334aad	0.17508955
131	0x3e33f2fb	0.17573158
132	0xbc085ccb	-0.008322905
133	0xbccf3e1c	-0.02529817
134	0x3eb48278	0.3525579
135	0x3e294b14	0.16532546
136	0x3dd81965	0.105517186
137	0x3e55e03e	0.20886323
138	0x3dc7e77f	0.09760951
139	0x3e6a3c1e	0.22874495
140	0x3daccde4	0.08437708
141	0x3eee5d2a	0.46555454
142	0xbe5d308e	-0.21600553
143	0xbd25077e	-0.04029035
144	0x3eb7a922	0.35871226
145	0xbe5abaa1	-0.21360256
146	0x3da84e6c	0.08218083
147	0x3e273308	0.1632806
148	0x3e5efc47	0.21775924
149	0x3d0b26ab	0.033972424
150	0xbe0cb9a6	-0.13742694
151	0xbce5b5a7	-0.02804072
152	0x3d84a6a1	0.064770944
153	0xbdc25ce6	-0.09490375
154	0x3de53210	0.11191189
155	0xbda2385b	-0.07920905
156	0x3d3bc0f3	0.045838308
157	0x3d2be48c	0.041966006
158	0xbe01eb2f	-0.12687372
159	0xbd81b6d7	-0.06333702
160	0x3dc21e46	0.094784304
161	0x3de2c00f	0.110717885
162	0x3e0f7032	0.14007643
163	0xbd6c754b	-0.057729047
164	0x3de7b0ad	0.11312995
165	0x3cd8b3a4	0.026452847
166	0xbd6cd8db	-0.057823997
167	0xbdaf249a	-0.08551903
168	0x3d9909f1	0.07472599
169	0x3dd36312	0.103216305
170	0x3e09e9d1	0.134681
171	0xbe06c00b	-0.13159196
172	0x3bf73165	0.00754373
173	0x3e02ca3a	0.12772456
174	0x3d9793de	0.0740125
175	0x3c9c8791	0.019107612
176	0x3cb75a6c	0.022381984
177	0xbd2d1022	-0.042251714
178	0xbd94d977	-0.072680406
179	0xbdd97d5c	-0.106196135
180	0xbdc3933f	-0.09549569
181	0xbe0ab4a2	-0.13545468
182	0x3ccd6a94	0.025075234
183	0x3d81018c	0.06299123
184	0xbcdab93e	-0.026699658
185	0xbd887116	-0.066621944
186	0x3c768a96	0.01504769
187	0xbde925b6	-0.11384146
188	0x3e0d447d	0.13795657
189	0xbdd29785	-0.10282806
190	0x3d9040ae	0.07043587
191	0xbd75bdd3	-0.059995484
192	0x3e0224bb	0.12709324
193	0x3cdd91bd	0.027047032
194	0xbd360b21	-0.044444207
195	0x3df12be6	0.11775951
196	0xbd0b3857	-0.033989277
197	0xbd16d0e6	-0.036820315
198	0x3e105260	0.14093924
199	0xbd5356dd	-0.05159651
200	0x3c9adcb0	0.01890406
201	0xbdc87a43	-0.097889446
202	0xbcd498b4	-0.02595172
203	0x3dbea4aa	0.09308751
204	0x3db01690	0.085980535
205	0xbcdaac3b	-0.026693454
206	0x3d978a32	0.073994055
207	0xbd8508e4	-0.064958364
208	0xbdeeff9a	-0.11669846
209	0xbdb6095f	-0.08888506
210	0x3d6726cd	0.056433488
211	0x3dca7e4d	0.09887371
212	0x3d5f9ea5	0.054594655
213	0x3c4bf2ee	0.012448056
214	0x3db1be85	0.08678917
215	0x3d74fb05	0.059809703
216	0x3da449ce	0.080218896
217	0xbd210c45	-0.03931834
218	0xbd5c54e3	-0.05379189
219	0x3ce2aff9	0.0276718
220	0x3d182099	0.037140463
221	0x3dc275e5	0.09495143
222	0x3d015af6	0.031580888
223	0xbc23d805	-0.010000234
224	0xbdfb090d	-0.12257586
225	0xbdc11306	-0.094274566
226	0x3e05abfd	0.1305389
227	0xbdac621d	-0.08417151
228	0x3de6acee	0.112634525
229	0x3de4b744	0.11167768
230	0x3db5918d	0.08865652
231	0x3da6dc15	0.08147446
232	0x3da0d63d	0.07853363
233	0xbd372c95	-0.04472025
234	0x3d7aab89	0.061198745
235	0x3d5465dd	0.051854957
236	0xbca78a18	-0.02045159
237	0x3e037f10	0.12841439
238	0xbba5d5d8	-0.0050608926
239	0x3dced516	0.10099237
240	0x3d058d17	0.032605257
241	0xbd04c6ad	-0.032416034
242	0xbc942e5f	-0.018088518
243	0xba39b313	-0.0007083874
244	0x3d87251a	0.065988734
245	0xbc410543	-0.01178104
246	0x3bb4a1f5	0.005512471
247	0xbc355c7e	-0.011069415
248	0x3d603163	0.0547346
249	0x3cea509d	0.028602893
250	0x3dd64d79	0.104639955
251	0xbd62cc30	-0.05537051
252	0x3d6aa969	0.05729047
253	0x3c7e93fc	0.015538212
254	0xbc8c3049	-0.017112868
255	0x3d5473ef	0.051868375

lstm.weight_hh_l0 f4 [200, 50]
0	0x3deeef8f	0.11666786
1	0xbd919cec	-0.071100086
2	0x3e0d51ae	0.1380069
3	0x3d43eb83	0.047832023
4	0xbab48be5	-0.0013774602
5	0xbcf044da	-0.029329706
6	0xbde21ebc	-0.11041018
7	0xbdf9924d	-0.12186108
8	0xbd694b76	-0.05695673
9	0x3bab1a4c	0.0052216407
10	0x3ca945a0	0.020663083
11	0x3e0d2683	0.13784222
12	0x3d984371	0.074347384
13	0xbd0aabc9	-0.033855233
14	0xbddcfbf3	-0.10790243
15	0x3d7412aa	0.059588112
16	0xbb37f550	-0.0028069802
17	0xbdcbe4d2	-0.099557534
18	0x3db1ce6b	0.08681949
19	0x3cc1f178	0.023674712
20	0xbde2e82c	-0.110794395
21	0xbdc49a3f	-0.095997326
22	0x3d5eac63	0.05436362
23	0x3d66b29f	0.05632269
24	0xbdad8412	-0.08472456
25	0x3ddded7a	0.10836311
26	0xbda8da77	-0.08244794
27	0xbd6b15a2	-0.057393678
28	0x3cb15c88	0.021650568
29	0xbd084f28	-0.033278614
30	0xbd876dea	-0.06612761
31	0xbe0b4d67	-0.13603745
32	0xbdc7de54	-0.097592026
33	0x3c81bbc8	0.015836611
34	0xbdec77bc	-0.11546275
35	0x3cf3ee1f	0.02977663
36	0x3d3d932e	0.04628294
37	0xbdcae0a7	-0.0990613
38	0xbcd79f57	-0.026321096
39	0x3dfeaa37	0.1243481
40	0x3d5a7b91	0.0533405
41	0xbc8fab50	-0.017537743
42	0xbd55b445	-0.05217387
43	0xbd743707	-0.05962279
44	0xbc8bd177	-0.017067654
45	0xbdc0c4ee	-0.09412561
46	0x3df68118	0.120363414
47	0xbc9f9ab8	-0.019482955
48	0xbd11fe18	-0.035642713
49	0x3dc78540	0.09742212
50	0x3e0de6d8	0.13857591
51	0x3d7e19a8	0.062036186
52	0x3dfcf04f	0.12350523
53	0xbd1f5f7b	-0.038909417
54	0x3de5634e	0.112005815
55	0x3d8bb54b	0.06821688
56	0xbdf2ccd6	-0.118554756
57	0x3c0bc2af	0.008530303
58	0x3b14c1a9	0.0022698438
59	0xbde215b3	-0.11039295
60	0x3d9757e9	0.073898144
61	0xbd6516f2	-0.055930085
62	0xbcbe27e2	-0.023212377
63	0x3d07d6d7	0.03316387
64	0x3d3e748e	0.046497874
65	0xbda29212	-0.07938017
66	0x3d7ce5e3	0.061742675
67	0x3dfe1c97	0.12407797
68	0xbc85c0f1	-0.016327353
69	0x3de01e9d	0.10943339
70	0x3cd6a807	0.026203169
71	0xbd8b7d78	-0.06811041
72	0x3e097a7c	0.1342563
73	0x3cee8f8b	0.029121181
74	0xbdb264e6	-0.08710651
75	0xbd6e1931	-0.058129493
76	0x3ddee81a	0.108841136
77	0x3c374234	0.011185218
78	0xbcf7ebdb	-0.030263832
79	0xbe09dd25	-0.13463266
80	0x3d848e82	0.06472494
81	0xbd99a02b	-0.07501253
82	0xbd657d36	-0.056027614
83	0x3da97990	0.08275139
84	0x3dfd52b4	0.1236929
85	0xbdb9c189	-0.09070117
86	0x3dbab39a	0.091162875
87	0xbdbcb192	-0.09213556
88	0xbd3c263e	-0.045934908
89	0x3d904503	0.07044413
90	0xbce85da5	-0.028364966
91	0x3e062a80	0.1310215
92	0xbe061c88	-0.13096821
93	0x3d786bd8	0.060649723
94	0xbdacb6d7	-0.084333114
95	0x3dc32da5	0.095301904
96	0xbda88360	-0.08228183
97	0x3d4244fb	0.047429066
98	0x3dd2a0a9	0.1028455
99	0xbe07f94e	-0.13278696
100	0xbe0a9670	-0.1353395
101	0x3cc34c69	0.023840146
102	0x3d3eea72	0.046610303
103	0xbd7a34b9	-0.061085436
104	0x3db2267b	0.08698746
105	0x3d8f2055	0.06988589
106	0x3d062fd5	0.03276046
107	0x3daaaae0	0.08333373
108	0x3bc3e623	0.005978362
109	0x3caa8c98	0.020818993
110	0x3dd8bd2b	0.10582956
111	0xbda7fcc7	-0.0820251
112	0xbe05e985	-0.13077362
113	0x3d4d8a86	0.050180934
114	0x3e0a4001	0.13500978
115	0xbb379178	-0.002801029
116	0x3ca4a980	0.020100355
117	0xbdb46e91	-0.08810151
118	0xbcc7297a	-0.02431177
119	0x3dd250f8	0.1026935
120	0x3df28712	0.11842169
121	0xbca142aa	-0.019685108
122	0xbdc1611d	-0.09442351
123	0xbd89dc9d	-0.06731532
124	0x3d02ceab	0.031935375
125	0x3dddc17f	0.10827922
126	0xbcb5c3fa	-0.022188175
127	0x3dcbb0ca	0.09945829
128	0xbcd37f58	-0.025817558
129	0x3d8189c3	0.06325104
130	0x3ceeafe5	0.029136607
131	0xbe0ed0c7	-0.1394683
132	0x3d8ba0f5	0.068178095
133	0x3c394aa2	0.011309298
134	0xbdf1dec6	-0.11810069
135	0x3c89054e	0.016726162
136	0xbe0ba1f5	-0.13636
137	0x3d66773a	0.056266047
138	0x3dd4aeb4	0.103848845
139	0xbcdf18f2	-0.027233575
140	0xbda47067	-0.080292515
141	0x3d75b88f	0.059990462
142	0xbc55c652	-0.0130477715
143	0xbd52d819	-0.051475618
144	0x3d934d26	0.07192449
145	0xbdc03de7	-0.09386807
146	0x3ccd1b62	0.025037471
147	0xbd32efb9	-0.04368565
148	0xbce7daf8	-0.028302655
149	0xbd908de5	-0.07058314
150	0x3d66cc8a	0.056347407
151	0x3d951d54	0.072809845
152	0xbdb74461	-0.08948589
153	0xbcc854f0	-0.024454564
154	0xbde677fa	-0.112533525
155	0x3db46e7b	0.08810135
156	0xbc0381da	-0.0080265645
157	0x3e0ffe1c	0.14061779
158	0xbdaf8847	-0.08570915
159	0xbdddd8e2	-0.10832383
160	0xbdd91636	-0.105999395
161	0x3d6bc56b	0.05756132
162	0x3d9fee4e	0.07809125
163	0x3cbf9588	0.023386732
164	0x3d98f20b	0.07468041
165	0x3d864b7d	0.06557367
166	0x3d0d19c6	0.034448408
167	0x3dd16d38	0.1022591
168	0xbdb82de0	-0.08993125
169	0xbdf9b70b	-0.12193116
170	0x3d94702b	0.07247957
171	0xbca76e06	-0.020438205
172	0x3ca9f3ca	0.02074613
173	0x3d9342a1	0.07190443
174	0xbe004be7	-0.12528954
175	0xbdd1fbf5	-0.10253135
176	0xbc30e1a3	-0.0107959835
177	0x3e0b506c	0.13604897
178	0x3c263a9b	0.010145809
179	0xbe092d36	-0.13396153
180	0xbd4a1367	-0.04933491
181	0x3d880acc	0.06642684
182	0x3e08caab	0.13358562
183	0x3d8f169c	0.06986734
184	0xbdabe45a	-0.08393164
185	0x3e0024e4	0.12514073
186	0x3df5149b	0.11966821
187	0xbcf7d532	-0.030253027
188	0xbd965916	-0.073412105
189	0x3d1a4bff	0.03767013
190	0x3d9a0bd3	0.075217865
191	0x3e036303	0.12830739
192	0x3e0ce247	0.13758193
193	0x3d1ddb99	0.038539503
194	0x3dc4373e	0.09580849
195	0x3cb4e6c2	0.02208269
196	0xbc1c1c8c	-0.0095282905
197	0xbdaa9bac	-0.08330473
198	0x3dcf2df6	0.10116188
199	0x3d33fc16	0.04394158
200	0xbd544e1f	-0.051832315
201	0xbd25c954	-0.040475205
202	0x3d9e5956	0.07731883
203	0x3b416f8a	0.0029515945
204	0x3ca8ff7b	0.020629635
205	0xbd6cdf65	-0.057830233
206	0xbe03c0a5	-0.12866457
207	0xbc8ceb51	-0.017202051
208	0xbe0c948c	-0.13728541
209	0xbe015ae7	-0.12632333
210	0x3cf0b795	0.029384414
211	0x3cc5fb8b	0.024167797
212	0x3dd9f2f8	0.10642046
213	0xbda10030	-0.07861364
214	0x3e09f736	0.1347321
215	0xbdcbbdb4	-0.099482924
216	0x3e015011	0.12628199
217	0x3d117e6d	0.03552096
218	0x3d2c89f1	0.04212374
219	0x3da3bb05	0.079946555
220	0xbc5f0cb7	-0.013613871
221	0xbd4bf062	-0.049789794
222	0x3dd47b3a	0.10375066
223	0x3e08c01f	0.13354538
224	0x3d5d5bc1	0.05404258
225	0xbda3f6ac	-0.08006033
226	0x3cac9518	0.021067187
227	0x3dcde07b	0.10052582
228	0xbd9586c7	-0.07301097
229	0x3d9c666c	0.07636723
230	0x3da8f7df	0.08250403
231	0x3c6afac7	0.014342017
232	0xbdfed1a3	-0.12442329
233	0xbcba6b46	-0.02275623
234	0xbd32dce1	-0.043667678
235	0xbd2804f9	-0.041020367
236	0x3e078858	0.13235605
237	0xbd52f4bc	-0.05150293
238	0xbde956a4	-0.113934785
239	0xbd701d2f	-0.05862158
240	0xbdd45e7e	-0.103695855
241	0x3c0ddd5c	0.008658733
242	0xbe009291	-0.1255591
243	0xbcd2e4f3	-0.025743937
244	0x3d87a96b	0.06624111
245	0x3dc63109	0.096773215
246	0xbd8b4a86	-0.068013236
247	0x3d48385a	0.048881866
248	0xbde28c00	-0.11061859
249	0x3d2ea615	0.042638857
250	0x3d60fcdf	0.054928657
251	0xbcd13cef	-0.02554175
252	0x3db180a5	0.08667115
253	0xbdc7307f	-0.09726047
254	0xbcdc59bb	-0.026898256
255	0xbd77b5ba	-0.060476042

lstm.bias_ih_l0 f4 [200]
0	0x3eb8467c	0.35991275
1	0x3e0a6ccb	0.13518064
2	0xbe005c92	-0.12535313
3	0x3ee7e9cf	0.4529557
4	0x3db28bd5	0.08718077
5	0x3ccd7f74	0.025085188
6	0xbdb205ec	-0.08692536
7	0x3d1f4d43	0.038892042
8	0x3e6c10b6	0.2305325
9	0x3ddd3110	0.108003736
10	0x3ebcb2e8	0.36855245
11	0x3e81fbfb	0.25387558
12	0x3df7a41e	0.1209185
13	0x3f00076c	0.50011325
14	0xbd24812d	-0.040162254
15	0x3e61bcb0	0.22044635
16	0x3eee313d	0.4652194
17	0x3eaa7680	0.33293533
18	0x3e32df6b	0.1746804
19	0x3eda1277	0.42592213
20	0x3e2556ba	0.16146365
21	0x3e82ce04	0.25547802
22	0x3e0613a5	0.13093431
23	0x3c30083e	0.010744153
24	0x3e8f3b4e	0.27974933
25	0x3e8d70c8	0.27625108
26	0x3e504278	0.20337856
27	0x3d085276	0.033281766
28	0x3e0df34b	0.1386234
29	0x3ebef0ea	0.37293178
30	0xbe364d3a	-0.17802897
31	0x3ed57063	0.41687307
32	0x3e8199b7	0.25312588
33	0xbdaf5f68	-0.08563119
34	0x3ce967c0	0.028491855
35	0x3e451c90	0.19249177
36	0x3dedaa5c	0.11604759
37	0xbc209bc4	-0.009802762
38	0x3e23ff99	0.16015472
39	0x3e51770f	0.20455573
40	0x3e9f956f	0.31168696
41	0x3ebf8989	0.37409618
42	0x3e8fce48	0.28087068
43	0x3e506205	0.20349891
44	0x3e62c2a3	0.2214456
45	0x3d9e4322	0.07727648
46	0x3e320219	0.17383613
47	0x3ed779fc	0.42085254
48	0x3ee88162	0.4541121
49	0x3e42d436	0.19026265
50	0xbde1fde1	-0.11034752
51	0x3d89199a	0.06694336
52	0xbdd7c22c	-0.10535082
53	0xbe0c78b8	-0.13717926
54	0x3cbe3e04	0.02322293
55	0x3d5aa029	0.053375397
56	0x3ddc49a9	0.10756237
57	0x3d68310f	0.05668741
58	0x3d58d050	0.052933037
59	0xbde6c782	-0.11268522
60	0x3cc51b5b	0.024060896
61	0x3dfb63fe	0.12274931
62	0x3e04403b	0.12915127
63	0xbdb66ef7	-0.089078836
64	0xbd549acf	-0.05190545
65	0x3ba58c4e	0.005052126
66	0xbde6fcaf	-0.11278664
67	0x3e050788	0.12991154
68	0xbd402ccc	-0.04691772
69	0x3ce1ce95	0.027564326
70	0xbd6d0c50	-0.05787307
71	0x3c0f2697	0.008737228
72	0xbe04b489	-0.12959494
73	0xbdc1fb51	-0.09471763
74	0xbe0127fe	-0.12612912
75	0xbdae4d0a	-0.08510788
76	0x3dadf617	0.084942035
77	0x3da65104	0.08120921
78	0xbde09c8e	-0.109673604
79	0x3cc6ab30	0.02425155
80	0xbdf85640	-0.12125826
81	0xbc8dbbd8	-0.017301485
82	0xbe06b078	-0.13153255
83	0x3d8f5c9f	0.07000088
84	0x3cc4d49c	0.024027161
85	0x3df3e1eb	0.11908325
86	0x3d9f6978	0.077837884
87	0xbe027d0c	-0.12743014
88	0xbd1db346	-0.038501047
89	0x3de3b42e	0.11118351
90	0x3de6585e	0.112473235
91	0x3dc2e234	0.09515801
92	0x3dffd7f4	0.12492362
93	0x3aa14a83	0.0012305531
94	0x3d318e15	0.04334839
95	0x3d9cf865	0.07664565
96	0x3cd7fa06	0.026364338
97	0x3cbf5f8b	0.023360988
98	0x3df12ca9	0.117760964
99	0xbc8fd7c1	-0.017558934
100	0xbe8101ec	-0.2519678
101	0xbeb497fd	-0.35272208
102	0xbea1e33c	-0.3161868
103	0xbe311d2d	-0.17296286
104	0x3d7e991d	0.06215774
105	0xbe1bcda2	-0.15215161
106	0xbd3a1b06	-0.045435928
107	0xbe1c799d	-0.15280767
108	0xbebbfd30	-0.36716604
109	0x3e3c49a8	0.18387473
110	0x3ebc85dc	0.36820877
111	0x3e00ebb5	0.12589915
112	0x3d885600	0.06657028
113	0x3e9ec97e	0.310131
114	0x3e92e1ed	0.28687993
115	0x3dfcf337	0.12351077
116	0x3e987e06	0.29783648
117	0xbe7262fc	-0.23670572
118	0xbe8c3b44	-0.27388966
119	0x3e9a0d38	0.3008821
120	0x3e136e96	0.14397654
121	0xbeb5558d	-0.35416833
122	0xbe954570	-0.2915454
123	0x3da71eed	0.081601955
124	0xbe36c743	-0.1784945
125	0x3d9e89d6	0.07741134
126	0x3e3fd7ac	0.18734616
127	0x3e516ec1	0.20452406
128	0xbdd2160e	-0.10258113
129	0x3ea55f04	0.32299054
130	0xbe2f76de	-0.17135188
131	0xbea9cb8f	-0.33163115
132	0x3e7a2d40	0.24431324
133	0x3d11933a	0.035540797
134	0x3e9381f7	0.28810093
135	0x3ea6051e	0.3242578
136	0xbe6b0e47	-0.22954665
137	0x3e7ef855	0.24899419
138	0xbe83404a	-0.25634986
139	0x3e6e93ff	0.23298644
140	0xbe2a76ff	-0.16646956
141	0xbe9bd856	-0.3043849
142	0xba26d261	-0.00063637464
143	0x3e4c8b2f	0.1997497
144	0xbe690d0c	-0.22758883
145	0x3e18b1fe	0.14911649
146	0x3ddf5af6	0.10906021
147	0x3ec2b806	0.38031024
148	0x3eb40c63	0.351657
149	0x3e2da6de	0.16958186
150	0x3e567028	0.20941222
151	0x3eea82a3	0.45802793
152	0xbe7b1bf7	-0.24522386
153	0x3e650a3a	0.22367182
154	0x3da961b9	0.08270592
155	0x3ea6997c	0.32538974
156	0x3e69f912	0.22848919
157	0xbe1a88a4	-0.15091187
158	0x3f0283ff	0.5098266
159	0x3eb82b6b	0.35970625
160	0x3ec12219	0.37721327
161	0x3ecfb80e	0.4057011
162	0x3b8f71c5	0.004377576
163	0x3ecde78e	0.40215725
164	0xbd65269a	-0.055945016
165	0x3d12d519	0.035847757
166	0x3e9e4233	0.3090988
167	0x3c31d009	0.010852822
168	0xbe0a0822	-0.13479665
169	0x3e4d8786	0.2007123
170	0x3da73567	0.081644826
171	0x3e79aaf5	0.24381621
172	0xbd16d6ca	-0.036825933
173	0x3e9eece3	0.31040105
174	0xbc282c44	-0.01026446
175	0xbcfebe2d	-0.031096542
176	0x3e797136	0.24359593
177	0x3e270d89	0.16313757
178	0x3e45633f	0.1927614
179	0x3ef7f52c	0.4842924
180	0x3e76b69e	0.240931
181	0x3ee35843	0.44403276
182	0xbd00977c	-0.031394467
183	0x3c45e4fd	0.012078521
184	0x3ea5d3c5	0.3238813
185	0x3d996886	0.074906394
186	0x3e960b39	0.29305437
187	0x3ebf2dff	0.3733978
188	0x3d8edd00	0.06975746
189	0x3e5d3faf	0.21606325
190	0x3eac9c2c	0.337129
191	0x3bed2102	0.007236601
192	0xbdb8081b	-0.08985921
193	0x3db9bced	0.09069238
194	0x3e2edbbe	0.17076012
195	0x3e06ff33	0.13183288
196	0xbbc1d373	-0.0059150993
197	0x3eea47de	0.45757955
198	0x3e395473	0.18098621
199	0x3f02c8cb	0.51087636

lstm.bias_hh_l0 f4 [200]
0	0x3e143bf8	0.14476001
1	0xbd47a7b1	-0.048743907
2	0xbeb297f9	-0.3488157
3	0x3eef39f7	0.4672391
4	0xbd49d48b	-0.049274962
5	0x3e87445a	0.26419336
6	0xbe0b66e9	-0.13613476
7	0xbdb151bd	-0.086581685
8	0x3ebee905	0.37287155
9	0x3e368a47	0.17826186
10	0x3ec9b50c	0.3939594
11	0x3e81c850	0.2534814
12	0x3e267f43	0.16259484
13	0x3e8f36c1	0.2797146
14	0xbd5aba7b	-0.053400498
15	0x3e690453	0.22755556
16	0x3ec7594e	0.38935322
17	0x3dc710e4	0.097200185
18	0x3e9b12fb	0.30287918
19	0x3e854ded	0.26036015
20	0x3c0a57a8	0.00844375
21	0x3e882fd8	0.26599002
22	0x3b980c33	0.004640126
23	0x3e7c2947	0.24625121
24	0x3de24b68	0.11049539
25	0x3e58aa2a	0.21158662
26	0x3e9c5287	0.30531713
27	0x3e16e7d2	0.1473687
28	0x3ea256a8	0.31706738
29	0x3e6c29ea	0.23062864
30	0xbd5cb5f9	-0.05388448
31	0x3e9366fc	0.28789508
32	0x3ea1b8ba	0.31586248
33	0x3e2b7f75	0.1674784
34	0x3d9307c5	0.07179216
35	0x3eaed23e	0.34144777
36	0x3e5098a4	0.20370728
37	0x3e364620	0.17800188
38	0x3b6c62ca	0.0036069625
39	0x3e957dbc	0.2919749
40	0x3ec14b03	0.37752542
41	0x3e471827	0.19442807
42	0x3e5de94d	0.21671028
43	0x3e810e6c	0.25206316
44	0x3e45cc83	0.19316296
45	0x3dfc3e37	0.12316554
46	0x3e4e3ae9	0.2013966
47	0x3e94dd16	0.29074925
48	0x3f11e520	0.5699024
49	0x3ee0ff31	0.43944696
50	0xbd770cbb	-0.060314875
51	0xbcd8f238	-0.026482686
52	0xbcabe49a	-0.02098303
53	0xbdaca029	-0.084289856
54	0x3e020666	0.12697753
55	0xbe02e00f	-0.12780784
56	0xbd393f72	-0.04522652
57	0xbd801a35	-0.062549986
58	0xbb950f29	-0.0045489264
59	0x3cc4846c	0.023988925
60	0xbd781515	-0.06056698
61	0xbce4d9ec	-0.027935944
62	0xbe0f7389	-0.14008917
63	0xbd6066e1	-0.054785613
64	0xbcef370e	-0.029201057
65	0xbd43a418	-0.047763914
66	0xbdd8aab7	-0.10579436
67	0xbccdee62	-0.025138084
68	0xbd4f91e9	-0.05067626
69	0x3dd9f7d3	0.10642972
70	0x3c404250	0.01173456
71	0x3d53968a	0.051657237
72	0xbdf8a60e	-0.121410474
73	0x3ce36f99	0.027763175
74	0xbd64354a	-0.055714883
75	0x3e0e9293	0.13923101
76	0x3d6cdac8	0.057825834
77	0xbd8fd94b	-0.07023867
78	0x3e0ca7b3	0.13735847
79	0x3de6539b	0.11246415
80	0x3de68236	0.112553045
81	0x3d08c8be	0.033394568
82	0x3d1547d1	0.036445443
83	0xbd7d52fe	-0.061846726
84	0x3d6c895b	0.05774818
85	0xbd0de4fb	-0.0346422
86	0x3db777ab	0.08958372
87	0x3d96d4ae	0.07364784
88	0xbc58bdaf	-0.013228818
89	0xbd2afe28	-0.04174629
90	0x3dd42656	0.103588745
91	0xbdb4b645	-0.08823828
92	0x3db05da3	0.0861161
93	0x3dc414bc	0.09574267
94	0xbd87920f	-0.06619655
95	0xbe049d84	-0.12950712
96	0xbe06fc44	-0.13182169
97	0x3d4071fd	0.046983708
98	0xbdf3fb84	-0.11913207
99	0x3d9313e6	0.0718153
100	0xbeae6e92	-0.34068733
101	0xbe4e173c	-0.2012605
102	0xbe108656	-0.14113745
103	0xbe8002d1	-0.2500215
104	0x3e725dfe	0.23668668
105	0xbebc2877	-0.36749622
106	0xbe168259	-0.14698161
107	0xbe180384	-0.14845091
108	0xbea68b2a	-0.3252805
109	0x3e9cca50	0.30623102
110	0x3ec0619c	0.3757447
111	0x3ec11b64	0.3771621
112	0x3d51a529	0.0511829
113	0x3ea9a83a	0.3313616
114	0x3e382626	0.17983302
115	0x3e9b6416	0.30349797
116	0x3e9e7b3d	0.30953398
117	0xbddfd11e	-0.10928558
118	0xbe9e2e89	-0.30894879
119	0x3e149697	0.1451057
120	0x3e56dd65	0.20982893
121	0xbece535a	-0.40297967
122	0xbe2c979d	-0.16854711
123	0x3e9b6d7a	0.3035696
124	0xbea19378	-0.31557822
125	0x3d95a2dc	0.073064536
126	0x3e5cee23	0.21575217
127	0x3eb79f87	0.35863897
128	0xbe6c4cc8	-0.23076165
129	0x3e8dad61	0.2767134
130	0xbe849884	-0.2589761
131	0xbe835dbe	-0.25657457
132	0x3e671dc6	0.22569951
133	0x3d9ad758	0.07560605
134	0x3e9000b4	0.28125536
135	0x3e20bf2d	0.15697928
136	0xbe5a607e	-0.21325871
137	0x3def6f2f	0.116911285
138	0xbd4462ca	-0.047945775
139	0x3e962c17	0.29330513
140	0xbecb954b	-0.3976234
141	0xbe3529a1	-0.17691661
142	0xbd860beb	-0.06545242
143	0x3e6cf19e	0.23139045
144	0xbe0965aa	-0.13417688
145	0x3eb046bf	0.34428975
146	0x3e58c8d5	0.21170361
147	0x3e8d7b78	0.27633262
148	0x3ea22e17	0.3167579
149	0x3e8b1c97	0.2717025
150	0x3e3b448c	0.18287867
151	0x3ee83f44	0.45360768
152	0xbeb1ff5f	-0.34765145
153	0x3da519e0	0.08061576
154	0x3d6dce9f	0.058058377
155	0x3eb69ab9	0.3566492
156	0xbc376eaf	-0.011195823
157	0xbe21693a	-0.15762797
158	0x3eb7bd67	0.3588669
159	0x3ec07127	0.37586328
160	0x3e876d65	0.2645065
161	0x3ebfffd9	0.37499884
162	0x3da68e1d	0.08132575
163	0x3ed637d2	0.41839463
164	0xbdfe2620	-0.124096155
165	0xbca8f133	-0.020622825
166	0x3e79c8f0	0.24393058
167	0x3e1f6d68	0.15569079
168	0xbe5a953f	-0.21345995
169	0x3e31ae79	0.17351712
170	0x3db3e6d3	0.087842606
171	0x3dd3fec2	0.103513256
172	0x3ccc6997	0.024952693
173	0x3e075cb3	0.13218956
174	0x3cbd2413	0.02308849
175	0x3d55d651	0.05220634
176	0x3eb1f0d0	0.34754038
177	0x3e8a4b18	0.27010417
178	0x3e826917	0.25470802
179	0x3eceb8fc	0.40375507
180	0x3caef4b2	0.021356914
181	0x3e643a19	0.22287787
182	0x3ccad573	0.024759984
183	0xbde1ae1e	-0.11019538
184	0x3e75513c	0.2395677
185	0xbdf2fa8c	-0.11864194
186	0x3ebc9b16	0.3683707
187	0x3e95e3e8	0.2927544
188	0x3d64302e	0.05571001
189	0x3ec9afe2	0.39392
190	0x3f10d3ba	0.5657307
191	0x3e32990e	0.17441198
192	0xbd020009	-0.031738315
193	0x3dc2e9aa	0.09517224
194	0x3e699a3c	0.22812742
195	0x3e868375	0.2627217
196	0xbe3367a5	-0.17520006
197	0x3ef11d6a	0.47092754
198	0x3dea4c17	0.11440294
199	0x3ea4bc3f	0.3217487

lstm.weight_ih_l1 f4 [200, 50]
0	0xbe86b0c0	-0.26306725
1	0xbf12a1d7	-0.572782
2	0x3c623814	0.013807315
3	0xbe6fc277	-0.23414026
4	0x3ea20e20	0.31651402
5	0xbf29094c	-0.6602981
6	0xbedfbc08	-0.43698144
7	0xbec53cf0	-0.38523054
8	0xbea1ace5	-0.3157722
9	0x3ed919f5	0.42402616
10	0x3ea5345a	0.32266504
11	0x3e90e328	0.28298306
12	0x3e943fc0	0.28954887
13	0x3f0c6052	0.54834473
14	0x3e2032bd	0.15644355
15	0x3e76ca7c	0.24100679
16	0x3ec06d06	0.37583178
17	0xbe7a71cc	-0.24457473
18	0xbe982621	-0.2971659
19	0x3ee86b3a	0.45394307
20	0x3ed59e77	0.41722462
21	0xbe8b65e0	-0.27226162
22	0xbe53be72	-0.20678118
23	0x3f028f30	0.50999737
24	0xbefae524	-0.49002945
25	0x3e74a2e2	0.2389026
26	0x3f1b9e33	0.6078827
27	0x3e636aaf	0.22208665
28	0xbebc93b0	-0.36831427
29	0x3eb13232	0.34608608
30	0xbe84f295	-0.25966325
31	0xbeee7e23	-0.4658061
32	0x3e9c22fd	0.30495444
33	0xbe95cd09	-0.29257992
34	0x3ef65c8c	0.48117483
35	0x3e946eee	0.28990883
36	0xbec80757	-0.390681
37	0x3ee94d95	0.45567003
38	0xbeaa966e	-0.33317894
39	0x3e0de969	0.1385857
40	0xbf0619d2	-0.5238315
41	0xbe38ad70	-0.18034911
42	0xbea7ca00	-0.327713
43	0x3e8d9b37	0.27657482
44	0xbe968dd2	-0.29405075
45	0x3eec2177	0.46119282
46	0x3e6e3952	0.23264053
47	0x3e87f088	0.26550698
48	0x3ee34d36	0.44394845
49	0x3ef7f607	0.4842989
50	0xbe9af9b1	-0.30268624
51	0xbeafe687	-0.34355566
52	0x3ba4330e	0.005010969
53	0xbe6b1541	-0.22957326
54	0x3e44838f	0.1919081
55	0xbf1a1db8	-0.602016
56	0xbea7b4ee	-0.32755226
57	0xbe671d59	-0.22569789
58	0xbf0e5285	-0.55594665
59	0x3ed46dde	0.41490072
60	0x3e9d057c	0.30668247
61	0x3e940693	0.28911266
62	0x3e82d91a	0.2555626
63	0x3f135350	0.57549
64	0x3e5d2f13	0.21599989
65	0x3e709722	0.23495153
66	0x3edc002e	0.42968887
67	0xbe89c6b3	-0.26909408
68	0xbee0481d	-0.43805018
69	0x3f0747d9	0.52844006
70	0x3e970cc6	0.29501933
71	0xbf00d0cd	-0.50318605
72	0xbebfc1f9	-0.37452677
73	0x3eed2f6c	0.46325243
74	0xbf0c94bf	-0.5491447
75	0x3e932472	0.28738743
76	0x3f3271d5	0.69704944
77	0x3e74958f	0.23885177
78	0xbe94051e	-0.28910154
79	0x3f047acf	0.5174989
80	0xbeb92072	-0.36157566
81	0xbe9ef65a	-0.31047326
82	0x3ee9c6a4	0.45659363
83	0xbe9365f7	-0.2878873
84	0x3e956364	0.29177392
85	0x3e9f023e	0.31056398
86	0xbe71bd47	-0.2360736
87	0x3ed7f02c	0.42175424
88	0xbec33c84	-0.38132107
89	0x3e158eb1	0.14605214
90	0xbf1325ff	-0.5747985
91	0xbe971f86	-0.29516238
92	0xbee46e60	-0.4461546
93	0x3ebf6443	0.3738118
94	0xbee90951	-0.4551492
95	0x3efc3f1c	0.492669
96	0x3e5bb62f	0.21456216
97	0x3e9b5ef7	0.3034589
98	0x3eade299	0.33961943
99	0x3ef64bda	0.48104745
100	0xbe9bce69	-0.30430916
101	0xbf17e355	-0.59331256
102	0xbea4dadd	-0.3219823
103	0xbe9c55a5	-0.30534092
104	0x3db26a7d	0.08711717
105	0xbed54c07	-0.41659567
106	0xbece5a7a	-0.40303403
107	0xbe548e31	-0.20757367
108	0xbed73a38	-0.42036605
109	0x3f2b6baa	0.6696116
110	0x3e8ae8c5	0.27130714
111	0x3eb0e1de	0.34547323
112	0x3e91c274	0.28468668
113	0x3f1de419	0.61676174
114	0x3ed7938f	0.42104766
115	0x3ecd1b32	0.4005981
116	0x3eedce4f	0.46446463
117	0xbecb0ac6	-0.39656657
118	0xbf0cc7d2	-0.549924
119	0x3e8fbe65	0.28074947
120	0x3ecc3c5d	0.39889804
121	0xbebc957a	-0.36832792
122	0xbef2004e	-0.47265857
123	0x3e90c667	0.2827637
124	0xbef84d2f	-0.48496386
125	0x3ede11e9	0.4337304
126	0x3f12afc7	0.57299465
127	0x3ed16ab2	0.40901715
128	0xbe78a825	-0.24282892
129	0x3f01616c	0.5053928
130	0xbf05d992	-0.5228511
131	0xbecb0b6c	-0.39657152
132	0x3ecb5bd6	0.39718503
133	0xbeb6aa3b	-0.3567675
134	0x3ee8c18a	0.4546016
135	0x3f0af4b2	0.54279625
136	0xbec3e53a	-0.38260823
137	0x3ec51b3c	0.3849734
138	0xbea5025a	-0.32228357
139	0x3e267e71	0.16259171
140	0xbeea6d8b	-0.457867
141	0xbe37e913	-0.17960005
142	0xbee70106	-0.45117968
143	0x3ef41966	0.47675627
144	0xbed2c4a4	-0.4116565
145	0x3efb152f	0.490396
146	0x3ed3696b	0.41291365
147	0x3ebbad88	0.3665583
148	0x3ef4e216	0.4782874
149	0x3e97f65c	0.29680145
150	0xbe75a746	-0.23989591
151	0xbedcf8d4	-0.4315859
152	0xbe6fc5a6	-0.2341524
153	0xbed55b09	-0.41671017
154	0x3eb2f26a	0.34950572
155	0xbf2780a1	-0.6543065
156	0xbec7eec3	-0.39049348
157	0xbeabc692	-0.33549935
158	0xbf032c74	-0.51239705
159	0x3f156eb9	0.58372074
160	0x3ec1cc98	0.37851405
161	0x3e96a4c5	0.29422584
162	0x3eb2b76e	0.3490557
163	0x3ebbf54f	0.36710593
164	0x3e7c4b1e	0.2463803
165	0x3ec6cad1	0.38826612
166	0x3ec51011	0.3848882
167	0xbebcbe33	-0.3686386
168	0xbebbe5cd	-0.36698762
169	0x3ed9a920	0.42511845
170	0x3e17c9fc	0.14823145
171	0xbe71b490	-0.23604035
172	0xbec5fc48	-0.38669038
173	0x3eeabf19	0.4584892
174	0xbf139fe1	-0.5766583
175	0x3f003f23	0.5009634
176	0x3f296ddd	0.66183263
177	0x3ec92fb3	0.39294204
178	0xbe8ad77f	-0.27117535
179	0x3e95dc3f	0.29269597
180	0xbec021c8	-0.37525773
181	0xbe940358	-0.289088
182	0x3ec8e840	0.39239693
183	0xbecd2d75	-0.40073743
184	0x3eb0d4e3	0.3453742
185	0x3eeb92f0	0.46010542
186	0xbed35d71	-0.41282228
187	0x3f09035c	0.5352075
188	0xbea055c1	-0.31315425
189	0x3e1c3673	0.15255146
190	0xbf0039ae	-0.5008801
191	0xbeabf8aa	-0.33588153
192	0xbefb18f1	-0.49042466
193	0x3e87d85a	0.2653225
194	0xbef781d1	-0.4834123
195	0x3ec2826f	0.37990138
196	0x3eebb303	0.46035013
197	0x3eac72b7	0.3368127
198	0x3e97b0a8	0.29626966
199	0x3ea954a2	0.33072382
200	0xbe68bcad	-0.22728224
201	0xbf0369aa	-0.51333106
202	0x3dd08afc	0.10182759
203	0xbe9c06a0	-0.30473804
204	0x3dc73e3e	0.09728669
205	0xbf025f3c	-0.50926566
206	0xbeb8610f	-0.3601155
207	0xbe869b8f	-0.26290557
208	0xbef7625b	-0.48317227
209	0x3ec67284	0.38759243
210	0x3eb07429	0.34463623
211	0x3ec9f942	0.3944798
212	0x3e6496d6	0.22323164
213	0x3f1d5c2b	0.6146876
214	0x3e975806	0.29559344
215	0x3e692699	0.2276863
216	0x3ee0e8ed	0.43927708
217	0xbed1244a	-0.40848
218	0xbeab0de5	-0.33409038
219	0x3ed8383d	0.42230406
220	0x3e3927e8	0.1808163
221	0xbe725b06	-0.23667535
222	0xbed84378	-0.42238975
223	0x3e6de833	0.23233108
224	0xbe83355a	-0.25626642
225	0x3eb306da	0.34966165
226	0x3f0560d7	0.5210089
227	0x3e1802a7	0.14844762
228	0xbe95243c	-0.29129207
229	0x3edf5925	0.436227
230	0xbf07a900	-0.5299225
231	0xbee5fa5a	-0.44917566
232	0x3e975397	0.2955596
233	0xbe6f7931	-0.23386075
234	0x3e8c0bd1	0.27352765
235	0x3ede90c7	0.4346983
236	0xbe4a3798	-0.1974777
237	0x3e0eb24d	0.13935204
238	0xbe89a383	-0.26882562
239	0x3e98fa65	0.29878536
240	0xbf01d858	-0.5072074
241	0xbea5ca13	-0.32380733
242	0xbeacc695	-0.33745256
243	0x3e91c549	0.2847083
244	0xbe8ef7da	-0.2792347
245	0x3e15512f	0.1458175
246	0x3d9965cb	0.074901186
247	0x3e9b0952	0.30280548
248	0x3ebdecfd	0.3709487
249	0x3f05d9fd	0.5228575
250	0xbeb4a127	-0.352792
251	0xbf08fd13	-0.5351116
252	0x3d84d3de	0.06485723
253	0xbe9b8e72	-0.30382115
254	0x3dd3f2e2	0.103490606
255	0xbee701e7	-0.4511864

lstm.weight_hh_l1 f4 [200, 50]
0	0x3db6a4cd	0.08918152
1	0x3d3a7d3c	0.04552959
2	0x3d8663d0	0.065620065
3	0x3e0e1f0a	0.13879028
4	0x3dfffd08	0.12499434
5	0x3dd336c5	0.10313181
6	0xbc624a26	-0.013811624
7	0x3c05b960	0.008161873
8	0x3d782921	0.0605861
9	0xbc1cbcb5	-0.009566476
10	0x3e097664	0.13424069
11	0x3e105487	0.14094745
12	0xbcfe1789	-0.031017082
13	0xbd2fd699	-0.042929266
14	0x3ca716fa	0.020396698
15	0x3dea3a5b	0.11436912
16	0xbcb57ffd	-0.022155756
17	0x3d3b91c4	0.04579331
18	0xbe0f201a	-0.1397709
19	0x3d887e39	0.066647
20	0xbdf520c0	-0.11969137
21	0x3e087698	0.1332649
22	0x3dedb8f2	0.11607541
23	0x3d251466	0.040302657
24	0xbde9b295	-0.11411015
25	0xbe01344b	-0.12617604
26	0xbd38ea4f	-0.04514533
27	0xbd26fabf	-0.040766474
28	0x3cb946c8	0.022616759
29	0xbd52e6a5	-0.05148949
30	0x3da5b1ad	0.080905296
31	0x3dc9d84d	0.09855709
32	0x3db3c271	0.08777321
33	0x3cf76f68	0.03020449
34	0xbd0e2b36	-0.034709178
35	0xbe07e271	-0.13269974
36	0x3db6c719	0.089246936
37	0xbdc8c222	-0.09802653
38	0x3ddf8744	0.10914472
39	0x3dcf3b0b	0.101186834
40	0x3c47a6ac	0.012185734
41	0x3d3a39a7	0.045465138
42	0x3c3c9b4e	0.011511637
43	0x3d7cfc2e	0.061763935
44	0x3d7066cb	0.05869178
45	0x3deaf9c5	0.11473421
46	0x3d88780e	0.066635236
47	0xbdf69356	-0.12039821
48	0xbbbc3a80	-0.0057442784
49	0x3da19dad	0.078914024
50	0xbdf98b85	-0.12184814
51	0x3ca74347	0.020417823
52	0x3cb64a54	0.02225224
53	0xbd5dfd61	-0.05419672
54	0x3bcebf5f	0.0063094343
55	0x3ce6a5a5	0.028155157
56	0x3dde21d5	0.10846297
57	0xbc81c895	-0.015842715
58	0x3e03fd29	0.12889542
59	0xbd91cd33	-0.07119217
60	0x3c8d2665	0.017230222
61	0x3e0056df	0.12533139
62	0xbdf9965e	-0.121868834
63	0xbe0c8235	-0.13721545
64	0x3a6781bc	0.00088312826
65	0xbd62f904	-0.05541326
66	0xbd4186ed	-0.047247816
67	0xbdf7ac8e	-0.12093459
68	0xbd9dfd5c	-0.0771434
69	0xbdd09fe7	-0.10186749
70	0x3c556f10	0.013026968
71	0xbd13fb17	-0.03612813
72	0xbdb2ee9c	-0.087369174
73	0xbd547f2d	-0.051879097
74	0xbdb18146	-0.08667235
75	0x3e00c32b	0.1257445
76	0xbbe4ec06	-0.006986144
77	0x3be2d0ed	0.0069218786
78	0x3e0246af	0.12722276
79	0x3d205251	0.039141003
80	0x3ddd276d	0.107985355
81	0xbd9c2482	-0.07624151
82	0xbd3add8b	-0.045621436
83	0x3caa9e06	0.020827305
84	0x3c754a7b	0.014971371
85	0x3dbfa89d	0.09358332
86	0x3c2eea51	0.010675983
87	0x3dcfea0f	0.10152065
88	0x3e0e0a71	0.1387117
89	0xbe079976	-0.13242134
90	0xbb9478f9	-0.0045310226
91	0x3e01fed4	0.12694865
92	0x3dc97b2c	0.09837946
93	0xbd73fb6b	-0.059565943
94	0x3cfe8727	0.031070305
95	0x3c132d20	0.008982927
96	0xbdbd0cbe	-0.09230946
97	0xbde2d067	-0.11074906
98	0xbcb1a894	-0.02168683
99	0x3c694fd4	0.014240224
100	0xbd4b2802	-0.0495987
101	0xbd8e19b6	-0.06938498
102	0xbc7ddd0e	-0.015494598
103	0xbd833f0e	-0.06408511
104	0xbdbd2515	-0.092355885
105	0x3da4156d	0.08011899
106	0x3dde10b3	0.10843029
107	0xbd8b9fa8	-0.068175614
108	0x3dabe262	0.083927885
109	0xbd005aa3	-0.031336438
110	0xbd2b8c3b	-0.04188178
111	0xbd84dd6e	-0.06487547
112	0x3d96536a	0.07340129
113	0x3e013425	0.12617548
114	0xbd1f01e0	-0.038820148
115	0xbe08f789	-0.13375677
116	0xbd8b3ad5	-0.06798331
117	0xbd9fe5cb	-0.078075014
118	0xbdfa90ca	-0.122346476
119	0xba89cb03	-0.0010512773
120	0x3de5685e	0.11201547
121	0x3dd94acd	0.1060997
122	0xbd3ede5b	-0.046598773
123	0xbd96f4ae	-0.07370888
124	0x3c7875ac	0.015164774
125	0xbe0414a3	-0.12898497
126	0xbd7cbe45	-0.061704893
127	0xbb577f0f	-0.003288213
128	0xbccecb6d	-0.025243485
129	0xbd838f8d	-0.064238645
130	0x3dd659e7	0.10466366
131	0xbdddd104	-0.10830882
132	0x3cb6320a	0.022240657
133	0x3c49acd7	0.012309275
134	0x3def3647	0.116802745
135	0x3c8c89c5	0.017155537
136	0xbe082956	-0.13297018
137	0x3d03f6e0	0.03221786
138	0x3dee05e1	0.11622215
139	0xbd81163d	-0.0630307
140	0x3b7b9983	0.003839106
141	0xbd1d9765	-0.03847446
142	0xbd4f285b	-0.050575595
143	0xbdb65281	-0.08902455
144	0x3d5a191a	0.053246595
145	0xbd4a2e14	-0.04936035
146	0x3ce6458d	0.028109336
147	0x3da134de	0.07871412
148	0x3c5bf935	0.013426115
149	0x3b6f57f0	0.003652092
150	0xbe0f8294	-0.14014655
151	0x3c101506	0.008794075
152	0x3cb2b782	0.021816019
153	0x3e0388d5	0.12845166
154	0xbdd5c517	-0.104379825
155	0x3c9edda3	0.019392794
156	0x3db90999	0.09035034
157	0x3dd09f32	0.10186614
158	0xbd687b4a	-0.056758203
159	0xbe03c240	-0.12867069
160	0x3e02c453	0.12770204
161	0xbd338a47	-0.043833043
162	0x3c9ece27	0.01938541
163	0xbd35b302	-0.04436017
164	0xbcab6e17	-0.020926518
165	0x3cb4e09b	0.022079756
166	0xbd00420c	-0.031312987
167	0x3dd6d646	0.10490088
168	0xbe0a6b8b	-0.13517587
169	0x3c77cf02	0.015125038
170	0xbd82de3e	-0.063900456
171	0x3cc425fd	0.023943895
172	0x3e03b436	0.12861714
173	0xbde501d9	-0.11181993
174	0x3d0f9185	0.035050888
175	0xbdfef519	-0.124490924
176	0x3d1881f7	0.03723332
177	0x3dff6a7c	0.12471482
178	0xbd9dff0a	-0.077146605
179	0xbd8af013	-0.06784072
180	0x3dda0a0a	0.10646446
181	0x3e04d06a	0.12970129
182	0x3e0789a1	0.13236095
183	0x3da0cb98	0.078513324
184	0x3df5f7cd	0.12010155
185	0x3cfca3ab	0.030839762
186	0xbe0ab021	-0.1354375
187	0xbe04f47c	-0.12983888
188	0xbdd62491	-0.10456193
189	0xbd22491b	-0.0396205
190	0xbce351e7	-0.027749015
191	0x3cf77d17	0.030211015
192	0xbe0c68be	-0.13711831
193	0xbe0a966f	-0.13533948
194	0xbd907c55	-0.070549645
195	0x3e0d1461	0.13777305
196	0xbd62d1c1	-0.05537582
197	0x3d347c64	0.04406394
198	0xbc6685dd	-0.014070001
199	0x3d4725d1	0.04862005
200	0xbdd620d0	-0.10455477
201	0x3c1feda0	0.009761244
202	0xbcab8a84	-0.020940073
203	0xbde2248f	-0.11042129
204	0xbccd51f9	-0.025063502
205	0xbdaad52b	-0.0834144
206	0xbda48b38	-0.08034366
207	0x3d24da22	0.04024709
208	0x3d001bdd	0.031276572
209	0x3cb3ab3f	0.021932242
210	0xbd22c609	-0.039739642
211	0xbdb252d8	-0.087072074
212	0xbd265982	-0.040612705
213	0xbe0d9c3a	-0.13829127
214	0xbda0b5e1	-0.07847191
215	0x3da9e77c	0.08296105
216	0xbcb13674	-0.02163241
217	0x3d6260c7	0.055268075
218	0x3d502cfb	0.050824147
219	0xbc869d34	-0.016432382
220	0x3db27a41	0.08714724
221	0xbdfedf32	-0.12444915
222	0x3d19744b	0.03746442
223	0xbd7d27e5	-0.061805625
224	0xbccbbed1	-0.024871262
225	0x3d96b6e3	0.073591016
226	0x3da2102f	0.07913243
227	0xbd2e95a4	-0.042623177
228	0xbc95de61	-0.018294515
229	0xbd99a746	-0.07502608
230	0x3d7ea76e	0.062171392
231	0xbd891fc1	-0.0669551
232	0x3dd7c908	0.105363905
233	0x3d793f9b	0.060851675
234	0x3d695111	0.056962077
235	0x3e01b7cf	0.12667774
236	0x3d8fd293	0.07022586
237	0xbcca98fa	-0.024731148
238	0xbd950144	-0.07275632
239	0xbd94a8ea	-0.0725878
240	0x3e010748	0.12600434
241	0xbd2989dd	-0.041391242
242	0x3e0560ef	0.13025258
243	0x3d95a1ce	0.073062524
244	0x3dee5e68	0.116391
245	0xbd284dc9	-0.041089807
246	0xbd65a818	-0.05606851
247	0x3d26ef66	0.040755652
248	0x3d742bb2	0.059611984
249	0xbd60d0a0	-0.05488646
250	0xbbc66e45	-0.0060556256
251	0xbd8147f5	-0.06312553
252	0x3b9affdd	0.0047302083
253	0xbdf75b14	-0.12077919
254	0x3e0dd484	0.138506
255	0xbd8a1480	-0.06742191

lstm.bias_ih_l1 f4 [200]
0	0x3ebb37fd	0.36566153
1	0x3eb4c3e0	0.3530569
2	0x3e83285e	0.25616735
3	0x3eeb3395	0.4593779
4	0x3e7fd13f	0.24982165
5	0x3eaa08b9	0.3320978
6	0x3ebd2fc1	0.36950496
7	0x3ecf86e6	0.40532607
8	0x3ed4d083	0.41565332
9	0x3e9a36c0	0.30119896
10	0x3ed44b4d	0.414637
11	0x3eb769ec	0.35823
12	0x3ecd47fa	0.40093976
13	0x3e7cca58	0.24686563
14	0x3e15ef65	0.14642103
15	0x3ec18d82	0.37803274
16	0x3eb1374d	0.34612504
17	0x3ea9fc16	0.3320014
18	0x3ea38c1f	0.3194284
19	0x3eff93e1	0.4991751
20	0x3eb52d4a	0.35386115
21	0x3f137ca2	0.5761205
22	0x3ec92016	0.39282292
23	0x3ebcba4b	0.3686088
24	0x3ec816f8	0.39080024
25	0x3eef8e7a	0.46788388
26	0x3f0c1a56	0.54727685
27	0x3ebd9ac7	0.37032148
28	0x3e8a62f8	0.27028632
29	0x3e4a19b4	0.19736367
30	0x3ecd7d2f	0.4013457
31	0x3ee4e64a	0.44706947
32	0x3edea981	0.43488696
33	0x3e6c7493	0.23091345
34	0x3eee17f0	0.46502638
35	0x3e8108c6	0.25202006
36	0x3edca66b	0.43095717
37	0x3ea025b5	0.31278768
38	0x3e7f7b1a	0.24949303
39	0x3ee50735	0.4473206
40	0x3ee0b9fa	0.4389189
41	0x3ea09d70	0.31370115
42	0x3ea29941	0.31757548
43	0x3e895701	0.2682419
44	0x3e8eb966	0.27875823
45	0x3e89b85e	0.26898474
46	0x3e980786	0.2969324
47	0x3ec4aefc	0.38414752
48	0x3f0551be	0.52077854
49	0x3e8c5924	0.2741176
50	0xbe052048	-0.13000596
51	0x3d82749c	0.06369898
52	0x3d9bc69d	0.07606242
53	0xbdaafd5a	-0.08349104
54	0x3ddb845e	0.107186064
55	0x3d897369	0.06711466
56	0xbb09ac77	-0.0021007338
57	0xbd4c3aee	-0.049860887
58	0x3ca78e7a	0.02045368
59	0x3c55835b	0.013031806
60	0xbd57a97c	-0.052651867
61	0x3c40ba06	0.011763101
62	0x3baf07a9	0.0053414893
63	0xbcb999de	-0.022656377
64	0x3ddde6c7	0.10835033
65	0x3e05a05a	0.1304945
66	0xbd6429e7	-0.055704024
67	0x3e034d44	0.12822443
68	0xbd8f9832	-0.07011451
69	0xbe067f77	-0.13134561
70	0xbd87a366	-0.06622963
71	0xbdaba3ff	-0.08380889
72	0xbdd47236	-0.103733465
73	0xbb428d36	-0.002968622
74	0xbc16a674	-0.009194959
75	0x3cd89ed1	0.026442917
76	0x3a79a17c	0.0009522659
77	0xbdea60ba	-0.114442304
78	0x3db6ddd9	0.08929033
79	0xbda3f52a	-0.08005746
80	0xbce107a3	-0.027469462
81	0xbd63dfbb	-0.055633288
82	0x3d2c0248	0.041994363
83	0xbd05fb35	-0.032710273
84	0xbdeaf8a4	-0.11473206
85	0x3d227e1b	0.039671045
86	0x3da709b4	0.081561476
87	0xbdd98011	-0.1062013
88	0xbd0a7744	-0.033805147
89	0xbda779cc	-0.08177528
90	0x3d5926ab	0.053015392
91	0x3dbbb2aa	0.09164937
92	0x3d28c88a	0.041206874
93	0xbcbc7e11	-0.023009332
94	0xbdbf98ef	-0.09355342
95	0x3cee91e0	0.029122293
96	0x3c80e0af	0.015732137
97	0xbd4d9e4e	-0.0501998
98	0x3e0e21fa	0.13880149
99	0x3d6b5a61	0.05745924
100	0x3e0d6eb6	0.13811764
101	0xbd6273fb	-0.05528639
102	0xbe0e508f	-0.13897918
103	0xbdf6084e	-0.12013303
104	0x3d280dd1	0.0410288
105	0xbdcf2704	-0.101148635
106	0x3df8526c	0.12125096
107	0xbdca6357	-0.09882229
108	0xbd8d4adf	-0.06899046
109	0xbdc15921	-0.09440828
110	0xbce965f1	-0.028490992
111	0xbc38bfe9	-0.011276224
112	0xbdc80fe0	-0.09768653
113	0xbdb6e504	-0.089304
114	0x3e0be585	0.13661774
115	0x3d8e13f5	0.069374
116	0xbd7311bc	-0.059343085
117	0x3d7727ba	0.06034062
118	0xbd49e401	-0.049289707
119	0x3c74e7ac	0.014947813
120	0x3d80d015	0.062896885
121	0x3d65ca4f	0.05610114
122	0x3cc81683	0.024424797
123	0x3bfdc01e	0.0077438494
124	0xbcf9128d	-0.030404354
125	0xbcdbc2de	-0.026826318
126	0xbdd16914	-0.1022512
127	0xbd3d81aa	-0.046266235
128	0xbb957411	-0.0045609553
129	0xbc4ef267	-0.012631035
130	0xbdb5b8e3	-0.08873155
131	0x3e0fa7fc	0.14028925
132	0x3da08874	0.07838526
133	0x3d255e4b	0.040373128
134	0xbcb6f7ee	-0.022335019
135	0x3df97a5e	0.12181543
136	0x3d905251	0.070469506
137	0xbd725da1	-0.059171323
138	0xbd8e3fc6	-0.069457576
139	0xbdecf165	-0.1156948
140	0xbd8b5560	-0.06803393
141	0xbdbb76da	-0.091535285
142	0x3ce345cc	0.027743243
143	0xbd9b59de	-0.075855
144	0x3d34dc5c	0.044155464
145	0x3c25e96e	0.010126455
146	0x3da4f8f7	0.08055299
147	0x3cae76d7	0.021296902
148	0xbc2571cd	-0.010097933
149	0xbe045c94	-0.12925941
150	0x3eb79ea7	0.3586323
151	0x3ed4403f	0.41455266
152	0x3ed512d2	0.4161592
153	0x3ef33f58	0.47509265
154	0x3e991d30	0.2990508
155	0x3e839246	0.25697535
156	0x3ecf6144	0.40503895
157	0x3f014424	0.504946
158	0x3e9c4c8e	0.30527157
159	0x3ed9049c	0.4238633
160	0x3eb044a7	0.34427378
161	0x3ece7378	0.4032247
162	0x3efaa12a	0.48951083
163	0x3e5f6a7b	0.21817963
164	0x3e8fc53d	0.28080168
165	0x3ec2eb59	0.3807018
166	0x3f005458	0.501287
167	0x3eea399a	0.45747072
168	0x3ede7e64	0.43455803
169	0x3ef6f2f1	0.48232225
170	0x3ebd2b26	0.36946982
171	0x3f0b59ea	0.5443407
172	0x3eb6e816	0.35723943
173	0x3e8e49fb	0.27790818
174	0x3e6d7567	0.23189317
175	0x3ed5f73c	0.41790187
176	0x3ef61330	0.48061514
177	0x3e9a2b46	0.3011114
178	0x3eb54ac1	0.35408595
179	0x3ea75c8f	0.32687804
180	0x3ee22675	0.44169965
181	0x3ed2cc0e	0.41171306
182	0x3ed5b6d5	0.41741052
183	0x3e8d200d	0.27563515
184	0x3ed9bd2c	0.4252714
185	0x3f00f32c	0.5037105
186	0x3ee87711	0.4540334
187	0x3e6a1c8e	0.22862455
188	0x3e8fd108	0.28089166
189	0x3e5e9354	0.21735889
190	0x3e9ad3ce	0.3023972
191	0x3e83db45	0.25753227
192	0x3f011383	0.504204
193	0x3ed2f8b2	0.41205364
194	0x3e81398e	0.25239223
195	0x3ebd4de2	0.36973482
196	0x3ef34d44	0.47519886
197	0x3e59e64f	0.21279262
198	0x3ef29587	0.47379705
199	0x3f080899	0.5313812

lstm.bias_hh_l1 f4 [200]
0	0x3ecc02cb	0.3984588
1	0x3ef7f86e	0.48431724
2	0x3e79dc67	0.24400483
3	0x3e9656c3	0.2936307
4	0x3ea3e035	0.32006994
5	0x3ed5edbc	0.4178294
6	0x3ec88069	0.3916047
7	0x3ef8c16c	0.4858507
8	0x3e90cd3b	0.28281578
9	0x3e9f1761	0.31072524
10	0x3e5a6b55	0.21330006
11	0x3ea652ee	0.32485145
12	0x3ef42b64	0.47689354
13	0x3ee94448	0.45559907
14	0x3ec80d14	0.39072478
15	0x3edc020d	0.42970315
16	0x3e9ff2e5	0.3124
17	0x3ed8960a	0.4230197
18	0x3e74a756	0.23891959
19	0x3e996d39	0.29966143
20	0x3eb161ca	0.3464492
21	0x3ee16ebe	0.44029802
22	0x3ea9c0a4	0.33154786
23	0x3e8912c1	0.2677212
24	0x3e890039	0.26757982
25	0x3e886be6	0.2664482
26	0x3f060374	0.5234902
27	0x3ed0fc57	0.4081752
28	0x3e869353	0.26284274
29	0x3ee54712	0.44780785
30	0x3e787cf1	0.24266411
31	0x3e81782f	0.25287005
32	0x3edb26a7	0.42802927
33	0x3eaeb666	0.34123534
34	0x3e93bde9	0.28855827
35	0x3ed7f3ed	0.42178288
36	0x3e56f4a9	0.20991768
37	0x3ed7d0d9	0.42151526
38	0x3ec8c026	0.39209098
39	0x3e97b03f	0.29626653
40	0x3ecf20f5	0.40454832
41	0x3eea9ec2	0.45824248
42	0x3ead397b	0.33832917
43	0x3eae59bb	0.34052834
44	0x3ebb006d	0.36523762
45	0x3ebcec5e	0.36899084
46	0x3e8d2b77	0.27572224
47	0x3ef0cdf1	0.4703212
48	0x3effabd4	0.49935782
49	0x3ea57c77	0.32321522
50	0xbd495c24	-0.049160138
51	0xbdc1a276	-0.09454815
52	0xbcbd137a	-0.023080576
53	0x3dc01596	0.09379117
54	0x3e10730a	0.14106384
55	0xbd9fb0b5	-0.07797376
56	0x3db97b8f	0.0905677
57	0x3d3a30ba	0.045456626
58	0xbd948fcb	-0.07253989
59	0x3de3702f	0.11105382
60	0x3de1b2a5	0.11020402
61	0x3e0ef1fe	0.139595
62	0xbdd9fa55	-0.1064345
63	0xbd38223c	-0.044954523
64	0xbc40a268	-0.011757471
65	0x3dc0ad11	0.0940801
66	0xbd7b6dd4	-0.061384037
67	0x3da9d532	0.08292617
68	0x3c74d63b	0.014943655
69	0xbd8e61cb	-0.06952246
70	0x3db2d231	0.08731497
71	0xbe0077fb	-0.12545769
72	0xbd3915ba	-0.045186736
73	0x3cd33a9d	0.025784785
74	0x3bb47a14	0.005507717
75	0x3d95ea5f	0.07320093
76	0x3d8baa58	0.068196
77	0x3e0ab8e6	0.13547096
78	0xbc8e9ab0	-0.017407745
79	0xbdd38f81	-0.103301056
80	0xbe0d015f	-0.13770054
81	0xbde4399c	-0.111438006
82	0xbd9cfd38	-0.07665485
83	0x3dcf50d2	0.10122837
84	0x3d9de235	0.07709161
85	0x3d94dc0e	0.072685346
86	0xbdcf6e14	-0.101284176
87	0x3df68953	0.12037911
88	0xbdc92490	-0.09821427
89	0xbe10c9cd	-0.14139481
90	0x39b974d9	0.00035373008
91	0x3de2a6bf	0.110669605
92	0x3dac81b4	0.084231764
93	0x3df30692	0.118664876
94	0x3dd9bb47	0.106314234
95	0xbc2a3dc0	-0.010390699
96	0xbd2460f8	-0.04013154
97	0x3cd21631	0.025645347
98	0xbd992c65	-0.07479171
99	0xbdc3557b	-0.095377885
100	0x3d01bfa8	0.03167692
101	0x3d446798	0.047950357
102	0x3d94cb41	0.0726533
103	0x3c871cfa	0.01649331
104	0xbda2e679	-0.079541154
105	0x3d816a64	0.063191205
106	0x3dfcf687	0.12351709
107	0x3dce8d2d	0.10085521
108	0x3db4211b	0.08795377
109	0xbd74a83e	-0.05973076
110	0xbdbbfde0	-0.09179282
111	0xbd6abe21	-0.057310227
112	0xbd4dfc21	-0.050289277
113	0xbdfe035c	-0.124029845
114	0xbd17cb43	-0.03705908
115	0xbdc03854	-0.09385744
116	0x3df49690	0.1194278
117	0x3d9ed777	0.077559404
118	0xbddaef24	-0.10690144
119	0x3da793c2	0.081824794
120	0xbd37f2f2	-0.044909425
121	0x3e10b753	0.14132433
122	0xbd92a5c1	-0.07160521
123	0xba93dfdd	-0.0011281926
124	0xbd571a16	-0.052515112
125	0xbc33ca00	-0.0109734535
126	0x3dcf2fef	0.101165645
127	0x3cc59906	0.024120819
128	0xbde0f365	-0.10983924
129	0x3e07dfb0	0.13268924
130	0xbda8698b	-0.08223256
131	0x3da46427	0.08026915
132	0xbdf868be	-0.12129353
133	0xbb1bd6c2	-0.0023779129
134	0x3d6b068b	0.057379287
135	0xbd435169	-0.04768506
136	0x3d88cac7	0.06679302
137	0xbdb7df8a	-0.089781836
138	0xbd889e1a	-0.066707805
139	0xbddd6897	-0.108109646
140	0x3d082e31	0.033247177
141	0xbc8a625f	-0.01689261
142	0x3d07500a	0.033035316
143	0x3dfd3e97	0.12365454
144	0xbcff0c14	-0.031133689
145	0x3e147e47	0.14501296
146	0x3d39d9ba	0.045373656
147	0x3df63470	0.120217204
148	0xbd5da39a	-0.0541111
149	0x3d94e279	0.07269759
150	0x3e973a41	0.29536632
151	0x3ef545a5	0.47904697
152	0x3efdc9f4	0.4956814
153	0x3ede499c	0.43415534
154	0x3eb6d433	0.3570877
155	0x3e3bd5c0	0.18343258
156	0x3e760509	0.24025358
157	0x3e789c2b	0.24278323
158	0x3e8e65c3	0.27812013
159	0x3ef7bc64	0.48385918
160	0x3e9d8590	0.30765963
161	0x3e98dcc6	0.29855937
162	0x3e9d019b	0.30665287
163	0x3eb857c7	0.3600447
164	0x3e3b3dc3	0.18285279
165	0x3eafa81f	0.34307954
166	0x3e9ac172	0.30225712
167	0x3ea70b70	0.32625914
168	0x3ed47a0b	0.4149936
169	0x3eaf52c5	0.34242836
170	0x3ea25ae3	0.31709966
171	0x3ea879a5	0.32905307
172	0x3e9d2157	0.306895
173	0x3ea58aac	0.3233236
174	0x3ebe3ba2	0.3715487
175	0x3e796a62	0.24356988
176	0x3eeb6735	0.45977178
177	0x3ecda9a5	0.4016849
178	0x3eacfb0c	0.33785284
179	0x3e6ceefb	0.23138039
180	0x3ec5e525	0.38651386
181	0x3e861ea3	0.2619525
182	0x3eccb2ad	0.3998007
183	0x3e6c7789	0.23092474
184	0x3e853864	0.26019585
185	0x3eb72790	0.3577237
186	0x3edf8aa7	0.4366047
187	0x3ed4a910	0.41535234
188	0x3e9f2efb	0.3109053
189	0x3ec41c04	0.38302624
190	0x3eaca2c0	0.33717918
191	0x3ec5f56d	0.38663808
192	0x3e95bf2b	0.29247412
193	0x3e971ba7	0.29513285
194	0x3ec89500	0.39176178
195	0x3e954324	0.29152787
196	0x3ecc2a26	0.39875907
197	0x3ef586ab	0.47954306
198	0x3e9fbd01	0.31198886
199	0x3ea09447	0.31363127

fc.weight f4 [1, 50]
0	0xbf2d6a19	-0.6774002
1	0x3f323095	0.6960538
2	0x3f0778a3	0.5291845
3	0x3f176542	0.5913888
4	0x3f10ca05	0.5655826
5	0xbf028576	-0.50984895
6	0xbefe811c	-0.49707878
7	0x3f274cc2	0.653515
8	0xbf3ceca7	-0.737986
9	0x3f3c0697	0.73447555
10	0x3f2616e0	0.64878654
11	0x3f2dbd5d	0.6786707
12	0x3f1d1101	0.6135407
13	0x3f0ac5e5	0.54208213
14	0xbf1d93dd	-0.61553746
15	0x3f2020a5	0.6254981
16	0xbf22fb7f	-0.63665
17	0x3f261a90	0.6488428
18	0x3f286b19	0.6578842
19	0x3f235a34	0.63809514
20	0x3f2def60	0.6794338
21	0x3f2ec2bb	0.68265885
22	0xbf2c4084	-0.67285943
23	0xbf063cc3	-0.52436465
24	0x3f17f0a6	0.59351575
25	0xbf13cf3d	-0.57738096
26	0x3f34e178	0.7065654
27	0x3f2567c0	0.64611435
28	0xbf36bccb	-0.71381825
29	0xbf194a7f	-0.59879297
30	0xbf0bb8ce	-0.54578865
31	0xbf2281c3	-0.6347925
32	0x3f2cf958	0.6756797
33	0x3f11db7a	0.5697552
34	0xbf26585c	-0.64978576
35	0xbf34833f	-0.70512766
36	0xbf26c7a7	-0.65148395
37	0x3f1760c4	0.5913203
38	0xbf14c76a	-0.5811678
39	0x3f1a8cca	0.6037108
40	0x3f244153	0.64162177
41	0xbf191885	-0.5980304
42	0x3f3132fe	0.6921843
43	0xbf2a6bfa	-0.6657101
44	0xbf188324	-0.59575105
45	0xbf37fa65	-0.71866447
46	0x3f2f7102	0.6853181
47	0x3f0ff77e	0.5623702
48	0xbf1b5689	-0.6067892
49	0xbf19d147	-0.60084957
